weights/008/cp_SSC_PALNet.pth.tar (torch_old, 935361 bytes, 68 tensors)

conv2d_depth.0.weight f4 [6, 1, 3, 3]
00000000: 6827 4e3d f1b4 503e 462f 453e dc4e 59bd
00000010: 3d73 8e3e f18f 5e3e b83f de3c 17e4 b63e
00000020: 2faf 9c3d d4e6 9fbb 0b99 1a3d f63d b9bc
00000030: da0a e73d 67ef 3bbe 9045 f5bd 7856 33bd
00000040: 8f4a 6b3d 0753 07be 2e25 9d3e 8cf3 093e
00000050: f28e 8f3e dec6 1dbd c247 ab3d f862 1e3e
00000060: c58d 463e 2fbd 173e 6f25 2a3e a3a6 07be
00000070: 1b98 57be 5a45 44be 7d8b 33be 693a a73d
00000080: 5335 bdbd cf5d 91bd 01ec 3e3e 37b6 32be
00000090: d1db f6b9 c558 c93d a3f5 1a3e e1f9 4bbd
000000a0: 91eb 943c f1fb 06be 5807 49be 4fb9 49be
000000b0: 3051 7b3d 5ed6 9bbc bc82 0c3e 1c51 013e
000000c0: 07aa af3e f123 723e 235d ac3e da6c c63e
000000d0: 2bd9 a33d 87fc b93e
0.05033055 0.20381524 0.19256315 -0.05305372 0.27822295 0.21734597 0.027129993 0.35720894
0.07650601 -0.004879812 0.03774361 -0.022612553 0.11281367 -0.18353043 -0.119761586 -0.043783635
0.05744415 -0.13215266 0.30692428 0.13471812 0.28038746 -0.038519733 0.08363296 0.15467441
0.19390018 0.14818262 0.16615842 -0.1324716 -0.21054117 -0.1916708 -0.1753368 0.08165438
-0.092386864 -0.07097971 0.18644716 -0.17452322 -0.00047084552 0.098313846 0.15132765 -0.04979885
0.018178733 -0.13182046 -0.19631708 -0.19699596 0.061356723 -0.019023117 0.13721746 0.12628597
0.34309408 0.23646523 0.33664808 0.38754922 0.08000406 0.36325476

conv2d_depth.0.bias f4 [6]
00000000: 02ad b93e a073 c5bc 3b9f fe3c 065e bebd
00000010: f76b 553e 44ce d23e
0.36264807 -0.024102986 0.031081786 -0.09295277 0.20841967 0.41172993

res_depth.0.weight f4 [3, 6, 1, 1]
00000000: 3b93 b33c fc0c 613e 605d 923c e5fc 54be
00000010: a14b 68be 804d aa3d ede7 a43d d598 91bd
00000020: 661f 103d 427c edbd 7e04 0a3e 093b 80bd
00000030: 3af8 88bd 0a02 883d 1fb9 793d 8dd6 813e
00000040: 5587 143e 91b9 d1bd
0.02192079 0.2197761 0.01786679 -0.20799597 -0.226851 0.08315563 0.08052049 -0.071092285
0.035186194 -0.11595966 0.13478276 -0.0626126 -0.066879705 0.06641014 0.06096756 0.25359002
0.1450475 -0.10240472

res_depth.0.bias f4 [3]
00000000: 567e 15be 2b38 40be 58c1 723e
-0.14598975 -0.18771426 0.23706567

res_depth.2.weight f4 [3, 3, 3, 3]
00000000: 997d f53d b8fb 9a3d 53c0 613d 3f65 cc3d
00000010: f7dc d53d 3820 d9bd 8e4d fb3c d759 883d
00000020: 3062 123d aca2 863c f5a4 b1bd d313 0e3d
00000030: 9f2a 38bc 1de4 fdbd 2bb6 913d 9e30 753d
00000040: 59eb c0bb af6d 9f3d e0b1 31bd 37d9 eabd
00000050: 33bb 213d b759 98bd b37d 95bd a5a1 f8bd
00000060: bcb4 9e3d 1495 86ba 7b7d da3d 11c7 a6bd
00000070: da93 b53d a35e 3b3d 07f9 993d 27ff 6d3d
00000080: 03be e1bd 3ada bc3d 07ba fcbd d76c fbbb
00000090: e47a e8bd 0d0b 98bb bbec e7bd 91d4 a73d
000000a0: 1adb 43bd 7b55 dc3d d9ed 4ebb 11f2 d93b
000000b0: 87cc 67bd 3d7f 32bd 757c 21bd c4ce debd
000000c0: 341d 4fbd 1aad aabd 7d53 e7bd 910e e0bd
000000d0: 8df5 4ebc 50af 973d 9b04 91bd 8656 a3bd
000000e0: 678d f8bd 8d35 9ebb 5f51 a0bd b1a8 00bd
000000f0: 6c02 603d 712d d3bb 5590 093d dc17 fcbd
00000100: 3e3b c1bd a780 e0bd 92e4 58bd b0eb 5fbd
00000110: 1ea2 91bd c8b8 9cba 4fa2 3dbd 11e3 6f3d
00000120: 3761 87bc 54fc f93d 93d7 d4bd 66dc 62bc
00000130: d2f8 ba3c e7fa e63d e659 ecbd a73f 703d
00000140: 749f 093d
0.119868465 0.07567543 0.055115055 0.09980249 0.10442536 -0.10601848 0.03067663 0.066577606
0.03573817 0.01643499 -0.08674041 0.034686875 -0.01124063 -0.12397025 0.07114824 0.059860818
-0.0058874306 0.07784592 -0.043382525 -0.11467212 0.039485168 -0.07438987 -0.07299366 -0.12140206
0.07749316 -0.0010267817 0.10668465 -0.08143438 0.08866091 0.04574455 0.07518201 0.05810466
-0.1102257 0.09221311 -0.123401694 -0.007672887 -0.113515645 -0.004639989 -0.1132445 0.08194841
-0.047816373 0.107584916 -0.0031574874 0.006651171 -0.056591537 -0.043578375 -0.039425332 -0.10879281
-0.05056496 -0.08333798 -0.11295221 -0.10940278 -0.012631786 0.07406485 -0.070809565 -0.079754874
-0.12136345 -0.004828161 -0.0782802 -0.031410877 0.05468981 -0.006444626 0.03358491 -0.12309238
-0.09435128 -0.109620385 -0.052952357 -0.05466813 -0.071109995 -0.0011956925 -0.046297368 0.058566157
-0.016525848 0.12206331 -0.1039268 -0.013846492 0.022823725 0.112783246 -0.11540584 0.058654454
0.033599332

res_depth.2.bias f4 [3]
00000000: f141 e43d 585d f8bd 621c ddbd
0.1114539 -0.12127179 -0.10796429

res_depth.4.weight f4 [6, 3, 1, 1]
00000000: c744 33be 8e44 e4bd 8017 01be dbfd 9ebd
00000010: abca 8e3e d5d5 913e da75 f53d 0a31 17be
00000020: 5168 0c3e 118c 913e 7a0b b83d 8bec bc3e
00000030: 02f2 e13d d658 9dbe 6190 033d 3a5f 28be
00000040: e657 8c3e 84f0 adbe
-0.17506705 -0.11145888 -0.12606621 -0.07763263 0.27888998 0.28483453 0.11985369 -0.147648
0.13711669 0.28427175 0.08986564 0.36899218 0.110324875 -0.3073184 0.032120112 -0.16442576
0.2741081 -0.3397256

res_depth.4.bias f4 [6]
00000000: dab3 d53d d93c e2bd 48f8 f6bd fdbd 0d3f
00000010: 21a2 8d3e f944 ef3e
0.104346946 -0.11046762 -0.12059075 0.55368024 0.27662757 0.4673231

pool1.weight f4 [8, 6, 7, 7, 7]
00000000: aafb a83a 3a12 833c 69cb 853c d001 f4bb
00000010: 3161 133c 31e6 ca3c 956a 663d 6492 b53c
00000020: fedf e23c 9728 8bb9 3ce2 ccbb a8cf e83b
00000030: 75b2 0b3d 8471 3a3d bfeb 18bc 39a7 033d
00000040: 094d 8f3c 0e0c c53c ad90 143c c1b1 483d
00000050: 4e16 c93b 91d8 9bbc d308 033d 3cb9 5b3b
00000060: a455 27bc 7f77 273c 08ed d23b c62d c0bb
00000070: de06 6c3c d9f2 723c abc6 b5bc 2d81 e2bc
00000080: a249 dfbb 3f43 b13b 0df1 4b3c ab4f c83c
00000090: 5328 71b6 7334 4c3c f42b 2b3c 4f00 7f3c
000000a0: 6d2a a53c 59c2 20ba 6236 043d c8fc 913c
000000b0: 1dcf b63c 4b07 e03c 3335 b13c 3754 593d
000000c0: 93d9 043d 75c2 413d 0000 463d d96c ee3c
000000d0: c456 ce3b e839 453d 8cc8 043d abb0 b23c
000000e0: 8994 ee3c 1331 5a3d 1fc7 0f3d 4d02 993c
000000f0: 54ce a13b 741a 4f3d 208d 323d 45f3 0c3d
00000100: 78b3 933c 2288 dc3b e74a 683c 88d0 803c
00000110: d68d 463d 0890 f33c 8fdc de3c c98f c53c
00000120: 3f95 12b9 917e f4bb 9136 393c 1edc 383c
00000130: c9e3 013d 835a 0b3c d22b c13c fa54 d83b
00000140: 7db2 923c 504b 9f3b 0e9b 5f3c 03ff 2e3c
00000150: 0a03 383c 0412 a43c ae8f 8d3c 29c5 c4b9
00000160: 54a6 cd3c 4456 083d d538 623c 2143 0b3d
00000170: 7c20 bb3c 5981 f13c dc3d e33c 8490 f03c
00000180: 1b7a 493d 0e75 a23c 6d4b 40bb 6a82 833c
00000190: 66ef 38bc 7bcf 0bbd b67d 593c 2507 953b
000001a0: 6a0f bd3c 8e26 403c 540c f33c ae4f 09bd
000001b0: 811d b83b 47c9 8f3b 4196 b93b 4118 edbb
000001c0: daec 89bc 65e7 15bb aea9 a8bc c55d 07bd
000001d0: 0d48 6a3c a316 ffbb 72ee dd3c fd1b dd3b
000001e0: e2fe 39bc 2bd6 a43b 3182 a4bc e6ea 3f3c
000001f0: b304 593c 93ba c2bb e452 0fbc 8bc3 5fbc
00000200: 3bad 0bbd b24f 25bb 0d1e debc 57fa a33c
00000210: c53d 6dbb 6e19 5abc dfcd 603c 75f5 81bc
00000220: c5f3 9cbc e607 0cbd bd7e e53b 97c0 a03c
00000230: cfc5 1ebb 6b03 0a3d b0d4 ab3b 6e5e 53b7
00000240: d8df 833c 2fdf 163d 9cee 113d cbdc d13b
00000250: fc48 c6bc c433 debc f30e 8f3a 6c75 7bbc
00000260: 1993 c0bb d1ef 593c 3d5f a3bb f9ba a6bc
00000270: 456c 02bd 77bc 64bc b546 4d3c bf10 c73c
00000280: f299 4f3c 8702 833c 08a3 ca3c 0f5c 343c
00000290: d50c 8fbc d59c 32bc 605a 4a3c 445c 51bc
000002a0: 50fb 5dbc a436 da3c 69b7 10bc e932 9d3c
000002b0: 7a16 6eba f078 af3b 8192 993c 6491 43bc
000002c0: 0796 92bc 367c c1bc 2e75 293b 42e9 0abc
000002d0: 8f5e 143c ee2f 96bc 0b43 a23c 0cde 4c3c
000002e0: 86fc 36bc 5408 4339 6e60 ffbb 9dcd 0d3b
000002f0: 7c91 1ebc 4fa2 5fbc 1a3c 3a3c 9202 f4bc
00000300: b9fc 053c 2dd6 603c 88b1 ed3b 6cc6 a83b
00000310: 796f ab3b b76e 613b f963 42bd 0a74 96bc
00000320: 7988 9abc 77f2 553c 0d2f 8a3c 9527 02bd
00000330: 5230 1bbc 1ecb ddbc 1919 bc3b e437 603c
00000340: 7266 2f3d 176d 213c 38eb bbba 287e ac3a
00000350: f7e2 483c 66c2 043c 11ee 0ebc 4ce4 cc3c
00000360: cc2d 2abc ed7d 323c 400f 9d3c f375 39bc
00000370: 2a30 05bc 71cf a9bc d213 22bc 2b49 b63c
00000380: 70b0 463c 1935 a1bc e04e 4e3b 1cd7 f23b
00000390: 05e3 373c f352 063b 0ab5 feba 90da 4d3c
000003a0: e201 0cba ecfc 80bb eaca d5bc ac5f dbbc
000003b0: 44cf d63b 7455 b63c 3e55 bcbc d1e5 82bb
000003c0: 4c7f 22bc 693a c5bb 403d cbbc d261 c03c
000003d0: 28fd 873c 7191 0e3d 6fc0 b63c 6d1f 8aba
000003e0: 4f27 bc3c 824f bb3b 057b 293d 882d aa3c
000003f0: 2296 1d3c 84ad a13c 7cfd 3cbb a3ac 773c
0.0012892385 0.015999902 0.016332345 -0.007446505 0.00899534 0.024767967 0.05625399 0.022164531
0.027694698 -0.00026542388 -0.006252555 0.0071048327 0.034105737 0.045518413 -0.00933355 0.032141898
0.017492788 0.0240536 0.0090676965 0.048997644 0.006136692 -0.019024165 0.031990837 0.0033527156
-0.010213289 0.010221361 0.0064369477 -0.0058648316 0.014405934 0.014828407 -0.022189459 -0.027649486
-0.0068141976 0.0054096277 0.012447608 0.024452051 -3.593527e-06 0.012463677 0.010447491 0.015564038
0.020161832 -0.00061324757 0.032278426 0.01782073 0.022315556 0.027347228 0.021631813 0.05305883
0.032434057 0.04730459 0.048339844 0.029104637 0.0062969644 0.048150927 0.03241782 0.021812757
0.029123561 0.053269457 0.035102006 0.018677855 0.0049379263 0.050562337 0.04359162 0.034411687
0.018029913 0.0067300955 0.014178014 0.015724435 0.04847511 0.029731765 0.02720478 0.024116414
-0.00013979244 -0.007461377 0.011304514 0.011282949 0.031711373 0.008505466 0.023580465 0.006601927
0.017907375 0.004861273 0.013647808 0.010680917 0.011231193 0.020028122 0.017280426 -0.0003753093
0.025103725 0.033285394 0.013807495 0.033999566 0.022842638 0.029480623 0.027739458 0.029365785
0.049188714 0.019831207 -0.0029341832 0.016053397 -0.011287546 -0.034133416 0.013274601 0.004547971
0.023078639 0.011727942 0.029668964 -0.033523254 0.0056187515 0.004388008 0.0056636636 -0.0072355573
-0.016836572 -0.0022873518 -0.020588722 -0.03304841 0.014299405 -0.007784681 0.027091239 0.006747721
-0.011352273 0.0050304136 -0.020081611 0.011713719 0.013245749 -0.0059426515 -0.00874779 -0.013657461
-0.034100752 -0.0025224504 -0.027113939 0.020016832 -0.0036200148 -0.013311727 0.0137209585 -0.015864113
-0.019159207 -0.03418722 0.007003634 0.019623084 -0.002422679 0.033694666 0.00524386 -1.2598566e-05
0.016097948 0.03683394 0.035627946 0.0064044944 -0.024204724 -0.027124293 0.0010914489 -0.01534782
-0.0058769104 0.013301806 -0.0049857185 -0.020352827 -0.031841535 -0.013960949 0.012529065 0.024299977
0.012670981 0.015992416 0.024735942 0.011008277 -0.017462173 -0.0109016495 0.012350649 -0.0127783455
-0.013548687 0.026637383 -0.008832791 0.019189315 -0.0009082329 0.005354993 0.018746616 -0.011936519
-0.017893804 -0.023618799 0.0025857198 -0.008478465 0.009055748 -0.018333402 0.01980736 0.012504112
-0.011168605 0.00018599752 -0.0077934777 0.0021637448 -0.009678241 -0.013649537 0.011366868 -0.029786382
0.00817793 0.0137229385 0.0072538294 0.005150607 0.0052317944 0.0034398267 -0.047458623 -0.018365879
-0.018863903 0.013058296 0.016868139 -0.03177603 -0.00947197 -0.027074393 0.0057402966 0.0136852
0.04282231 0.009852669 -0.0014337068 0.0013160156 0.012261144 0.008102989 -0.008723752 0.025011204
-0.010386895 0.010894281 0.01917231 -0.011319625 -0.008129159 -0.020728799 -0.009892421 0.022251686
0.012127027 -0.01967864 0.0031480119 0.007410897 0.011223559 0.002049622 -0.0019432616 0.012564316
-0.0005340857 -0.0039364006 -0.026097734 -0.026779018 0.0065554697 0.022257544 -0.022989865 -0.0039946814
-0.009918045 -0.006018926 -0.02480948 0.023484144 0.016600206 0.034806672 0.022308556 -0.001053793
0.022967963 0.005716265 0.041377086 0.020773664 0.009618314 0.019736059 -0.0028837612 0.015116843

pool1.bias f4 [8]
00000000: 0f45 943d 401c 78bd bb4f a43d 6fb5 2abc
00000010: 89c5 2e3e 9374 39bd bd92 0b38 11f6 54bd
0.072397344 -0.060573816 0.0802302 -0.010419234 0.17067541 -0.04527719 3.3276843e-05 -0.05199248

reduction2_1.weight f4 [16, 8, 1, 1, 1]
00000000: 243c 2bbe 1a09 c1bc 5204 db3d d079 f73d
00000010: 76be d7bd 281f 08be 0856 163e 7794 24be
00000020: 332d 07bd 05e9 17be 20ed 9ebd d4b0 8f3e
00000030: ef3c bb3e b226 ea3b 4c73 163e f763 a1be
00000040: 2806 bdbe 5c5d 9abe 9655 99be 6618 7a3e
00000050: 6857 75be 8a06 98be 543d d73d 3457 37be
00000060: 497a d3bd c33d a23e a412 963d bafc fabd
00000070: c4c6 6dbe d2e8 363e a430 a43e c437 4c3e
00000080: 8fa3 b4bc d559 5ebe 2ae4 083e e4ae fdbd
00000090: 5f19 60be 704c 093e 0856 8c3e a6ec 73bd
000000a0: d261 76be ffd5 483e 41ce 363d ce04 1e3e
000000b0: 4446 a03c c894 4ebe c4fd 9f3d 88a7 7a3e
000000c0: d740 eebe c9de 563e f650 c13e 8f87 943e
000000d0: 82aa 5cbd e339 593d 24c2 963e 3284 92be
000000e0: a5ca 773e baae 983e d6a9 93be 33c4 88be
000000f0: 7413 1b3e bf57 8cbd ce70 753e 65e4 98be
00000100: f0a2 273d 6f23 66bd d57d 633e 2a48 ca3b
00000110: 2a12 bdbd 68fe c83d a0d1 8b3e 2c66 33bd
00000120: e8e4 1ebd 4e63 083e cd97 3ebd 1da0 29be
00000130: ce79 87be 3b73 75be 4471 943e b8c2 48be
00000140: 4a7b 243e 65f1 52be f225 4fbe e0c2 10be
00000150: 78fd bfbe 0037 1c3d bf04 913e a134 0fbe
00000160: 574a 393e 4f71 8fbe e9c0 503e a39f 8d3d
00000170: 0e6b bb3e 327a 5abe ad47 4fbe c219 c93d
00000180: ab6e fa3d f079 313d a811 58be f49b 44be
00000190: 6470 99be ec3f 8d3e a2cd 54be 142a 533e
000001a0: a9a1 d63b 858d 813e 143a 8fbe b840 59be
000001b0: acf8 a5be 736a 6f3e a345 823e 517e 943e
000001c0: 7fe6 463e 94a4 7fbe 7d0d 103b 7efe c5bd
000001d0: ae87 90be 3fa7 8fbe 1293 393d 452d 8b3d
000001e0: 16c8 0cbe 3de0 3b3e e3c1 b1bd 91cc f7bd
000001f0: 781a 283e 7f2b 8fbe be51 7c3e d101 85be
-0.1672216 -0.02356391 0.106941834 0.12083781 -0.105343744 -0.13293135 0.14681256 -0.1607226
-0.03300209 -0.14834984 -0.07760072 0.28064597 0.36569926 0.007145726 0.1469242 -0.3152158
-0.3691876 -0.30149353 -0.2994811 0.2442337 -0.23959124 -0.2969249 0.10509744 -0.17904359
-0.103260584 0.31687745 0.07327774 -0.12255235 -0.23220354 0.17862251 0.3206836 0.19943148
-0.022050647 -0.21713956 0.13368288 -0.12386873 -0.21884678 0.13408065 0.27409387 -0.059551857
-0.24060753 0.19612883 0.044630293 0.1543152 0.019564755 -0.20173943 0.07812074 0.2447797
-0.46533844 0.20983423 0.3775708 0.29009673 -0.053873546 0.05303372 0.29444993 -0.28616482
0.24198397 0.29820806 -0.28840512 -0.26712188 0.1514414 -0.06852674 0.23968813 -0.2986175
0.040926874 -0.056186136 0.2221597 0.0061731534 -0.0923198 0.09814149 0.2730837 -0.04379861
-0.03879252 0.13319132 -0.046531487 -0.16564985 -0.26460117 -0.23969738 0.28992665 -0.1960553
0.16062656 -0.20599897 -0.20229319 -0.14136839 -0.3749807 0.03813839 0.28323933 -0.1398492
0.18094765 -0.28016135 0.2038609 0.06915214 0.36605114 -0.21335676 -0.20242186 0.09819366
0.122281395 0.04332918 -0.21100485 -0.19200116 -0.2996856 0.2758783 -0.20781568 0.2062152
0.006550033 0.25303283 -0.27973998 -0.21216094 -0.32416284 0.23380451 0.25443754 0.29002622
0.19423865 -0.24965125 0.0021980696 -0.09667681 -0.28228515 -0.28057286 0.045306273 0.06795744
-0.13748202 0.18347259 -0.08679559 -0.12099565 0.16416347 -0.27962872 0.24640557 -0.25977948

conv2_1.0.weight f4 [8, 8, 1, 1, 1]
00000000: e230 a83e 552d 723e aa37 2d3e b83e db3d
00000010: a1f9 1fbe e18c 563e 75da 88bb 6d45 a3be
00000020: dd05 dcbb 3c7e 85bd 05ec e53e 85ab babe
00000030: effd ee3e 518e f23d ef88 f63e a2b5 553e
00000040: 8bd1 9d3e ae65 4dbd 435c 013d 7b8e 083e
00000050: 971a 913e 702b b7be ef48 e63e 2ebd a4be
00000060: ea2f c4be 463d 863e 2f5f 3b3d d82d b93d
00000070: 579a 14be c419 363e 7188 25be afdc d6bd
00000080: e313 073f 5916 6fbd 2efc ad3e e67b a6bd
00000090: 8958 853e 9fb8 8d3d aa69 25be e3e3 52be
000000a0: e6ec a83e 033c c73e fd12 2cbe dbb2 7a3c
000000b0: 4810 aa3e b186 8e3d a27e 7c3e 64c2 bbbe
000000c0: e19c 85be 6c5a c93d 778f 2f3e 0091 b9be
000000d0: 6e0c dc3e d69f 063e 4bd5 2bbe 0ca5 32be
000000e0: eccc 55be e236 c93e 5df5 61bd 75b0 b83c
000000f0: e802 80bc 7419 1fbe 2f63 debc e6f0 623d
0.32849795 0.23650105 0.16915765 0.10705322 -0.1562257 0.20952179 -0.0041764327 -0.31888905
-0.006714566 -0.06518218 0.4490663 -0.36458984 0.4667811 0.11843551 0.48151347 0.20870069
0.3082393 -0.050145797 0.03158213 0.13335602 0.283406 -0.35775328 0.4497752 -0.32175583
-0.38317806 0.26218623 0.04574507 0.09041947 -0.14512001 0.17783266 -0.1616533 -0.10491311
0.5276472 -0.05837092 0.3398146 -0.081291005 0.2604411 0.06919979 -0.16153589 -0.20594744
0.3299324 0.38912973 -0.16804118 0.0153014315 0.33215547 0.06959284 0.24657682 -0.36671746
-0.26096252 0.098317 0.17144571 -0.3624344 0.42978233 0.1314691 -0.16780584 -0.17445773
-0.20878953 0.39299685 -0.055165637 0.022545079 -0.015626386 -0.15537053 -0.027146904 0.05540552

conv2_1.0.bias f4 [8]
00000000: 51d4 37be b487 db3d a4d7 1fbf 1653 0bbe
00000010: 15bf ec3d 057c dabe 947a 333c 08a2 89bd
-0.17952086 0.10719243 -0.62438416 -0.13605914 0.115598835 -0.42672744 0.010954518 -0.06720358

conv2_1.2.weight f4 [8, 8, 3, 3, 3]
00000000: 7435 84bd c707 bfbc 2ba8 4dbd 1981 40bd
00000010: 89f8 9d3d 8252 35bd 8775 4dbb b85a 57bd
00000020: 27fd 813d 9f07 ac3c a428 1c3d 8c68 16bd
00000030: 5268 893d e684 813d 0af3 2cbd 2680 b53b
00000040: 847f a43c 90a9 0b3d b853 f63b 6df7 95bd
00000050: 5954 ed3b 2076 213d a038 233c 2078 94bd
00000060: d490 4c3d efb2 01bc ef21 2d3d 9541 00bb
00000070: 1ab3 9ebc 5756 6fbb 2f68 423c 5dc5 3cbd
00000080: 802c 533d 4b76 163d fbf9 6abd 13a7 a8bd
00000090: 32a7 04bc 22d0 973d 861b fc3d 7126 563d
000000a0: f792 b5bc 1a86 a53d e46e ed3d 37a3 ce3c
000000b0: f048 a93d 4625 6e3c f57d 6c3d b20c acbd
000000c0: 0c00 66bd bdf0 01bd 9d2e 0a3c 6e69 533c
000000d0: b6d5 253d 349b 30bc b744 0abd 9591 98bc
000000e0: 0331 03bd d1c2 43bd c021 dbbc 7893 98bd
000000f0: 539c e43c eb59 c3bd 80a9 8dbd 9b59 b13b
00000100: e88f f33c 5a11 853d 6cf5 633c 36ca 9f3c
00000110: ad58 a3bc 1986 3f3c be25 463d 4602 953d
00000120: 598e b2bd b40d e7bd 8b21 7dbd 3727 983c
00000130: 350e 21bd ecf5 923c e59e 9abd e62d 843c
00000140: 5c8d e9bd 71d1 7d3b 1bae 233d 0613 febc
00000150: 2284 8f3d c72a d33c b4d9 81bd 311e 3d3c
00000160: 2d9c debc 4ba4 47bd 5704 69bd ff7e 3abd
00000170: 31dd 3bbc 09cd 71bc 2157 56bd 66ec 903d
00000180: bdb7 11bd 69d8 803d fa0c 483d d5ad ae3c
00000190: d1d0 853d f379 45bd e6c5 a8bc 60a7 40bd
000001a0: 048b 943d b04b 963c 0122 81bd 135a 17bd
000001b0: 1bc1 65bc 46f6 72bd 8f81 11bc 5fa9 8cbd
000001c0: eaac 183c de3d 453d 61fa bf3c 23b8 b33c
000001d0: 2b2b 81bd 203c 1f3d 05cd 9d3c 8e2d 063e
000001e0: e8a8 553d 58d3 bc3d 2dc0 f63d fc30 dc3c
000001f0: 0025 f73d b399 193d 61c0 83bd 50db 2ebd
00000200: e8b8 87bd e210 163d a40d 04bd 3317 11bd
00000210: a20b e8bd 3e58 aabd fbaa 49bd 472f a43c
00000220: 2687 b7bd 7d05 cfbd 95c2 7ebd e9ec cebd
00000230: 0738 58bd e3bf 4bbc 4962 29bb 251b 2ebd
00000240: d2d7 29bc 062b 083d 84f3 e03c ed9e 563d
00000250: 801f 613d 070d 313d cb7c 0ebd 092b f4bc
00000260: 9fcd 04bd 5b77 00be b37d ecbd 3144 42bc
00000270: 2447 83bd 0406 05bd 64ae 06bd c8c0 d9bc
00000280: 0f17 f0bd 191e 10bc d62b 6a3d 4b4a fbbb
00000290: a4c7 2ebd 2e26 973c f088 99bc ffcb 1f3c
000002a0: d634 2bbd d852 a5bd 7aa5 fdbc 8ec9 bdbc
000002b0: 46a7 953c 776b a03d 1832 703d fcfc 703d
000002c0: a978 7038 7fbf ae3d dba6 3cbd 3e70 933d
000002d0: 6693 8dbd 9283 ae3c c2b2 153d 2460 9ebd
000002e0: baa0 35bd bb38 8d3c 5540 0f3c e57a 28bc
000002f0: ce99 8abd be69 18bd d56d 24bd 208b 0fbc
00000300: 8797 45bd 23bf abbc f5d3 e4bb da7c 01bd
00000310: 87c9 933d d3f8 4b3d b8de b13c 7bac 8d3d
00000320: 47e6 ea3c 47d4 9abd 8626 af3b c69b 6fbd
00000330: 2111 59bd 76e1 21bc f071 5e3c b0fd 94bd
00000340: c04e 883d 9688 123d 8ad6 3c3d 46c9 c0bc
00000350: 2402 97bc b726 39bd 06fb 6f3d fc11 46bb
00000360: 1275 64bd 2b68 2c3d 6ddd 43bd 310f 843d
00000370: ac67 fdbc a666 ee3c 2a57 403d 91f9 823d
00000380: 53e9 85bd ccb9 3cbd 3d39 533d aa9e 5b3d
00000390: 010e 61bd e5b6 3cbd 2674 813d 1de6 25bc
000003a0: 4acc 1d3d 5e01 223c 1530 97bd 357f 1dbd
000003b0: 5e9f 3fbb 87c7 2dbd 940f 863d 2211 86bc
000003c0: d19f 89bd f772 11bd 34b3 713a 159e 513d
000003d0: 4380 bb3d 5120 b63d 3fa5 043c 92d6 f23b
000003e0: 29ee 5a3d c183 c5bc 9079 ce3d a518 133e
000003f0: 5b5c 7a3b e75d 9abc f73c 633d ac35 bcbd
-0.06455508 -0.023319138 -0.050209206 -0.046998117 0.0771342 -0.04426814 -0.003135057 -0.05257675
0.06347113 0.020999728 0.038124695 -0.036720797 0.06709351 0.063241765 -0.042223968 0.005538958
0.020080335 0.034097254 0.0075173043 -0.07322583 0.007242721 0.039419293 0.009962231 -0.072494745
0.049942806 -0.007916196 0.04226869 -0.001957034 -0.019372512 -0.0036519968 0.01186566 -0.046086658
0.05155611 0.036733907 -0.057367306 -0.08234992 -0.008096503 0.07412745 0.12309937 0.052282754
-0.022164805 0.080822185 0.11593416 0.025224311 0.08265865 0.014535254 0.05773731 -0.08400859
-0.05615239 -0.031723727 0.008433965 0.012903554 0.040487014 -0.010779191 -0.033756938 -0.018624106
-0.032029163 -0.047793213 -0.026749492 -0.074500024 0.027906572 -0.09538635 -0.06917095 0.005412293
0.029731706 0.0649745 0.013913494 0.019505601 -0.019939745 0.011689686 0.048375838 0.07275824
-0.08718557 -0.112819105 -0.061799567 0.018573387 -0.03932019 0.01793953 -0.07549838 0.016135167
-0.11403915 0.0038729573 0.03996096 -0.03101493 0.07007624 0.025777234 -0.06340352 0.011542843
-0.02717408 -0.048740666 -0.056888904 -0.04553127 -0.01146631 -0.014758357 -0.052329186 0.070763394
-0.035575617 0.06291277 0.0488405 0.021323124 0.06533969 -0.048212003 -0.020602178 -0.04703462
0.072530776 0.018346637 -0.06305314 -0.036951136 -0.014023091 -0.059316896 -0.008880987 -0.068682425
0.00931857 0.048154704 0.02343482 0.02193839 -0.06307062 0.0388757 0.0192628 0.13103315
0.052163035 0.09219998 0.12048373 0.026878826 0.12067604 0.037500095 -0.06433178 -0.04268962
-0.06627065 0.036637194 -0.03223957 -0.035422515 -0.11330344 -0.08317612 -0.049235325 0.020042075
-0.089613244 -0.10108469 -0.062197287 -0.10103781 -0.052787807 -0.012435886 -0.0025845936 -0.042506356
-0.010366397 0.033244155 0.027459867 0.052397657 0.05496168 0.043225314 -0.03478698 -0.029805677
-0.032422658 -0.1254553 -0.11547413 -0.011857078 -0.06410053 -0.03247644 -0.032881156 -0.026581183
-0.11723148 -0.008796238 0.05717071 -0.0076687685 -0.04267086 0.018450823 -0.018742055 0.009753226
-0.041798435 -0.08072442 -0.030962694 -0.023167398 0.018268239 0.07832997 0.058641523 0.058835015
5.7332833e-05 0.08532619 -0.046057563 0.07199143 -0.0691288 0.021302972 0.03654743 -0.07733181
-0.044342734 0.017238965 0.008743365 -0.010283207 -0.06767617 -0.03721022 -0.040143806 -0.008761197
-0.04824021 -0.020965165 -0.006983275 -0.03161321 0.07216173 0.049797844 0.021712646 0.06917664
0.028674258 -0.0756002 0.0053451685 -0.058498167 -0.05299485 -0.009880414 0.0135769695 -0.072749496
0.06655645 0.03577479 0.046103038 -0.023533475 -0.018433638 -0.045202937 0.058589004 -0.0030223122
-0.05577571 0.04209153 -0.04781859 0.0644821 -0.030933224 0.029101681 0.046958126 0.06395257
-0.06538644 -0.046075627 0.05156826 0.05361811 -0.054944996 -0.04607286 0.06320982 -0.010125664
0.038524903 0.009888021 -0.07382218 -0.038451392 -0.0029239277 -0.042426612 0.0654594 -0.016365591
-0.06719936 -0.03551003 0.0009220124 0.05117615 0.09155323 0.088928826 0.008096038 0.0074108327
0.053449783 -0.024110677 0.1008178 0.1436487 0.003820202 -0.018843604 0.055478062 -0.091899246

conv2_1.2.bias f4 [8]
00000000: 4ba2 d9bd 8488 24bd d050 363d 77a4 3abd
00000010: 47b5 3cbe a2a0 60bd b973 aabe f8da b4be
-0.10626658 -0.040169254 0.044510663 -0.045567002 -0.18428527 -0.05484069 -0.33291414 -0.3532331

conv2_1.4.weight f4 [16, 8, 1, 1, 1]
00000000: 359b 313e 46a8 aa3d bfda a0be 052f 593e
00000010: 329d 39bd 98af aebd 6aaf 72be e1aa 4ebe
00000020: 4495 f63d 2889 8a3e d57e 613e d7b0 d13e
00000030: 2c9b 71bd f7bb 533e dac2 543e a085 bf3e
00000040: 2c73 6d3e 2286 863c 2583 713c 02f6 913e
00000050: ecb2 413e 91e8 1ebe ed7c dc3c fc03 353e
00000060: 9ee7 4c3e 778a 673e 8136 733c 5b1d b63d
00000070: ae81 33bd cd72 a93e 865a c9bd 3ef8 84be
00000080: 8002 963d ca03 8ebd b92b 75be 82cc 983e
00000090: 67a3 90bd f89a 883d 977b 5c3b 326b 96be
000000a0: 6224 8f3e c4f3 c53d 9089 163d 066b 233d
000000b0: 49fd 753e ed61 853d 0733 04be fecc 933e
000000c0: c5eb 863e a5f8 8c3e 57b4 bd3c 578a 0f3e
000000d0: 1608 2a3e 6d93 183d 87b5 b63d 008d 78be
000000e0: d99a af3e e050 973e 661c 76bd 34e3 d8bd
000000f0: e297 af3e d1e5 a8be 0337 81be 3cef 8b3c
00000100: 5148 a4bd 9457 083d 37c4 83be a1de 723e
00000110: 9f21 9fbe cf89 14bd 5db5 a1be aecf 083e
00000120: 617d 5a3e b020 69be e391 e1bc 9a92 783d
00000130: a222 8fbe b04a 583e 03ec 7ebb 14d7 84be
00000140: 3210 28bd d708 843e c5a8 65be 2f9a 13be
00000150: 9b09 63be df5b 1e3b 6793 71be a259 833e
00000160: 0ef0 ea3c 6296 0e3e 7a17 25be cae4 64be
00000170: c27f 193e 25f2 e73d b94a ba3e 83c3 ed3d
00000180: 5bc5 9e3d e150 61be d423 243e 6d34 06be
00000190: f288 6ebe 36e8 923e 0126 3cbe 401e 3bbe
000001a0: b569 47bd b7f3 e23d f7d2 a4be 9ff7 6ebe
000001b0: e673 553e 4fed 9e3e df8c 273e 8301 b8be
000001c0: 9fb9 1ebe 264e 983e 1992 2cbe 91e4 91bd
000001d0: 3b05 533e 36eb 1e3d 6db9 18be 03a2 a2be
000001e0: 042d 2c3e 8026 453e e540 74be 21f4 7abc
000001f0: 1206 bc3b 2455 c4bd d0e1 8b3d 0fdb 323e
0.17344363 0.08332877 -0.3141689 0.21209343 -0.04531593 -0.085295856 -0.23699728 -0.20182373
0.12040189 0.27057767 0.22021039 0.4095523 -0.058985874 0.20677172 0.20777455 0.37406635
0.23188466 0.016421381 0.01474074 0.28508002 0.1891591 -0.15518405 0.026915038 0.17677301
0.2001023 0.22611414 0.014844538 0.08892318 -0.043824844 0.330954 -0.09831719 -0.25970644
0.073246956 -0.069343165 -0.2394246 0.29843527 -0.070624165 0.06670183 0.0033643001 -0.2937866
0.27957445 0.09665635 0.036752284 0.039896987 0.24022402 0.065128185 -0.1291009 0.28867334
0.26351753 0.2753345 0.023157282 0.14017616 0.16604647 0.03724997 0.08921342 -0.24272537
0.34297827 0.2955389 -0.060085677 -0.105902106 0.34295565 -0.32987836 -0.25237283 0.01708185
-0.08021606 0.033286646 -0.25735638 0.23717739 -0.31080338 -0.036264237 -0.31583682 0.13360474
0.21336891 -0.22766376 -0.027535385 0.060686685 -0.2795611 0.21122241 -0.0038897998 -0.25945342
-0.04103107 0.25787994 -0.22427662 -0.14414285 -0.22171633 0.0024163646 -0.23591386 0.25654322
0.02867892 0.13924554 -0.16122237 -0.22352901 0.14990142 0.11325482 0.36385134 0.116095565
0.07752486 -0.22003509 0.16029292 -0.13105936 -0.23294428 0.28692788 -0.18373872 -0.18273258
-0.048684794 0.11081641 -0.32192203 -0.23336647 0.20844993 0.31040427 0.16362332 -0.35938653
-0.15500496 0.29747123 -0.16852607 -0.07123674 0.20607464 0.038798533 -0.14914484 -0.3176423
0.16814047 0.19252968 -0.2385288 -0.015316994 0.0057380283 -0.09586552 0.0683018 0.17466377

conv2_1.4.bias f4 [16]
00000000: 1bd2 68be 7d54 eabe b639 34bd 4e30 32be
00000010: ce7f 203e c440 b9be 9188 ba3d f016 f8bd
00000020: 3607 b63d 0ca4 733a a101 b73e 793f 42be
00000030: e7af 143f 4912 b43e b2fe b3bc eb0d bfbd
-0.22736399 -0.45767584 -0.04400035 -0.1740124 0.15673754 -0.36182225 0.09108079 -0.1211375
0.08888094 0.0009294159 0.3574343 -0.18969525 0.58080906 0.351702 -0.021972034 -0.093288265

pool2.weight f4 [8, 1, 7, 7, 7]
00000000: d636 f9bb decf f5bc 48e9 00bd 018d 6abb
00000010: 3a28 22bd 2129 b0bc 1f68 fdbc b402 8ebc
00000020: e210 92bb 55f4 bfba a640 c8ba 3de9 473a
00000030: c064 28bd 3722 1c3b e9ec b5bb 7d65 08bd
00000040: 182d 473b e387 c1bc 1681 08bb 4611 16bd
00000050: f5d7 febc b857 473b 71d7 9a3b af3a 303c
00000060: f03d 7abc 793d d9bc 2fca ab3c a93b d6bc
00000070: 1c8e 843b a911 2d3c 9ab7 a5bc f24e 553b
00000080: 3074 6339 4ca8 db3b 65a4 cdbc 9a20 e9bb
00000090: 0853 c3b9 5e3d 43bc 8a21 ee3c de21 2d3d
000000a0: 1419 533c a4b2 f33c a386 283d c4da e43b
000000b0: 64ff 4e3c aea6 b43c c2f9 0b3d fcf4 1f3d
000000c0: 0fbb 033b 95bb 0cbd 45e1 aebb 39b8 9fbc
000000d0: 7dfa e2bb 442d fdbb c732 c5bc a2b8 2abd
000000e0: 3e74 2bbd 68a8 1fbd 2749 47bd ee7d 4bbc
000000f0: 7f6a 6abc 75d7 dcbc af1a 21bd ce5e e6bc
00000100: dcca 61bc 0171 8abc 2e28 7d3b dc6a 1fbd
00000110: ec19 cebc 2936 1dbd 1294 f5bc eb5c d8bc
00000120: b635 333b c158 6cbb 1fd0 d33b f8d8 9a3c
00000130: 81b4 be39 cfe5 e539 016d bbbb dbff 72bb
00000140: f144 0f3d 0b25 4dbc fadf 47bc b306 46ba
00000150: cdd0 113d bffa 623c 567e b23c c165 913c
00000160: 0a16 e83c 9d5f 953c 3e3c 893c 32c4 123d
00000170: 016e 083d f1e6 c53c d641 b03c 700f ef3c
00000180: d684 123d 4a2f d43c 6750 773b b56a f1bc
00000190: fd61 b83b be52 dbbb 5c3f c5bc a30a e53b
000001a0: 3e96 3ebd 0e8b 54bd 8813 98bc da2e 45bc
000001b0: b468 0fbd 6c22 05bd 44f8 e0bc 8c18 20bd
000001c0: 50dc 2ebd 7340 d3bb d396 a5bc e4da 88bc
000001d0: 4447 17bd 4127 80bb baf8 10bc 0adb aa3b
000001e0: aebe e93b 2fe2 9d3c 37d0 4f3c 9b4c 80bb
000001f0: 7a4f 4fbc 7f6d 04bd d33b 5b3c 18e0 2aba
00000200: 4cd2 14bc b249 0ebc 723f 7c3c e962 153c
00000210: a620 6b3c 0045 c53c efd3 62bb d548 2b3d
00000220: 10a7 d83c c02a 9c3c a2a6 a73a 5755 043d
00000230: 4d3f 113d b1a7 583d 8aa5 d63c 00ba 713c
00000240: 7b2d 3b3d 2021 683d 8df5 893c 6404 0fbb
00000250: d1f3 52bc 3177 ddbb 9a5c 4a3b 6c9a 31bd
00000260: 6219 2bbd 3cb8 1cbd 1014 4dbd 366b 40bc
00000270: 2ffc 86bb 9027 69bc 1d7a 17bd 3538 6cbc
00000280: b231 00bd e110 2dbd 424c f6ba 1f8d 2fbd
00000290: 8af8 64bc 76fd f5bc a476 d7bc b472 793b
000002a0: e0bd d3bc 941f 163c 6c5e 60bc 8947 aabc
000002b0: c94a a53c 85d5 243c da52 02bd cce5 64bc
000002c0: c9e1 de3c a152 433c 56c7 e53c 65db 393c
000002d0: 6f51 05bc 15df 8f3c 9f79 a73c 1c8a df3c
000002e0: e846 e43c db0f bfbb dec2 9f3c 537e 053d
000002f0: a66c 393a 4954 0d3d fc85 4f3d 7847 403d
00000300: ab5d 103d 6f3a 053d 9dd9 d53c 472c 5a3d
00000310: 35ab 35bc 1eb4 b8bb 7077 ddbc 9c4c 1bbd
00000320: 17c5 d138 5988 b93a 26d9 3b3b 97b4 82bc
00000330: 273e f4bc ac99 2fbd e0fc 15bc c8c1 01bd
00000340: cd95 a3bc 6654 87bc af86 1cbc b791 203b
00000350: d259 e9bb 2af4 18bd b5f4 83bc 5a87 1cbd
00000360: f6d3 35bd 97bf 90bc 6528 273c b301 99bb
00000370: a5bf 793c 6d65 1c3b 8642 2a3c fb66 95bb
00000380: 7b3f 1ebc c8f7 323c 41f3 0dbc 087c 963b
00000390: cdae d53c c18c 50bb ddb1 5a3c 594c 5bbb
000003a0: 7d45 ccbb d5bd e63c 044c e93c e821 9c3b
000003b0: 10d5 013d f7b8 5b3c 1dc3 4a3d bfca 5d3c
000003c0: 60a6 243a b750 113c fbb5 403c 5441 2e3d
000003d0: 5fb0 203d 79e7 cebc fafb 84bc 86df 43bd
000003e0: b2b7 3abd e9e8 55bc e061 d8bb d9ee 30bd
000003f0: a461 79bc cd59 c83b 7fa9 85bb 6958 74bc
-0.007605414 -0.030006345 -0.031472474 -0.0035789611 -0.039589144 -0.021503987 -0.030933438 -0.017335273
-0.004457579 -0.001464496 -0.0015278056 0.0007626003 -0.041111708 0.0023824105 -0.0055519235 -0.03329991
0.0030391868 -0.023624366 -0.0020828894 -0.036637567 -0.031108836 0.0030417275 0.0047253896 0.010756179
-0.015273556 -0.02651857 0.020970432 -0.026151495 0.004045261 0.010563293 -0.02022915 0.0032548276
0.0002169169 0.006703412 -0.025102803 -0.007114482 -0.0003725516 -0.011916487 0.029068727 0.042268626
0.012884397 0.029748268 0.041144025 0.0069840867 0.012634132 0.022052135 0.034173734 0.039051995
0.002010051 -0.03435858 -0.005336913 -0.019497024 -0.006926833 -0.0077263433 -0.024072064 -0.041679986
-0.041858904 -0.038978964 -0.048653748 -0.012420161 -0.014307617 -0.026958207 -0.039332088 -0.028121378
-0.013781276 -0.016899588 0.0038628685 -0.03892027 -0.025158845 -0.03838173 -0.029977832 -0.026411494
0.0027345247 -0.0036063644 0.006464019 0.018902287 0.0003637411 0.00043849504 -0.0057197814 -0.0037078771
0.034977857 -0.012521039 -0.012199396 -0.0007554099 0.03559952 0.013853728 0.021788757 0.017748715
0.028330822 0.018234069 0.016752359 0.035831638 0.033308033 0.024157973 0.021515768 0.029182166
0.035771213 0.025901455 0.0037737133 -0.029469827 0.0056269155 -0.0066932132 -0.024078064 0.0069897934
-0.04653 -0.051890425 -0.018564 -0.012035096 -0.035011962 -0.03250353 -0.027462132 -0.03908591
-0.042690575 -0.006446892 -0.02021352 -0.016705938 -0.0369332 -0.0039109294 -0.0088483635 0.0052141
0.0071333265 0.019272892 0.01268392 -0.003915382 -0.012653226 -0.032330986 0.013380962 -0.0006518378
-0.009083342 -0.0086845625 0.015395986 0.00911782 0.014351046 0.024080753 -0.0034611186 0.041817505
0.02644685 0.019063354 0.0012790749 0.03230795 0.03546076 0.052894298 0.026201982 0.0147538185
0.04569767 0.056672215 0.01684072 -0.0021822685 -0.012875513 -0.0067585935 0.0030877949 -0.04336016
-0.041772254 -0.038261637 -0.05006796 -0.011744311 -0.004119418 -0.014230624 -0.03698169 -0.014417698
-0.031297393 -0.042252425 -0.0018791037 -0.042859193 -0.013975272 -0.030028086 -0.02630169 0.0038062753
-0.025847375 0.009162802 -0.013694387 -0.020786064 0.020177262 0.010060673 -0.031817295 -0.0139708035
0.027207272 0.011921556 0.028049152 0.011343812 -0.008137091 0.017562428 0.020443736 0.027287535
0.027865842 -0.0058307475 0.0195021 0.032591175 0.000707338 0.03450421 0.050664887 0.046943158
0.03524558 0.03252643 0.026104743 0.053264882 -0.011088182 -0.005636706 -0.027034491 -0.037914857
0.000100026075 0.0014155015 0.0028663366 -0.015955253 -0.029814793 -0.042871162 -0.009154528 -0.031678945
-0.019968892 -0.016519736 -0.009553595 0.0024500915 -0.007121303 -0.037342228 -0.016107896 -0.03821502
-0.044391595 -0.017669482 0.010202502 -0.004669392 0.0152434455 0.0023864165 0.010391837 -0.0045593954
-0.00965869 0.0109233335 -0.008663953 0.0045924224 0.026084328 -0.0031822177 0.01334807 -0.0033462255
-0.0062338696 0.02816669 0.02847863 0.004764784 0.031697333 0.013410798 0.04950248 0.013537108
0.00062808953 0.008869342 0.0117621375 0.04254277 0.0392307 -0.02525686 -0.016233433 -0.04782059
-0.04558534 -0.013056018 -0.0066034645 -0.043196533 -0.015221033 0.0061142207 -0.0040790434 -0.014913657

pool2.bias f4 [8]
00000000: 4189 5eba 0f3e 86ba abba 273b efef f03a
00000010: 0c56 8e3c fb32 44bd d6db 05bd 82fe 9abb
-0.00084890804 -0.0010241884 0.002559344 0.0018382053 0.017375015 -0.04790018 -0.032680355 -0.0047300467

reduction2_2.weight f4 [16, 8, 1, 1, 1]
00000000: 9087 f6bd 6980 6cbe 749f 1ebe a508 06bd
00000010: 6a39 31be dcd8 753e fa21 de3d 8724 f33c
00000020: e1bc 8d3e 283f 9d3e 292c 583e 8e96 b83d
00000030: 8a1f 553e d03b cebd 4416 89be f44d 443e
00000040: 8ead 3a3c ec0c 92be 2195 563d 0671 7cbe
00000050: d57c c4bd a9ef 383e 1681 0e3e 2f1b 233e
00000060: 5392 d83c 0a38 273d b01a 8c3d b5f9 61be
00000070: c127 8b3e 261c 07be b948 6bbe 5090 903e
00000080: 404a 99be 0602 dbbd b416 66bc ae0a 5a3e
00000090: d8fd 8cbb 2429 98be 71f8 8bbe 00bc 6cbe
000000a0: 5556 a7be 7631 5fbe b7ab a5be 2090 dd3d
000000b0: 63e1 dfbd 924f 983e 97a2 e03d e7db 47bd
000000c0: 8ce9 813d ac64 bf3c 0e6f 373e 506c 80be
000000d0: 64f0 3bbe 345f a33e b8c4 893e 30f8 a0be
000000e0: 05a9 a3bd 3625 773e 8aaf 803e 2fe5 a0be
000000f0: 09ef 91be 94ec ab3d b8cf 5e3e 9142 f5bd
00000100: 30b6 62be 16f4 403e 417a c73d c3d0 48be
00000110: 8841 22be f3b0 5f3d c595 793e dcc9 50bd
00000120: 7ada 993e 7e8d 9b3e b046 8d3e 2e38 903e
00000130: d5c0 973e 8fbc 83be 8c9f 343e fd58 3ebd
00000140: d240 5f3e c6bd 3dbe b70c 473c 3882 943e
00000150: 30eb dd3d 7bee 92bc 5e4a 89be 630b 98be
00000160: a708 01be a3eb 5a3c bb14 0e3e 1700 993c
00000170: 3ea5 0f3e 2625 adbd 5b7b 323e 3e5e 3b3e
00000180: e140 88bd 9bc4 b23d 943e a53b e9e3 f1bb
00000190: 3ce9 babd 6a89 6fbe 02e7 8a3e 1256 893e
000001a0: 9cb6 843e 102e 353e b1b2 293e ea20 e53c
000001b0: b8fa 01bd 113d e4bd a14e 033d 5691 453e
000001c0: f3b8 363e c2e2 9abe e4a1 da39 47ce 803e
000001d0: a7b3 0ebe 3025 27be b45c 9fbe d83a 80be
000001e0: 0ea6 9abe 4937 683e 4d44 073e 426e 07bd
000001f0: 14bc 1d3d c5af 833c e0ec ca3d fc26 6ebe
-0.12037575 -0.2309586 -0.15490514 -0.032723088 -0.17307058 0.24008507 0.10846324 0.029680504
0.27683166 0.30712247 0.21110596 0.09013091 0.20812812 -0.10070002 -0.267748 0.19170362
0.011393918 -0.28525484 0.052388314 -0.2465249 -0.09594122 0.18060173 0.1391643 0.15928338
0.02643696 0.040824927 0.06841028 -0.22067912 0.27178767 -0.13194332 -0.2297696 0.28235102
-0.2993946 -0.10693745 -0.014043499 0.21293136 -0.0043027215 -0.29718888 -0.27337983 -0.23118591
-0.32683054 -0.21796212 -0.3235757 0.10818505 -0.10931661 0.29748207 0.109685116 -0.0487937
0.06343374 0.023363434 0.17913458 -0.25082636 -0.1835342 0.31908572 0.26907897 -0.31439352
-0.07991222 0.24135289 0.25133926 -0.31424853 -0.28502682 0.08394733 0.21758926 -0.11975587
-0.22139812 0.18843111 0.09740115 -0.19610886 -0.1584531 0.05461211 0.24373539 -0.050973758
0.30049497 0.30381387 0.27592993 0.28167862 0.29639307 -0.25729796 0.17638987 -0.046471585
0.2180207 -0.18529424 0.012149028 0.290056 0.10835874 -0.017935982 -0.2681455 -0.29696187
-0.12600957 0.013361844 0.13875096 0.0186768 0.14027879 -0.08454351 0.17429869 0.1829767
-0.06653 0.08728906 0.0050428603 -0.0073819053 -0.09126517 -0.23392263 0.2712937 0.2682348
0.2592057 0.17693353 0.16572072 0.027969796 -0.031733245 -0.1114446 0.03205741 0.19293723
0.1784399 -0.30251127 0.00041700818 0.25157377 -0.1393572 -0.1632278 -0.31125414 -0.25044894
-0.30204815 0.2267734 0.13209648 -0.033064134 0.038509443 0.016075024 0.099084616 -0.23257059

conv2_2.0.weight f4 [8, 8, 1, 1, 1]
00000000: 36c0 8e3e b1f5 d2bd 2270 8fbd 9559 2fbe
00000010: 2d1b 15be 59e3 e83c 1b10 8bbe ac61 9ebe
00000020: 19a8 d13d 5734 83be 3135 50bc f5fb b8bd
00000030: 4d3f 4e3d 9f44 41be e436 a5be 1562 a9be
00000040: 846b 42bb 7fff 543e 2493 7fbe 724d b33e
00000050: 8c1a ee3c e6af 853e 8fa1 97be 89e9 a2be
00000060: ea10 aa3d 0438 433e e306 bb3e ec28 58bd
00000070: 8c69 a2be 6c69 8dbe 08db 323e 577d 26be
00000080: 93fd ac3e 935f b4be 9c22 a8be 6e0f 5bbd
00000090: e130 a53e 0663 a33d 7085 b7be 192f afbe
000000a0: 9ff6 16be 17db fb3d 253f fb3d 06db 9abe
000000b0: 2336 663e 6ccf 223e dc02 cc3d 49a5 6f3d
000000c0: c012 4e3e 9a57 a93e a051 35be a8e9 91be
000000d0: e383 80bd 754e bfbe 6ad7 983e cb9b fb3d
000000e0: 8102 823e 57df 77be 44d8 053e 55ac 983e
000000f0: e2e9 653e cb33 15bd 009f 45be 1bd0 2dbe
0.2788102 -0.10300768 -0.070038095 -0.17124017 -0.14561148 0.02842872 -0.27160725 -0.30933893
0.1023714 -0.2562587 -0.012707994 -0.09032432 0.050353337 -0.18873833 -0.3226844 -0.33082643
-0.0029666135 0.20800589 -0.24958473 0.35020024 0.029065393 0.26110762 -0.29615447 -0.31818798
0.08304007 0.19064337 0.36528692 -0.0527734 -0.3172115 -0.27619493 0.17466366 -0.16258751
0.33787212 -0.35229167 -0.32838905 -0.05348151 0.32263854 0.079778716 -0.35843992 -0.3421562
-0.14742516 0.122976474 0.12267903 -0.30245227 0.22481589 0.15899438 0.09961483 0.058507238
0.2012434 0.33074647 -0.17706919 -0.28498578 -0.062751554 -0.37364545 0.29851848 0.122855745
0.25392535 -0.24206291 0.1307078 0.2981898 0.224525 -0.036426347 -0.19298935 -0.16973917

conv2_2.0.bias f4 [8]
00000000: 995e 7d3e f681 38be e2b5 903e 16cb 26be
00000010: 6074 973e 913d 0cbe 35b6 dd3d 9b95 2fbd
0.24743117 -0.18018326 0.28263766 -0.16288409 0.29580975 -0.1369536 0.10825769 -0.042867284

conv2_2.2.weight f4 [8, 8, 3, 3, 3]
00000000: dbd2 a43d 8f80 6ebc 4ee7 22bd 5af1 893d
00000010: 06c3 3cbd 80a6 4dbd 5b26 5a3d deed 643c
00000020: 4208 46bd e17b 153d fcb7 53bd a255 873c
00000030: c8c7 593d d389 05bc 7e1c 8bbd 27c5 e4bc
00000040: d048 2bbc 0371 02bd 239e 223d 0b76 d6bc
00000050: 2571 a43d 8a30 88bd fff0 163d 7c57 223c
00000060: 83d8 033d 864f 36bd 9890 8abc 3b38 bf3b
00000070: 4c1d 093c 92b6 573d 303b 53bd 2f31 41bd
00000080: 5faf 3b3d f2c6 84bd 04f1 993d 8562 fe3c
00000090: cb93 563d 1994 08bd 85f1 6e3d 7eb5 9a3d
000000a0: 92a9 7d3d 48ad eb3c c920 ec3c 689b 72bd
000000b0: 39a5 52bc 2b55 773b d145 e73c f86e c03c
000000c0: e930 25bd 648c 7dbd 2c44 6bbd 1a07 523d
000000d0: dc99 783d a76d 903d 0689 673d 15f4 86bd
000000e0: ae15 d0bc 27eb 213d 1a43 4dbd 1e99 373d
000000f0: 8cca 433d c832 583d bf0b 4a3c 6fea 89bd
00000100: 4c4f 843c 7cf3 fb3c 1908 9bbd 4fe3 043d
00000110: 82fe acbc c17f 983c 4382 84bc 7cb0 f2bc
00000120: 5b1a 9b3d 86d0 2cbd d05d 383c 029f 51bd
00000130: 3039 f8bc a20b c9bc c98c ae3c 0ce2 20bb
00000140: 05bf 523d 97ee a93b 5a59 9dbb 4614 43bb
00000150: 8e53 6a3d 7906 3f3d 5b31 83bc 1bb0 91bd
00000160: 19df 323d 17ed 3fbd c6ef 893a 90d8 cabc
00000170: 41f3 873d 7333 2b3c 2eea 8e3c a0b9 0b3d
00000180: 6f5c 913d 3ef5 b43b a28b c03c fba1 393d
00000190: 2bb4 233d 77c6 61bd 587d 213d 064f 92bd
000001a0: 786f 733d c44c a6bc 0ab5 473d b3ad c5bc
000001b0: 147c 583d 58cd 3c3d ac78 713d ad1a 85bd
000001c0: 83bd 81bc e4b5 953c 6c4b a6bd 3e6f 96bd
000001d0: 64ed 883c 2bab a93d 3524 ca3c f60e 393c
000001e0: 8ff1 b7bc 2ca6 59bd 61f5 883c e0e0 a1bb
000001f0: bceb 89bd 4a58 a3bd d390 84bc 3fbe 613d
00000200: 4d37 9f3c 8b78 95bd f02e 8bbc ea6f 8a3d
00000210: 66fb cdbc e9cf 873d 2bc6 633c e29e 86bd
00000220: 0980 133d c449 283d d1a7 7cbd 0fc4 103d
00000230: d0db 2a3c 4616 dc3b 3b31 cbbc 46a1 973d
00000240: 86ab 2dbd ef36 94bb 5927 86bc 0cd1 223d
00000250: 8ad2 7fbd 12cb 91bd bd2c 6c3d 97a0 183c
00000260: c615 8fbd a3fb 30bd d501 8bbd 8c1b 433d
00000270: 7015 1fbd bac1 8dbd 4b0d fdbb d7d9 93bd
00000280: 476b 713d bc30 6abd 1111 c8bc ac9b bbbc
00000290: 9ed4 1bbd d700 703d 707f 9c3d b6de 1c3d
000002a0: 6877 0e3d 785a abb9 41c2 97bd 971b fdbc
000002b0: 6a11 91bd def9 04bd 062a c43b 7421 6fbd
000002c0: 4022 5d3d 1ad2 3f3d b12f 903c f66e 61bc
000002d0: 281b 88bd 34f9 813d d12e 133d d9e3 213d
000002e0: 6673 cebc bb1e a93c 7572 893b d881 5bbd
000002f0: 7317 c53b 6589 10bd b596 963d a34e 8ebd
00000300: cbd0 41bd f1b3 90bc 3d95 90bb 64d7 0abd
00000310: 9c42 7bbd a792 81bc fcf7 5dbd 88a6 39bb
00000320: 4e01 7d3d f396 d83c 6f80 5b3d e817 2f3d
00000330: 710d 2abd 5b92 8f3d 5c1a 573c 70db 3a3d
00000340: 9caa 66bc 7c34 99bc 99d9 913d ead8 1a3d
00000350: cfc1 3e3c 790b 803d baf7 06bd 7e3b 2abd
00000360: 1371 e33c e8bc 3b3d 733c 99bd 5fd0 e63c
00000370: 9306 1f3d 6e96 863d c0e2 8e3d 7ba0 833d
00000380: ac69 5fbd ec9d d33c 9501 79bd 2ce3 653c
00000390: 686f 87bc bcea a83d 051c 743d b721 8c3d
000003a0: c120 2ebd 9482 e1bc d58e 603d 5751 81bc
000003b0: 8058 b53c 06c5 85bd 0c83 a93d 6489 353d
000003c0: 850d 3a3d 2842 473d 6e72 1e3d eeed 013c
000003d0: ef89 2d3d 8c0f 5b3b fec0 1bbc 1f85 39bc
000003e0: 4c0f 0dbc 40b5 7d3a b143 83bc 808c 623d
000003f0: 2a08 773d 6f3f 3d3d 6aed f33b dadd e7bb
0.0804803 -0.014557018 -0.03977137 0.06735487 -0.046084426 -0.050207615 0.053259235 0.013972728
-0.04834772 0.036495093 -0.051689133 0.016520325 0.053169042 -0.008150536 -0.06792544 -0.02792604
-0.010454372 -0.031846058 0.039701592 -0.026179334 0.08029393 -0.06649883 0.036850926 0.009908553
0.032188904 -0.044509433 -0.01691465 0.0058355606 0.008368801 0.052664347 -0.051570117 -0.047166046
0.045821544 -0.06483258 0.07516673 0.031052837 0.05238704 -0.033344362 0.0583358 0.07554148
0.061929293 0.02876915 0.028824227 -0.05923024 -0.012856775 0.0037739973 0.028231533 0.023490414
-0.040329847 -0.061901465 -0.05743806 0.051276304 0.060693607 0.070521645 0.05652716 -0.06589524
-0.025400963 0.0395309 -0.05011282 0.04482376 0.047800586 0.052782804 0.012331902 -0.06734168
0.016151093 0.03075575 -0.07569904 0.03244334 -0.021117453 0.018615605 -0.016175395 -0.02962517
0.07573386 -0.04219105 0.011252835 -0.051177032 -0.030300707 -0.02454168 0.021307366 -0.0024548797
0.0514517 0.005185913 -0.0048019113 -0.0029766723 0.05720859 0.046637032 -0.016014745 -0.071136676
0.043669794 -0.046856966 0.0010523729 -0.024761468 0.06638194 0.010449278 0.01744565 0.034112573
0.070977084 0.005522399 0.023504082 0.045320492 0.039966743 -0.05512091 0.039426178 -0.07143979
0.059432477 -0.020300277 0.048756637 -0.024130678 0.052852705 0.04609427 0.058952972 -0.064992286
-0.015837437 0.018275209 -0.08119854 -0.073454365 0.01671476 0.08284601 0.024675468 0.011295071
-0.022454051 -0.05313699 0.016718568 -0.0049401373 -0.06734416 -0.07975824 -0.016182339 0.055113073
0.01943555 -0.07298382 -0.016990155 0.06759627 -0.02514429 0.066314526 0.013902227 -0.06573273
0.036010776 0.041085973 -0.06168348 0.035343226 0.010428384 0.0067165224 -0.024803748 0.07403807
-0.042399906 -0.00452315 -0.016376184 0.039750144 -0.062456645 -0.07118811 0.057659853 0.009315631
-0.06986575 -0.04320873 -0.06787459 0.047633693 -0.038838804 -0.06921716 -0.007722532 -0.07219284
0.0589402 -0.057175383 -0.0244222 -0.022901379 -0.038044564 0.05859455 0.07641494 0.03829833
0.034781843 -0.00032683066 -0.07410098 -0.030896945 -0.070833996 -0.032464854 0.005986455 -0.058381513
0.05398774 0.046831228 0.017600866 -0.013759365 -0.06645805 0.0634636 0.03593332 0.039523933
-0.02520151 0.020644536 0.0041945525 -0.053590626 0.0060147583 -0.03528728 0.07352964 -0.069485925
-0.04731826 -0.017663928 -0.004412322 -0.03389682 -0.06134282 -0.015817 -0.054191574 -0.002832802
0.061768822 0.026439166 0.05358928 0.04274741 -0.041516725 0.07010337 0.013128843 0.04561943
-0.014078762 -0.018701784 0.071215816 0.03780452 0.011642887 0.06252188 -0.032951094 -0.041560642
0.027763879 0.045834452 -0.07482233 0.028175531 0.03882463 0.06571661 0.06976843 0.064270936
-0.054544136 0.025832139 -0.060792524 0.014031213 -0.016532615 0.08247897 0.059597034 0.06842368
-0.042511705 -0.027528085 0.054823715 -0.015785856 0.022136927 -0.0653172 0.08276948 0.04432048
0.04542305 0.048647076 0.038683347 0.007930262 0.04236787 0.0033426015 -0.009506462 -0.011323242
-0.008609604 0.00096781924 -0.016023489 0.055309772 0.06031052 0.046203073 0.0074440734 -0.0070760073

conv2_2.2.bias f4 [8]
00000000: 137b 34bd 1afd 803d 808a 3e3d e1be 15bd
00000010: 0046 87bc 62b2 0a3d 7e2c f4bc 092b 8bbc
-0.044062685 0.06298275 0.046518803 -0.03655899 -0.01651287 0.033861525 -0.029806372 -0.016988294

conv2_2.4.weight f4 [16, 8, 1, 1, 1]
00000000: 6a13 50be 810f 9abe 2cda 6dbc 618c 76be
00000010: b727 50be c6a6 cdbc 4ed4 87be 42b4 863e
00000020: 6c6e 803e ae20 04be 9c83 a0be d5c9 70bb
00000030: 3306 a23d dd5c 83bd dbe6 97be 1da1 e33a
00000040: 8b7e 813e 0fcf 873e 506b 513e 9f28 36be
00000050: 14b2 1cbe 7493 35be 7a6b 5dbe 8b57 c4be
00000060: da4c eb3d 7874 903e 5188 983e d7f8 9a3e
00000070: 96eb 453e ff80 5c3d 6668 b9bd 6242 8c3d
00000080: 313b 37be 1d60 1d3e 83eb a4bd f7ff e3bc
00000090: e4b6 733d cf0b a33e 85be e43d 6754 a0be
000000a0: c93c 3b3e 896b 6d3e 0399 413e 143d 8fbe
000000b0: 91ed 533e 6eb1 8abe 8aa7 983d ccc1 a43e
000000c0: 3401 5e3c 8af3 73be 2c50 85bb c8ce ec3d
000000d0: 72db 243e 6a07 60be 3402 9fbe d14a 523d
000000e0: 7c7d 0abd 8832 80bd 339a 89be 42c1 febc
000000f0: 4308 8abe 89fa 413e cd9a 693e 867a 4d3d
00000100: bb78 54be ebf6 8e3d 7879 5a3e 5b1e 33bd
00000110: ca44 603e 01ae 0bbe 2b54 943e bf45 5ebe
00000120: a282 8f3e 3602 ab3e f884 3d3e e294 d33d
00000130: 1962 e4bd 55ca 0bbd 055e 71be c56a 93bc
00000140: 60db 2dbe ed32 8c3d 8b03 153e f8b4 b7bd
00000150: 1657 40be dd8d e4bd a42d 8abc b4b3 bf3e
00000160: 1aef e53d c67b b1bc 5dd3 78be 4074 893d
00000170: 33ef 39be 8550 d13d 2841 233d 8cb3 9c3e
00000180: 413c 86bd a42e 81be 7d02 6c3e a6bc 3bbe
00000190: c38e 73be e8d4 0fbe ef28 a0bd b064 39bb
000001a0: 3f04 593e 3a20 7fbd 4fbe 913e aa66 a4bd
000001b0: 2fa0 543d 9e3b 633e bafb 8f3e 2496 1dbe
000001c0: de2f 6abe 02c6 4e3e b6cc a03e a2df 41bd
000001d0: 83ad 41be 9fa9 e93c dd48 86be 835c c93b
000001e0: 5434 91be 61da 953e f1db 103d 2597 833e
000001f0: e540 bc3c 7bce 23be 2ba7 c6bd 20c5 923e
-0.20319906 -0.30089954 -0.014517348 -0.24076988 -0.2032765 -0.025103938 -0.26529163 0.263094
0.25084245 -0.12903091 -0.3135041 -0.0036741395 0.07911339 -0.06414197 -0.29668316 0.0017366741
0.25291857 0.2652516 0.20451093 -0.17788933 -0.15302306 -0.1773203 -0.2162303 -0.3834804
0.11489268 0.2821386 0.297915 0.30267975 0.1932815 0.053833958 -0.090531155 0.06848599
-0.17893673 0.15368696 -0.08052733 -0.027832014 0.05950059 0.31844947 0.11169151 -0.31314394
0.18284906 0.23185553 0.18906026 -0.27976286 0.20696093 -0.27088493 0.074538305 0.32179105
0.013550092 -0.23823372 -0.004068395 0.11562878 0.16099337 -0.21877828 -0.31056368 0.05134088
-0.033811077 -0.06259638 -0.26875457 -0.031098012 -0.26959428 0.18943228 0.22812958 0.050165676
-0.2074918 0.069806896 0.21335399 -0.04373012 0.21901241 -0.13640596 0.28970465 -0.21706294
0.28029352 0.33400124 0.18507755 0.103311315 -0.11151523 -0.034128506 -0.23571022 -0.017995248
-0.16978216 0.06845651 0.14552133 -0.08970064 -0.1878322 -0.11159871 -0.016867466 0.3744179
0.11227246 -0.021665465 -0.24299379 0.06711626 -0.18157654 0.10220436 0.03985706 0.30605733
-0.06554461 -0.25230896 0.23047824 -0.18333682 -0.23784928 -0.14046061 -0.078203075 -0.0028288774
0.21193026 -0.062286593 0.28465506 -0.08027394 0.051910575 0.22190711 0.2812174 -0.15389305
-0.22869822 0.20192721 0.31406182 -0.047332413 -0.18913846 0.028523264 -0.26227465 0.0061450615
-0.28360236 0.29268172 0.035366002 0.25701252 0.022980163 -0.15996735 -0.096998535 0.2866602

conv2_2.4.bias f4 [16]
00000000: 1224 3dbe 7dbd 163e ff09 a93e a220 f1bd
00000010: 0165 57be 1d48 2b3e eada 69be 5824 22be
00000020: 0f61 9dbd ac34 3f3e 238f 83bd 3ef2 523e
00000030: 3c2d 7d3e b372 d33c 9dbd 7ebc 7279 1a3e
-0.18470791 0.14720722 0.3301544 -0.11773802 -0.21034624 0.16726728 -0.22837415 -0.15834177
-0.07684528 0.18672436 -0.064237855 0.2060022 0.24724287 0.025811529 -0.015548137 0.1508539
