weights/011/cp_SSC_PALNet.pth.tar (torch, 471958 bytes, 69 tensors)

conv2d_depth.0.weight f4 [6, 1, 3, 3]
000000 ee 51 a6 bd 4f 2b 4a 3d a0 3f 7c 3d 84 5d 3c be
       -0.081210956 0.04935771 0.061584115 -0.18395048
000010 c6 f2 e4 3d d2 11 a6 3d 6d d2 b3 bd e8 f9 58 3e
       0.11179118 0.08108868 -0.0878037 0.21189082
000020 33 f0 30 bd 59 0f 9d bb e6 c8 1a 3d 8b fa b8 bc
       -0.04319782 -0.0047930893 0.037789248 -0.022580406
000030 3f e9 e6 3d ba ef 3b be ce 50 f5 bd c4 5b 33 bd
       0.11274957 -0.18353167 -0.11978303 -0.043788686
000040 ca 30 6b 3d 4a 57 07 be fe d8 ce 3e 63 f2 69 3e
       0.057419576 -0.13216892 0.40399927 0.2284637
000050 65 c0 c3 3e 7b 25 57 3d 6d d7 32 3e 92 3b 78 3e
       0.38232723 0.05252598 0.17464991 0.24241474
000060 98 e8 93 3e 93 48 82 3e f8 dd 82 3e ac d3 07 be
       0.28888392 0.25445995 0.25559974 -0.1326434
000070 c6 66 57 be 49 49 44 be 13 3c 31 be 8d a8 a9 3d
       -0.21035299 -0.19168581 -0.17308073 0.08284102
000080 84 25 bd bd 27 7b 8f bd b0 17 40 3e 12 3b 32 be
       -0.09235671 -0.07005911 0.18759036 -0.17405346
000090 95 b0 9a bb 7c fa ae 3d 47 aa 0e 3e b7 09 6d bd
       -0.0047207572 0.0854387 0.13932143 -0.057870593
0000a0 26 03 00 38 26 21 13 be 60 96 48 be 37 b3 4c be
       3.052051e-05 -0.14368114 -0.19588614 -0.1999024
0000b0 b8 43 5e 3d 6a 6b a3 3d ed ae 5f 3e a6 93 7b 3e
       0.0542638 0.07979472 0.21844073 0.24568042
0000c0 96 39 d4 3e c1 d9 8f 3e 22 c0 d0 3e 99 4c ec 3e
       0.41450185 0.2809582 0.40771586 0.4615219
0000d0 3d 52 1c 3e 88 3a e0 3e
       0.15265746 0.43794656

conv2d_depth.0.bias f4 [6]
000000 fc a1 66 3e 9c 80 c5 bc 84 c6 b9 3d a3 0f be bd
       0.2252273 -0.024109177 0.09071067 -0.09280326
000010 84 2a 48 3e f9 58 cd 3e
       0.19547468 0.40106943

res_depth.0.weight f4 [3, 6, 1, 1]
000000 55 c0 d3 3c 61 0c 61 3e 7c 17 b7 3c 75 fb 54 be
       0.025848547 0.21977378 0.022350065 -0.20799048
000010 f2 2a 68 be 44 23 bb 3d 38 d7 a3 3d 6a 95 91 bd
       -0.22672632 0.09137586 0.08000034 -0.071085766
000020 6d 6a 0f 3d a1 7c ed bd 22 15 0a 3e 01 1a 81 bd
       0.035013605 -0.11596037 0.13484624 -0.06303788
000030 6b 23 8e bd c9 14 88 3d cb 1e 77 3d 87 d5 81 3e
       -0.06940349 0.066445895 0.0603321 0.2535822
000040 be 90 14 3e aa e5 d3 bd
       0.1450834 -0.10346539

res_depth.0.bias f4 [3]
000000 c6 33 0e be ee 4f 40 be 1a 42 71 3e
       -0.13886937 -0.18780491 0.23560372

res_depth.2.weight f4 [3, 3, 3, 3]
000000 46 ed f3 3d d3 57 9a 3d 96 7d 62 3d 8b 09 cc 3d
       0.11910491 0.075362824 0.05529555 0.09962758
000010 d0 eb d6 3d bd a8 d7 bd 1a 55 fa 3c a9 5b 89 3d
       0.104941964 -0.10530231 0.030558158 0.06706936
000020 32 1a 14 3d 2a 90 86 3c e5 9a b1 bd 1a 06 0e 3d
       0.036157794 0.016426165 -0.08672122 0.034673788
000030 10 f9 36 bc 38 a7 fd bd c6 bf 91 3d 87 c4 75 3d
       -0.01116778 -0.1238541 0.07116656 0.060001876
000040 a1 33 bc bb 71 b6 9f 3d 0d 71 2e bd 5a 8d e9 bd
       -0.0057434593 0.0779847 -0.042588282 -0.11403914
000050 fc d6 23 3d 35 b9 96 bd 67 74 94 bd 5d cf f7 bd
       0.039999947 -0.07359544 -0.072487645 -0.12100098
000060 7e 58 a0 3d 29 13 a1 b9 11 e4 db 3d 07 f7 a6 bd
       0.078293785 -0.00030722588 0.107368596 -0.081525855
000070 f7 6a b5 3d 78 f9 3a 3d 3f d1 99 3d e9 d1 6d 3d
       0.088582925 0.04564807 0.07510614 0.058061514
000080 66 e1 e1 bd a2 cc bc 3d 37 bf fc bd af e2 fb bb
       -0.110293195 0.09218718 -0.12341159 -0.007686935
000090 f0 7a e8 bd ef fc 97 bb c6 ed e7 bd 10 d5 a7 3d
       -0.113515735 -0.0046383063 -0.113246486 0.08194935
0000a0 ba dc 43 bd 39 55 dc 3d 30 b1 4e bb 12 c9 d9 3b
       -0.047817923 0.107584424 -0.0031538717 0.006646284
0000b0 b7 c8 67 bd 76 7f 32 bd f0 7c 21 bd 07 ce de bd
       -0.0565879 -0.043578587 -0.03942579 -0.1087914
0000c0 2a 1d 4f bd 5e ad aa bd 5f 52 e7 bd 94 18 e0 bd
       -0.050564922 -0.083338484 -0.11295008 -0.10942188
0000d0 38 48 4f bc 38 a5 97 3d 96 04 91 bd 86 56 a3 bd
       -0.012651496 0.0740456 -0.07080953 -0.079754874
0000e0 fb 8c f8 bd ef 1a 9e bb 48 51 a0 bd 66 a6 00 bd
       -0.12136265 -0.004824988 -0.07828003 -0.03140869
0000f0 18 08 60 3d 69 0d d3 bb 79 93 09 3d dc 17 fc bd
       0.05469522 -0.0064408076 0.033587907 -0.12309238
000100 3e 3b c1 bd a7 80 e0 bd 96 e4 58 bd af eb 5f bd
       -0.09435128 -0.109620385 -0.05295237 -0.054668125
000110 1e a2 91 bd c7 b8 9c ba 47 a2 3d bd 11 e3 6f 3d
       -0.071109995 -0.0011956923 -0.046297338 0.058566157
000120 7b 5f 87 bc da fd f9 3d 76 d7 d4 bd 16 dc 62 bc
       -0.01652502 0.122066215 -0.103926584 -0.013846418
000130 5a fc ba 3c 14 fb e6 3d e6 59 ec bd f6 3f 70 3d
       0.022825409 0.11278358 -0.11540584 0.058654748
000140 bd 9f 09 3d
       0.033599604

res_depth.2.bias f4 [3]
000000 a6 31 01 3e 03 7b f8 bd ed 19 dd bd
       0.12616596 -0.121328376 -0.107959606

res_depth.4.weight f4 [6, 3, 1, 1]
000000 49 1a 41 be b9 44 e4 bd 83 17 01 be 06 01 9f bd
       -0.18857683 -0.1114592 -0.12606625 -0.07763867
000010 ab ca 8e 3e d5 d5 91 3e bf ae 14 3e 01 2d 17 be
       0.27888998 0.28483453 0.14519785 -0.14763261
000020 42 68 0c 3e a3 a4 90 3e 41 0b b8 3d 87 ec bc 3e
       0.13711646 0.28250608 0.089865215 0.36899206
000030 9b 23 e6 3d 7c 57 9d be 43 90 03 3d e3 ff 0b be
       0.1123726 -0.30730808 0.03212 -0.13671832
000040 cb 5b 8c 3e 8b f0 ad be
       0.27413782 -0.33972582

res_depth.4.bias f4 [6]
000000 68 09 09 bd f9 44 e2 bd bd e6 79 bd 0b 96 ed 3e
       -0.033456236 -0.11048312 -0.061011065 0.46403536
000010 a6 ea 70 3e ac 33 e9 3e
       0.23527011 0.45547235

pool1.weight f4 [8, 6, 4, 4, 4]
000000 36 56 54 bd 2f a5 fa bc a5 3c 02 3d d4 93 a2 bc
       -0.05184003 -0.030596344 0.031796116 -0.01984588
000010 7f f8 15 3d 21 ca 49 3d c7 51 56 bd 04 31 87 3b
       0.036613937 0.04926503 -0.052324083 0.004125716
000020 d2 f8 50 3d a0 fa 09 3d 1d 95 2e 3c 7e 44 09 ba
       0.051018544 0.03368628 0.010655669 -0.00052363414
000030 8f a0 4a bc 6f aa 59 bc 36 46 15 3c 29 56 d5 bc
       -0.012367382 -0.013285263 0.009110978 -0.02604206
000040 b0 c0 51 bd 54 61 fd bc 53 3b 3d bd dc b3 ed 3c
       -0.05120915 -0.030930199 -0.046199154 0.029016428
000050 96 9d 2e 3c 4e 4d 2f bd 26 d2 50 bd ea f2 23 bd
       0.010657689 -0.042798333 -0.050981663 -0.040026583
000060 45 72 95 3c 36 d6 e9 bc b5 35 40 bc 87 1a 91 bc
       0.018242965 -0.028544527 -0.011731555 -0.017712845
000070 e1 a7 2e 3c 4b ad aa bc f3 6e d1 bc 20 04 a0 3c
       0.010660143 -0.020834586 -0.0255656 0.019533217
000080 d1 f8 13 3d 76 fe d4 3c 6b 56 0e 3d a9 aa 08 3d
       0.03612596 0.026000243 0.034750383 0.03336588
000090 72 3c 28 bd a2 d0 0c bc fe 0c 95 3c 96 90 1d bb
       -0.04107327 -0.008594664 0.018194672 -0.0024042479
0000a0 1b 56 0f 3b 95 0c 73 3c e0 b9 e8 bb 77 52 1c 3d
       0.0021871391 0.014834543 -0.007102236 0.038164582
0000b0 a6 70 ac bc 6a f9 25 3c 65 c6 1c bd db e8 12 3d
       -0.021049809 0.010130266 -0.03827514 0.0358666
0000c0 94 0f a7 bc 48 b1 5e 3c e9 ba d3 3b a8 af 78 bc
       -0.02039317 0.013592072 0.0064614904 -0.015178598
0000d0 cd 79 b4 3b 6d b8 e1 3c 2e be 80 3c fa eb 7a bc
       0.005507684 0.027553761 0.015715685 -0.01531505
0000e0 aa 3a c5 bc 51 bd cc 3b 91 a6 23 bc 24 6c b8 bc
       -0.024075825 0.006248154 -0.009988443 -0.022512503
0000f0 21 9a c3 3c ce d9 0a bd 2b 21 17 3d a8 c6 02 3d
       0.023877205 -0.03389912 0.036896866 0.031927735
000100 32 6d 21 bd 1a 5d fe 3c 9a 04 c3 3c b2 83 02 3d
       -0.039410777 0.031050254 0.023805905 0.031863876
000110 ed bb 82 bc 88 ce 0a bd 98 ee 36 bd 80 af 84 3b
       -0.01595875 -0.03388837 -0.044661134 0.0040492415
000120 36 8c 4b 3d 99 03 03 3c d0 5a 3b 3d bf dc 02 3d
       0.049694262 0.007996463 0.045740902 0.0319488
000130 cf d6 8c 3c 64 a7 40 bd de b3 ed b9 df 7b 0e 3d
       0.017192272 -0.047034636 -0.00045338174 0.0347861
000140 37 33 0e bb f8 b2 2e bd 73 14 02 bd 81 1c f4 bc
       -0.0021698007 -0.042651147 -0.031757783 -0.029798748
000150 a8 df 29 3d c0 bf b1 bc 9e 88 a3 3c c1 55 49 bd
       0.04147306 -0.021697879 0.019962605 -0.049154047
000160 2f e8 45 bd af 7e 54 3d 1f 42 08 bd 50 65 06 bd
       -0.04831713 0.051878627 -0.033266183 -0.032811463
000170 5e 46 ba bc 13 8a 47 3c b9 a9 36 bd d6 8b 17 bd
       -0.022738632 0.012178916 -0.044595454 -0.036998592
000180 28 19 44 3d 5b 92 55 3d 73 33 9a bc fb b3 b2 bb
       0.047875553 0.05214153 -0.018823361 -0.0054535843
000190 1f 8d fd 3c 25 d2 ec bc 28 f8 d9 bc 8e 82 0f bd
       0.03095108 -0.028908798 -0.026607588 -0.035036616
0001a0 3f 16 03 bb f4 62 d6 bb 4f b1 1b bd f9 e4 01 3c
       -0.0020002273 -0.006542558 -0.03801089 0.0079281265
0001b0 a3 30 36 3c 19 8e 13 bd 65 68 cc 3c d3 c0 cd bc
       0.011119994 -0.036024187 0.024952123 -0.02511636
0001c0 9d 37 09 3d cb 82 89 bb 67 ee 47 3d 02 d7 82 bc
       0.033500303 -0.0041965 0.048811343 -0.015971664
0001d0 41 c8 52 bd ba 04 88 bc 53 66 26 bd c8 fe 23 bd
       -0.05146051 -0.016603816 -0.040624928 -0.0400379
0001e0 c7 ab d0 ba 52 ab 3f bb df 87 63 3c ea f1 42 bd
       -0.0015920334 -0.0029246402 0.013887375 -0.04759399
0001f0 fe 80 57 3c 88 cb b5 bc 33 82 e1 bc 82 1a 50 bb
       0.013153313 -0.022191778 -0.027527904 -0.003175408
000200 19 16 c1 bc b4 90 95 bb b6 0a 3d bd 25 f3 3a bd
       -0.023570107 -0.004564369 -0.046152793 -0.045642037
000210 78 61 eb bb c7 da 0d 3d e5 47 7f 3c 30 8c 28 bc
       -0.00718325 0.03463247 0.015581106 -0.01028733
000220 50 aa a3 bc e1 0b 54 bd 40 39 28 3c d6 18 b6 3b
       -0.019978672 -0.05176914 0.010267556 0.00555716
000230 9a 54 27 bd bf c1 14 bd 80 75 06 bd 48 d0 52 3c
       -0.040852167 -0.036317583 -0.0328269 0.012867041
000240 08 ee 92 3c 3b b3 2a bc 69 99 1b bd 7d e5 93 3c
       0.017935768 -0.010418708 -0.0379881 0.018053764
000250 9b 95 b5 bc 46 fd b8 bc 07 4e df 3c ea d7 2a 3d
       -0.022166064 -0.022581708 0.027258886 0.041709818
000260 4e 0a 6f ba dd 8f cf 3c 04 78 31 3d 44 78 32 bd
       -0.0009118662 0.025337154 0.043327346 -0.043571725
000270 56 85 3a 3c 9d b6 19 bd 94 6d 4a 3d 8a a3 77 3c
       0.011384329 -0.03752767 0.049420908 0.015114674
000280 3a 80 32 bd cf 22 a0 3c 81 32 fb 3c 78 5c 20 3b
       -0.043579318 0.019547848 0.03066373 0.0024469178
000290 db 79 12 3d 09 1d ef bb 2a 7b 06 bd 89 b0 12 bd
       0.03576074 -0.0072971624 -0.032832302 -0.03581289
0002a0 32 63 79 bc 99 22 d0 3b a7 23 00 3c 71 19 b2 bb
       -0.015221404 0.0063517806 0.007821 -0.0054351618
0002b0 52 6b a3 3c 4a a6 33 3c 7f 5e 0c bd b9 65 5a bd
       0.019948635 0.010964939 -0.034269806 -0.053319667
0002c0 70 89 61 bb c2 93 df 3a de 1b 53 3b b8 50 f8 3b
       -0.0034414195 0.0017057585 0.0032212655 0.007577982
0002d0 30 5a 65 3b 90 61 82 3b 47 58 1b bc c3 f4 43 bd
       0.0034996383 0.0039789155 -0.009481496 -0.047840845
0002e0 c3 53 36 bd 87 ec 2a bd fa a8 0d bc 8d c6 26 bc
       -0.044513475 -0.041729476 -0.008646244 -0.010179174
0002f0 d4 a8 f7 3c 93 e7 7e 3c 43 69 24 bc e3 7a f3 3c
       0.03023187 0.015558141 -0.010034862 0.029721683
000300 7a c1 c2 bc 00 11 9b 3c 3e 73 a7 3c 94 49 c5 bc
       -0.023773897 0.018929005 0.020440694 -0.024082936
000310 72 b9 c7 bb 16 78 5e bd 63 c2 1c 3d 7c b4 3a 3c
       -0.006095105 -0.05431374 0.03827132 0.01139557
000320 ab 1c 45 3c 53 1f cc 3b 5f bc f3 3a b9 73 cb 3c
       0.012030761 0.00622932 0.0018595568 0.024835454
000330 a3 92 50 bc b4 0d 18 bd 57 6e ca 3c 4f a3 61 3c
       -0.012730273 -0.037122443 0.024710817 0.013771846
000340 c6 ae 0b 3d 67 1e 40 3d 10 9a 06 3d 2d 18 f2 bc
       0.034102224 0.046903994 0.03286177 -0.029552544
000350 6c 8d 3d b9 b0 66 4c bc 50 6c 2d bd 10 b9 a2 3c
       -0.00018077128 -0.0124756545 -0.042339623 0.019863635
000360 68 49 a7 bc d4 3f f3 3c 8c 07 09 3d ba 36 a6 3b
       -0.020420745 0.029693522 0.033454463 0.005072442
000370 e0 bc f7 3a af 7c 13 3d 77 eb 08 bd 38 83 b0 bc
       0.0018900894 0.03600758 -0.03342768 -0.021546945
000380 34 c6 e9 3b 3e 48 0a 3d 21 fe 54 3c 31 0c ba bc
       0.0071342234 0.0337603 0.013000042 -0.022710891
000390 3c d6 3d 3d 48 a7 15 3d 32 5f 35 bc 30 b5 42 bd
       0.046346888 0.036536485 -0.01107006 -0.047536075
0003a0 5b 8a 52 3b f6 20 c6 3c 94 60 c3 3c d8 b4 11 3d
       0.0032125923 0.024185639 0.023849763 0.035572857
0003b0 b7 52 4f bd ae 9e 3f bc 2d c9 0b 3c ac d0 2c bd
       -0.050615992 -0.011695547 0.008531851 -0.042191193
0003c0 9a 9f ca bb bd 17 3f 3c 14 3f a1 3b 66 38 b1 3c
       -0.006183577 0.0116633745 0.0049208496 0.021633338
0003d0 46 16 b8 bc c2 7b e2 3a 6c e1 3d 3d 25 65 49 3c
       -0.022471558 0.0017279314 0.046357557 0.012292181
0003e0 22 be 8e bc 2a 7f c2 bc d3 67 48 3d b2 b9 ae 3c
       -0.017424647 -0.023742277 0.04892714 0.02132878
0003f0 e0 25 42 bd d0 21 43 3c 29 3f 1d bc a1 82 31 3c
       -0.0473994 0.011909917 -0.009597578 0.010834367

pool1.bias f4 [8]
000000 7f e9 ad bd 21 e9 09 be 3c 77 7a bd e8 e3 f7 3a
       -0.084918015 -0.13467838 -0.061148867 0.0018912526
000010 48 2d 3b 3d 24 76 ba 3c 03 2d 51 3c 10 ce 73 ba
       0.04569748 0.022761412 0.012767079 -0.000930042

reduction2_1.weight f4 [16, 8, 1, 1, 1]
000000 a1 ba c1 3d 3a 4d d1 3c 1a 86 83 3e 8d 9a 9a 3e
       0.09459425 0.02554952 0.2568825 0.30196038
000010 88 5a 9b 3e 3f ea b1 bc 85 2c 28 bd 55 55 ad 3e
       0.30342507 -0.021718143 -0.041058082 0.33854166
000020 a7 e4 42 3e 2c fd 9f be 4a e7 13 3d 60 0b 17 be
       0.19032536 -0.31247842 0.036109246 -0.14750433
000030 08 9b 26 3d 81 32 1b be 9b f5 79 be 40 0b 47 3d
       0.040675193 -0.15155984 -0.24410097 0.048594713
000040 a9 38 f3 bd c5 ac 0b 3e 81 f2 2b 3e 5d ed 48 3e
       -0.118760414 0.13640125 0.16791727 0.19621797
000050 d0 f4 4d 3e a8 74 d9 38 55 1a 21 3e d9 34 ae bd
       0.2011292 0.00010369095 0.15732701 -0.08506174
000060 56 d5 8b 3d 7e 9d 1d be b6 30 86 3e 3a b3 61 3e
       0.068278 -0.1539211 0.26209038 0.22041026
000070 5a 49 72 bd 17 f8 0f be 6e e9 82 3e 9e 56 c0 3d
       -0.059151985 -0.14059483 0.25568718 0.09391521
000080 1a ae 87 be 32 1f 0c 3d cb f1 1e be 98 5d 46 be
       -0.26500016 0.034209438 -0.15521924 -0.1937164
000090 28 49 08 3e 20 53 12 bd 52 a8 12 be 91 68 65 be
       0.13309157 -0.035723805 -0.14322022 -0.2240317
0000a0 de f2 d6 bd 07 c7 ab be 7e 29 95 3c 5a f9 a6 3d
       -0.10495542 -0.33550283 0.018208262 0.08153029
0000b0 ea f7 12 bd cd 05 8a be 82 86 ca bd 1b b0 e1 3d
       -0.03588096 -0.2695755 -0.098889366 0.110199176
0000c0 36 b2 8e 3e 96 7d 54 3e 67 77 64 bb f9 61 68 be
       0.2787034 0.20751032 -0.0034861208 -0.22693624
0000d0 03 6e 85 3e 55 81 33 be 9f 4e a1 be 13 f3 99 3e
       0.26060495 -0.17529805 -0.31505296 0.30068263
0000e0 ac 82 98 3e fc b6 43 be 03 d0 35 3e 1d 52 1b be
       0.29787195 -0.19112772 0.17755131 -0.15168042
0000f0 05 80 21 3d b0 05 93 bd 9f 13 12 3e 83 4e 3b bd
       0.03942873 -0.07178819 0.14265297 -0.04572917
000100 45 ed 0c be c8 12 33 be 6a 30 db 3c 87 14 90 be
       -0.13762386 -0.17487633 0.026756484 -0.2814066
000110 ce 2b 9a 3d e6 f4 b9 3e b6 9d 6a 3d c2 56 14 3e
       0.07527886 0.36319655 0.05727931 0.1448622
000120 2f 3d 1c bd a5 37 7d bd b5 5e 8f 3d 68 b5 75 3e
       -0.038144287 -0.061820645 0.07000486 0.23994982
000130 43 a9 25 3e c0 23 2c 3e a8 33 42 3e 78 58 38 be
       0.1617785 0.16810513 0.18965018 -0.18002498
000140 34 0f 80 3e 4a 91 f8 3d ce dc 90 3e 1a 48 aa 3e
       0.250116 0.12137087 0.2829346 0.33258134
000150 5e a7 3f 3c 4b 3b 7a be bd f9 bb bd 82 e5 76 bd
       0.011697618 -0.24436681 -0.09178493 -0.06027747
000160 ed 4c 4a 3d ea a5 a3 be 85 4b 8d be 4e 2b 02 3c
       0.04938977 -0.3196252 -0.2759668 0.007944895
000170 02 b4 92 3c c8 de 04 bd f9 5c 0b 3d e4 0a aa bd
       0.0179081 -0.032439023 0.034024213 -0.083028585
000180 80 6c 75 3e 1b e4 d5 bb 5e b2 05 be 15 ef 1d 3e
       0.2396717 -0.0065274364 -0.13056323 0.15423234
000190 ef 6b 0d be 3e 04 7d bd d3 48 c5 bc 67 80 fa bd
       -0.13810705 -0.061771624 -0.024082577 -0.12231522
0001a0 8e 02 0d 3e a1 66 53 3e 1b 6b 88 be 18 69 7d 3e
       0.13770506 0.20644619 -0.26644215 0.24747121
0001b0 0a 00 16 be 4e dc b3 bd 8a 9f a0 be 67 26 08 3d
       -0.14648452 -0.08782254 -0.3137172 0.03323975
0001c0 d7 46 18 be a3 23 0e 3e 3f f3 0e bd de 68 92 3e
       -0.14870773 0.13880782 -0.034899946 0.28595632
0001d0 ae 0a 87 be 45 c1 ee 3e 1e e0 bb 3e dd 82 0f be
       -0.26375335 0.46631828 0.36694425 -0.14014764
0001e0 ce f1 e9 bd 47 95 36 be 7c fb 84 3e bb 72 da 3d
       -0.11423074 -0.17830382 0.25973117 0.10666414
0001f0 01 9b 99 3e 77 60 79 3e 23 bd a5 3e 29 76 e4 3e
       0.3000107 0.24353205 0.32370862 0.446214

conv2_1.0.weight f4 [8, 8, 1, 1, 1]
000000 97 55 70 bd 8f bc 26 3e 09 1a c5 3d 5c 52 69 3e
       -0.058675375 0.16282867 0.096241064 0.22785324
000010 dd f4 b7 3e 5b d3 f8 3e 71 92 76 be f0 99 9a be
       0.35929003 0.4859875 -0.240793 -0.3019557
000020 83 1b 98 3d 64 a9 63 be 4e 27 a6 bb c6 99 74 be
       0.074271224 -0.22232586 -0.0050706035 -0.23886785
000030 78 ac bb be e9 48 ce 3e 02 5f 9e be 74 51 b2 be
       -0.3665502 0.4029 -0.3093186 -0.3482777
000040 13 ba aa 3d 63 95 b4 bd 95 5b 42 3e e4 9a cd 3e
       0.08336272 -0.08817556 0.18980248 0.40157235
000050 58 86 3b 3e 21 82 1e 3f 6a 06 4b 3d 3b de 97 3e
       0.18312967 0.6191731 0.049566664 0.29661736
000060 69 cb c7 3e 84 c0 3b 3e bf 22 ad 3e be 18 b4 be
       0.39022377 0.18335158 0.33815572 -0.35175127
000070 92 e7 2a 3e df 1d 0d be 66 87 87 3d d0 09 ad be
       0.166899 -0.13780926 0.06617622 -0.3379655
000080 c6 7f a5 3e 94 5d e7 bc 6a 29 a1 3d 78 ba 1f 3e
       0.32324046 -0.028242864 0.07869227 0.15598476
000090 a5 33 23 be f4 e5 a1 3e be 11 24 be d8 82 ce 3e
       -0.1593767 0.31620753 -0.16022393 0.403342
0000a0 72 6a bb be 7d 68 b0 be a6 06 4e 3d c4 4a a8 3d
       -0.3660465 -0.34454718 0.05029931 0.082173854
0000b0 f1 5e b2 be 53 8c e6 3e 0a 95 c1 3e 40 83 60 3c
       -0.3483806 0.45028934 0.3780902 0.013703167
0000c0 ee 41 f9 3d ba 0c e4 3c c0 7c 77 be a4 1e 07 be
       0.12170778 0.0278381 -0.24168682 -0.13195282
0000d0 36 2e 76 3e 35 c2 f2 bd 5f 9f fa 3d d9 91 90 bd
       0.24041066 -0.11853448 0.12237429 -0.07059068
0000e0 6a 6e 0c 3e 24 4c 42 be 22 b9 aa be 59 00 c6 bd
       0.13713995 -0.18974358 -0.3334437 -0.09668035
0000f0 3f 72 90 3d 07 ad dd bd 2e 80 72 be 4e 33 92 bd
       0.07053041 -0.10824018 -0.23681709 -0.07138692

conv2_1.0.bias f4 [8]
000000 66 df d2 3d 9a 14 23 be ca 30 69 3c 55 85 6b be
       0.10296516 -0.15925828 0.014232824 -0.23000081
000010 47 3a 5d bb ce 84 11 bc 13 bc 03 be 89 dc 14 3e
       -0.003375666 -0.008881761 -0.12864713 0.14537252

conv2_1.2.weight f4 [8, 4, 3, 3, 3]
000000 ff 4b 8d bd 6b f8 fd 3c 3c 90 b2 3c 60 25 67 3a
       -0.06899261 0.031002244 0.021797292 0.000881752
000010 e4 f5 8c 3c 89 40 9b 3b 67 50 da 3c ee 2e 7f 3d
       0.017207094 0.004737918 0.026649667 0.062300615
000020 5a ef 11 3d e8 de 03 bc c3 4c aa 3d b5 95 be bc
       0.035628654 -0.00804875 0.083154224 -0.023264745
000030 92 84 6f 3d 2c 95 b6 bc 8d 67 de bb ae 5b ca bc
       0.05847604 -0.022287928 -0.0067872466 -0.02470192
000040 df 69 54 bd 70 8c 25 3d ec 54 93 bc 7c 3a 52 bd
       -0.05185878 0.040417135 -0.01798483 -0.051325306
000050 23 13 a3 3d 9e fc 9b 3d 15 1c 0a bc 01 34 a5 bd
       0.079626344 0.07616542 -0.008429547 -0.080665596
000060 7b c5 06 bd 2b c2 10 bd d4 9d 92 bc 75 cf af bd
       -0.032903176 -0.035341423 -0.017897524 -0.08584491
000070 71 89 1b bb 39 27 91 bd e1 31 da 3c 6c 4b 76 3d
       -0.0023733045 -0.07087559 0.026635112 0.06013052
000080 8b ab 11 bc 82 71 73 3d d8 0e e3 3c 4c 9b 87 bc
       -0.008890997 0.05943442 0.027717039 -0.016553544
000090 6d 98 b6 bd 6f 22 5c bd ab dc 39 3d cb 96 a5 bd
       -0.08915792 -0.053743776 0.04537646 -0.08085402
0000a0 82 c8 22 3d 2e 2a e7 bc 74 1b b3 bd b1 28 0d bc
       0.039742 -0.028218355 -0.08745471 -0.008615659
0000b0 33 b7 5e bd cc 67 98 3d 25 fb 65 bd c2 72 33 3c
       -0.05437393 0.07441673 -0.056147713 0.010952653
0000c0 ac 88 5a bd 69 a8 3a bd 1c 71 93 bd 89 35 1e bd
       -0.053352997 -0.045570765 -0.07199308 -0.038625274
0000d0 75 fe 7b 3d ce 61 6f 3d 1c 65 27 3c 05 ab 00 bd
       0.061521966 0.058442883 0.010216977 -0.031413097
0000e0 87 e3 f5 bc 26 cc 9a 3b 18 5e 3b bd a3 b5 53 bd
       -0.03001572 0.0047240434 -0.04574403 -0.051686894
0000f0 8a dc 7f bd fe a4 46 bd 60 be d8 bd a1 22 32 bd
       -0.06246618 -0.048497193 -0.10583186 -0.043490056
000100 7c fa 7e bc 15 d3 9b 3c 30 62 0b 3d db 9c 75 3d
       -0.01556265 0.01902155 0.034029186 0.059964042
000110 49 2c 8d bd 8f 54 83 3c c0 a8 06 3d c4 e9 48 bc
       -0.06893212 0.016031532 0.032875776 -0.012262765
000120 2c 76 6b bc ff a1 04 bd 52 44 8c bd 2b 45 bf bd
       -0.014371436 -0.032381054 -0.068489686 -0.093393646
000130 2a 39 9d bd bd 45 b7 bc 0e e0 82 bd 55 73 08 3c
       -0.07676919 -0.022372121 -0.06390391 0.008328279
000140 e6 87 35 bd 71 53 50 bd 2d 08 52 3d 97 85 8a 3d
       -0.044319056 -0.050860826 0.05127733 0.067637615
000150 5b 73 04 bd d7 e9 a8 3d 6e b1 f5 3b cb c1 81 bd
       -0.032336574 0.082477264 0.007497958 -0.06335791
000160 cd df 5b bd 6a 04 79 3d 8e 9b 9f 3d 0f d2 81 3c
       -0.05368023 0.060795225 0.077933416 0.015847234
000170 4f 75 18 3b 55 e2 37 3d e3 f2 a2 3c 62 24 82 bd
       0.002326328 0.04489358 0.019891208 -0.06354596
000180 57 70 89 3d 5f 9a 86 bd 1c 5e 4b bd 24 30 94 bd
       0.0671088 -0.06572413 -0.049650297 -0.072357446
000190 78 6c fd bc a4 ea b6 3c da 15 0e bd 5e f4 0c bd
       -0.030935511 0.022328682 -0.034688808 -0.034412734
0001a0 7f 31 93 bd 20 99 61 3d ca ab 7b 3d cb 4b b4 3b
       -0.07187175 0.055077672 0.061443128 0.0055021993
0001b0 28 0b 0f be b8 ad f7 bd 40 57 e8 bd a8 fb 8b 3b
       -0.139691 -0.12093681 -0.113447666 0.004271943
0001c0 79 48 aa bc 8f 99 07 3e f0 1e db 3d c1 a9 d1 3d
       -0.02078651 0.13242172 0.1069926 0.10237456
0001d0 65 89 48 3e 49 5b 00 be 7a 92 38 be 54 44 f6 bd
       0.19583662 -0.12534823 -0.18024626 -0.12024751
0001e0 f1 82 52 3d 14 de 75 3d 50 a2 02 3e 68 e8 fe 3c
       0.051394407 0.060026243 0.1275723 0.03111668
0001f0 3b 12 ae 3d 17 1e c2 3d 58 5b 62 be c2 a6 39 be
       0.08499571 0.094783954 -0.22105157 -0.1813002
000200 4e 97 8e bd 2f 53 92 bd d3 08 70 bd 71 43 bc 3d
       -0.06962453 -0.07144772 -0.058602165 0.09192551
000210 16 62 c9 3b 34 32 ed 3d 93 12 d1 3d 5f e6 0a be
       0.006145726 0.11581841 0.10208621 -0.13564442
000220 bd 6f bd 3c 94 4e e7 bd bb 73 81 3d 4d d7 d6 3c
       0.02312457 -0.112942845 0.06320902 0.02622571
000230 b6 18 ae 3d 20 18 8f bd d4 22 01 3d 92 3a e4 bd
       0.08500807 -0.06987023 0.031527355 -0.11143984
000240 64 3c e3 3c 84 7a dc bd 43 79 60 3d 95 97 16 bd
       0.027738757 -0.107655555 0.054803144 -0.036765654
000250 e9 d7 8c 3d c4 46 3c bd fb f4 b3 bd c1 b2 09 bd
       0.06877119 -0.045965925 -0.08786961 -0.03361774
000260 9c 36 b2 bd 9c 1b 00 be b8 1f 8e bc 93 55 50 3b
       -0.08701822 -0.12510532 -0.017349109 0.0031789287
000270 b9 7c 39 bd bf 81 96 bc 5d 98 b3 3d 99 08 39 bd
       -0.04528496 -0.018372415 0.08769295 -0.045174215
000280 c5 8d 0b be 6f b1 bb 3b f0 bf 34 be 0a 4f 2e be
       -0.136283 0.005727939 -0.17651343 -0.17022339
000290 88 59 2d be e6 94 65 bd 68 63 46 ba 4c d7 98 3d
       -0.16928685 -0.056050204 -0.0007567913 0.074629396
0002a0 13 b4 b8 3d e0 13 3f 3e 81 13 82 3e 3f fa 3b be
       0.090187214 0.18659925 0.25405505 -0.1835718
0002b0 83 36 27 be 15 23 41 bd 9f 6a 9f bc 17 d2 76 3d
       -0.16329388 -0.047152597 -0.01946002 0.06025895
0002c0 b7 a5 8a 3d e4 eb 13 3d 1f 7c 20 3e a6 9c 15 3e
       0.06769889 0.036113635 0.15672348 0.14610538
0002d0 c4 b1 8c bd 9a 38 3b be 7b 73 9e bd e2 f2 c4 bd
       -0.068698436 -0.1828331 -0.0773687 -0.09616639
0002e0 1a 18 0d be fe 18 6c bd 66 a9 32 3e 31 d1 26 3e
       -0.13778725 -0.057641022 0.17447433 0.16290738
0002f0 f8 b6 7c 3e 9a 69 44 bd a0 51 aa 3c 9f cf bd 3b
       0.24679172 -0.047952272 0.020790875 0.0057925726
000300 10 7b 02 bd 99 9b 73 bd db 68 08 bd a7 d5 c6 3c
       -0.031855643 -0.05947456 -0.033303123 0.0242718
000310 59 b1 81 bd 3f 17 af bc 6b ec 11 3c ee 20 88 3d
       -0.063326545 -0.02137339 0.008906464 0.06646906
000320 73 5a 4d 3d 9d 44 2b bc ab e8 b2 3b 9d c4 a1 bc
       0.050135087 -0.01045337 0.005459865 -0.019747073
000330 1e 76 05 bd d8 d0 5a bd 05 86 08 bc b1 ec aa 3d
       -0.03258335 -0.053421825 -0.008332734 0.083459266
000340 5c 89 4f 3c c5 62 16 bd 3e ad 3a bd e5 66 5c 3d
       0.012667026 -0.036715288 -0.045575373 0.053809065
000350 11 9e 8b bd 76 d1 8b bd d0 ea 6d 3d 09 c4 66 bd
       -0.06817258 -0.06827061 0.058085263 -0.056339297
000360 bf 47 62 bd f8 a0 a9 3a 08 fa 28 3d ae 10 5f 3c
       -0.055244204 0.0012941649 0.041254073 0.013614817
000370 37 ed 2a bd 35 46 d3 bd 09 48 11 bd c0 e9 f7 3c
       -0.041730132 -0.10316125 -0.03546909 0.030262828
000380 1f 10 a2 bb f5 26 6a 3b 79 15 01 3e 51 1c 0f bd
       -0.0049457694 0.0035728787 0.12605847 -0.034939114
000390 3e e8 9f bd 50 ea c8 3b db df 0b 3d f1 76 85 3c
       -0.078079686 0.006131448 0.034149032 0.016292067
0003a0 0a fe f1 3d 01 2d 9d 3d 8d cc 9c bd d7 5c 93 bd
       0.11816032 0.076745994 -0.076562025 -0.07195442
0003b0 28 5b 82 bd 76 7b 55 3d 9e 0d 8e 3d c9 f7 d1 bd
       -0.06365043 0.052119695 0.06936191 -0.102523394
0003c0 16 95 b7 bc ea 56 45 3d 18 52 a6 3c e6 b3 14 bd
       -0.022409957 0.04817859 0.020302817 -0.036304377
0003d0 83 4b 1a 3d 10 14 06 3d 2d 12 70 3d 9d 99 2e 3d
       0.03766967 0.032733977 0.058611084 0.042626966
0003e0 34 c6 1a bd 8a 5a 99 bd 21 36 4e bd 6e 25 3a bd
       -0.037786677 -0.07487972 -0.05034459 -0.045445852
0003f0 b1 a0 56 bc bb f7 61 3b 6d b9 8a 3d 4b 5a 27 bd
       -0.013099835 0.0034479934 0.067736484 -0.040857594

conv2_1.2.bias f4 [8]
000000 4b f1 16 3e 2a 7c 29 bb b2 40 8e bc c3 94 e0 bd
       0.14740483 -0.002586136 -0.017364834 -0.10965874
000010 4e 91 d5 bd 1c 69 5e 3d 17 ef c8 bd 90 03 22 3e
       -0.10428105 0.05429946 -0.09811228 0.15821671

conv2_1.4.weight f4 [16, 8, 1, 1, 1]
000000 4b 81 2c 3c 9c f8 5a 3e ae 4b 87 be ff 4f 55 be
       0.010528873 0.213839 -0.26424927 -0.20831297
000010 d0 1b 0b be 0a 7a 3c 3e c0 2b 31 be e8 65 5c 3e
       -0.13584828 0.18405929 -0.17301846 0.21523249
000020 3c 2b 8b 3e 0c 1f d1 be 9c 33 09 be 8f f3 8f be
       0.27181423 -0.40844 -0.13398594 -0.28115508
000030 0d fa 7f 3e 9b a2 b7 bd a6 f4 c0 3d 2a 01 be 3d
       0.2499773 -0.089665614 0.09421663 0.09277566
000040 3a e6 73 3e a3 f5 8a be fa 63 83 be 4a 8c 32 3e
       0.23818293 -0.2714053 -0.25662214 0.17436329
000050 b9 e5 8e bd 2a 11 d5 bc 08 c3 8b bd cd fe c1 bd
       -0.0697741 -0.026009161 -0.06824309 -0.094724275
000060 d7 e1 1f 3d ff d1 2b be 96 32 ba 3d de 98 3b bd
       0.039033737 -0.16779326 0.0909168 -0.045800082
000070 0d da aa bd 54 dc a9 bd 44 92 0c bd ef 92 a4 38
       -0.08342371 -0.082939774 -0.034319177 7.847498e-05
000080 81 e2 9d bd 65 07 6f 3d 80 59 98 be 1e 2a 91 be
       -0.07709218 0.05835666 -0.29755783 -0.28352445
000090 59 f7 8b 3e 09 60 03 3e 45 a0 95 3d 3d c9 0d bd
       0.2733715 0.12829603 0.073059596 -0.034615744
0000a0 33 ef 0b bd 22 07 64 be 31 2c 2c bc 9f fe 20 3e
       -0.034163665 -0.22268346 -0.010508583 0.1572213
0000b0 3e 18 3f be c8 d0 2c 3e fd 24 8a 3e 48 52 a5 be
       -0.18661591 0.16876519 0.26981345 -0.32289338
0000c0 37 01 a1 3e d2 87 99 be ef 80 05 ba e8 5f 13 3d
       0.3144624 -0.29986435 -0.000509276 0.035980135
0000d0 73 54 3f be ed 18 8e 3e 1e 65 e0 bc 9a e1 26 3e
       -0.18684559 0.27753392 -0.027391966 0.16296998
0000e0 4f 9d 87 3d 6d 62 85 be 23 a9 55 3e 92 21 0a be
       0.06621801 -0.26051655 0.20865302 -0.13489369
0000f0 14 6a 94 3e 93 80 90 3d 0b c1 80 3e d7 09 a9 3e
       0.2898718 0.070557736 0.2514728 0.3301532
000100 9e 4c 26 ba e4 ff f7 3e 30 63 37 3e 83 6c 3c 3e
       -0.00063438143 0.48437417 0.17908931 0.18400769
000110 11 cd a6 3d ed 91 d6 3d 70 73 53 bd a4 69 e2 bd
       0.08144582 0.10477052 -0.05162376 -0.110553056
000120 2d 5c 04 3e bb fa 01 3e 15 23 a5 bd 4c fd f0 3c
       0.12925787 0.12693302 -0.08063332 0.029417656
000130 84 07 04 be 4c 53 0e 3e a7 1f a3 be a9 3d 7b be
       -0.12893492 0.13898963 -0.31860086 -0.2453524
000140 8d 4d 67 be a0 0c 3c bd c9 39 68 3e 11 48 11 3e
       -0.22588177 -0.045910478 0.22678293 0.14187647
000150 ac f8 8b 3d d8 89 d3 3d 84 5b ee bd af 0b b1 3e
       0.0683454 0.10329026 -0.11638549 0.34579226
000160 6d 41 3a be fa ee 63 3e 7d 73 62 3e fa 3c 6a 3e
       -0.1818902 0.22259131 0.22114368 0.22874823
000170 1b 8c 9f 3d a3 9e 7d be 49 a6 9c be 06 d9 bc 3e
       0.07790395 -0.24767546 -0.30595616 0.36884326
000180 62 f2 7c be b2 20 00 be 96 0a 0f 3d 9e 41 28 be
       -0.24701837 -0.12512472 0.034922205 -0.16431281
000190 a8 53 21 3e 79 12 5d 3d 30 af 60 be b5 11 64 be
       0.15754569 0.053972695 -0.21941829 -0.2227238
0001a0 fa 13 2f be 14 f6 b1 3e 63 85 4f 3e 93 09 92 3e
       -0.17097464 0.34758055 0.20265727 0.2852293
0001b0 3a 03 26 3e be bb 04 bc 4a 92 5d 3e e6 f1 86 be
       0.16212168 -0.008101402 0.21637836 -0.2635643
0001c0 f5 43 45 be 9b 3f 59 be 98 75 96 be 24 b0 9d be
       -0.19264205 -0.2121567 -0.29386592 -0.30798447
0001d0 c1 89 03 3e 36 5f e6 3c 0e 37 6d be aa 63 c1 bc
       0.12845518 0.028121572 -0.23165533 -0.023607094
0001e0 9e 18 0f bc 72 b0 ac 3e 71 fa b4 3d 70 41 20 3e
       -0.008733897 0.33728367 0.088368304 0.15649962
0001f0 a4 9c 74 be 54 08 8e 3e 79 8c b5 3d 8d 7f 13 3e
       -0.23887879 0.2774073 0.08864684 0.14404126

conv2_1.4.bias f4 [16]
000000 39 29 cf bc 99 da 9d 3e b2 7f 72 bd 0b df 59 3e
       -0.025288211 0.3083084 -0.05920381 0.2127649
000010 9b ef 95 bc a8 b0 a9 3e af 0d 68 3d 79 bf fb bc
       -0.01830273 0.3314259 0.056653675 -0.03073095
000020 e7 8e da 3d ff 88 10 be b1 bc b4 3c b5 4a 04 3c
       0.10671788 -0.1411476 0.022062631 0.008074452
000030 06 f0 9c bd d6 63 4d 3e 9c ed 3c 3b 2f 84 39 bd
       -0.07662968 0.20057616 0.002882815 -0.045292076

pool2.weight f4 [8, 1, 7, 7, 7]
000000 79 05 da 3c 52 ae 49 3c 53 63 33 bc c8 01 b1 bc
       0.026613938 0.012309628 -0.010948974 -0.021607295
000010 0e b2 67 3c d7 60 ef 3c 1e 73 b5 3c f4 fd a2 bc
       0.014141573 0.029220982 0.022149619 -0.019896485
000020 50 87 03 3d f2 cb 97 bc 98 51 6f bc 4d 52 09 bd
       0.032111466 -0.018529866 -0.014606856 -0.033525754
000030 65 07 9a bc a6 8c c4 3a f5 1b 0b bc 86 73 2f bc
       -0.018802354 0.001499553 -0.008490552 -0.010708695
000040 8f 8b 9e 3c e9 a0 1e 3d ac d3 71 3c c4 fc d1 bc
       0.019353656 0.038727675 0.014759939 -0.025633223
000050 8a 88 4d 3c a6 8b 4b bc ef f9 19 3d 5f 75 c4 bb
       0.0125447605 -0.0124234315 0.03759187 -0.005995437
000060 76 1c a9 3c 04 a8 0c bd 79 d0 b7 3c 46 86 36 3c
       0.020643454 -0.03433992 0.022438275 0.011140412
000070 79 21 c6 3c 15 24 fe bc 49 17 ae 3c ba 05 10 3d
       0.024185883 -0.031023065 0.021251338 0.03516171
000080 db 86 4e bc 33 75 8a bb e5 81 54 bc 0a 21 8a b9
       -0.012605394 -0.004225397 -0.012970422 -0.00026346027
000090 13 1f d6 3c 9c 65 c9 bc bc 98 5a 3c a3 a3 b9 3c
       0.026137864 -0.024584584 0.013342079 0.022661036
0000a0 0b 1a c3 3c bb a3 2d bd 10 73 2f bb 1b 88 bc bb
       0.02381613 -0.042392474 -0.0026771463 -0.0057535297
0000b0 3b b5 1d bc 80 16 8b bc 42 5d 48 bb 0b d7 61 bc
       -0.009625728 -0.016978502 -0.0030573164 -0.01378418
0000c0 c4 93 97 3c 21 18 a5 ba 3d 43 05 3c 30 47 e1 ba
       0.018503077 -0.0012595692 0.008133707 -0.0017187353
0000d0 6b 3a 85 bb 0e 3d 83 bc cd 55 b4 bc 3e 55 be 3c
       -0.004065802 -0.016020324 -0.02201357 0.023234006
0000e0 4e 56 ac 3c a4 e8 08 3b 8e 53 c3 bc 14 c4 29 3d
       0.021037247 0.0020890618 -0.023843553 0.04144676
0000f0 83 93 2a bd 3b fe 2e bc 17 75 86 bc 58 2e db 3b
       -0.041644584 -0.01068073 -0.016413255 0.006688874
000100 96 73 22 3d 80 99 2f bd ba 57 d0 3c 7e a9 1a bc
       0.039661013 -0.042871 0.025432456 -0.009439824
000110 9d a4 87 bc 9a ff 2c 3d 88 cf 54 bc 76 57 2a bd
       -0.016557986 0.04223595 -0.012988932 -0.041587315
000120 da 0f 26 bc 9e 59 31 bd 99 c9 3e 3b c2 09 22 bd
       -0.010135615 -0.043298356 0.002911186 -0.039560087
000130 3f 13 34 bd 93 4e 46 bc e8 7d 85 bc 4a 00 16 3d
       -0.043963667 -0.0121036945 -0.016295388 0.03662137
000140 54 92 85 3a c4 56 c8 bc 1b ab 01 3d 3c c8 88 3c
       0.0010190704 -0.024455436 0.03165732 0.016697042
000150 53 92 0e 3d 19 36 f2 3b 1d 9f b0 3b 42 c9 9e bc
       0.034807514 0.007391703 0.0053900615 -0.019383077
000160 e4 95 1c 3d e9 be f8 3c 1f 64 c1 3c 07 c5 18 3d
       0.038228884 0.03036447 0.023607312 0.037297275
000170 8f c6 06 3d 7b 35 d3 bb 47 df 18 bc 89 41 04 3d
       0.032904204 -0.0064455844 -0.009330577 0.03228906
000180 57 2d 0e 3b 69 b2 14 3d f5 5a 84 bc 56 ed d2 bc
       0.0021694505 0.036302958 -0.016156653 -0.025747936
000190 d5 3c a1 bc 46 9b c7 bb ef 7d 6c b9 86 ef a3 3c
       -0.019682327 -0.006091508 -0.00022553628 0.020011675
0001a0 ef b5 27 bd 12 28 2f 3c 4b 93 60 bc 28 16 70 3c
       -0.04094499 0.010690706 -0.013706992 0.01465372
0001b0 6a 1f a3 bc f8 78 2f 3b af bd e4 3c db ef a6 bb
       -0.01991244 0.0026774984 0.02792248 -0.005094511
0001c0 31 ae ce bc 4f 89 ee bc ad ae d5 3c 7e b1 16 bc
       -0.025229545 -0.029118208 0.026084268 -0.009197591
0001d0 83 7e a6 bb 46 d8 0d bc df 1e 1e 3d 87 09 ce 3c
       -0.0050809993 -0.008657521 0.03860366 0.025151027
0001e0 a5 15 e2 bb 40 22 56 bc 47 67 a5 bc 7b aa db bc
       -0.006899553 -0.013069689 -0.020190848 -0.02681469
0001f0 70 38 5f bc 74 3d b8 bc 0b 37 c1 3b c2 92 4c bc
       -0.013624296 -0.02249024 0.005896454 -0.012486162
000200 7c 74 88 3c 0a 3b 21 3d e9 97 b7 3c 76 fe f5 3b
       0.016657107 0.039362945 0.022411304 0.0075071407
000210 39 41 92 39 04 b5 fe 3c 2c eb 14 bd 84 0b 07 3d
       0.00027895885 0.031092174 -0.03635709 0.032969967
000220 9f 54 12 3d 07 43 02 3c 7e 51 e0 bc b5 b7 bd bc
       0.035725232 0.007950551 -0.027382609 -0.023158887
000230 c0 13 9c 3c 00 4d 47 3c 3a 6b 30 3c e0 96 15 bd
       0.019052386 0.012164354 0.010767752 -0.03652084
000240 47 ff b1 3b 08 47 3a bc c6 24 76 3c d6 26 90 3a
       0.0054320428 -0.011369474 0.015023416 0.0010997902
000250 a9 9d b0 3c 21 68 08 bd cb 48 29 3d 01 74 e8 bc
       0.021559553 -0.03330243 0.041329186 -0.028375627
000260 1c ff ee 3c e4 45 1f 3d c4 f8 0b bc 5b cc 73 bb
       0.02917438 0.038885012 -0.008543197 -0.0037200663
000270 d4 75 25 bd d1 3f 9c 3c c0 ce 4f bc b8 9e 05 bd
       -0.040395573 0.019073399 -0.01268357 -0.03262207
000280 95 c0 16 3d a3 f9 90 bc 5f 5a 19 bd a0 72 bb 3c
       0.036804754 -0.017697161 -0.0374397 0.022881806
000290 78 b2 85 bc 41 f8 11 3d 83 83 f0 bc 75 b7 1b 3d
       -0.016320452 0.035637144 -0.029359585 0.038016755
0002a0 5e ff b1 3c 2f ad 1a 3d 30 0c 64 3b 1f ca 1a 3d
       0.021728214 0.037762817 0.0034797303 0.037790414
0002b0 9d 51 25 bd 02 75 26 3d c4 d2 40 3c 5f 3c 8c bc
       -0.040361036 0.04063893 0.011769 -0.01711863
0002c0 7e e3 2e bd 30 6a 8a 3c 8b 64 23 bd 68 39 d5 bc
       -0.042697422 0.016896337 -0.039890807 -0.02602835
0002d0 5d 8f a9 3c b5 a3 f3 bb a3 e8 29 bd 41 3e d0 3c
       0.020698244 -0.007435287 -0.041481625 0.02542031
0002e0 39 ef 11 bb fc 6d be 3b 89 8e ac bb 65 f1 24 bd
       -0.0022267832 0.005811451 -0.005266015 -0.040269274
0002f0 4b d4 ad bc 58 56 07 3d c3 4f 95 bc 42 00 29 3d
       -0.021219393 0.03304133 -0.01822651 0.04126001
000300 48 29 cd bc c6 db c2 bc f9 0a d7 bc b9 63 62 3b
       -0.025044098 -0.023786437 -0.02625035 0.0034544303
000310 c9 16 a0 bc b9 87 6a bc 9c 8f 11 3d 18 ff 25 bd
       -0.019542115 -0.014314585 0.035537347 -0.04052648
000320 0c 60 88 3c 37 a4 a7 bb d7 ca 8c 3b a0 0e 0b 3d
       0.016647361 -0.0051160115 0.0042966413 0.033949494
000330 b3 51 8d 3c a1 78 d9 bc 16 22 33 3d c2 9c 0d bc
       0.017250871 -0.026546778 0.04373368 -0.008643331
000340 f9 65 31 bd 5f f2 f8 3c 19 81 c9 bc 89 61 a9 b7
       -0.04331014 0.030389009 -0.024597691 -2.0191788e-05
000350 3a fb e0 3b 21 5c 9c bc ca 51 b9 bc c3 b8 54 3c
       0.006865886 -0.0190869 -0.022622008 0.012983504
000360 7a cd 3e 3c 97 d4 f6 3b ad a2 37 3b be 19 b2 bc
       0.011645669 0.007532667 0.0028020546 -0.02174079
000370 9c 80 01 bd fb 29 2f 3d b5 11 5b bc ea 5e 33 bd
       -0.031616792 0.042764645 -0.013370921 -0.04379169
000380 3f 61 eb 3c 9a 66 3e bc 29 98 d8 bc 39 b5 cd bb
       0.028732894 -0.011621142 -0.026439743 -0.006277707
000390 0e c8 c6 3b 76 9b 32 bd 19 5c 34 3d 36 a9 fd 3c
       0.006066329 -0.04360529 0.044033144 0.030964475
0003a0 8b ca 11 3d d2 93 10 bb 68 25 ba bc fa d8 d1 bb
       0.03559355 -0.0022060764 -0.022722915 -0.0064040394
0003b0 d2 65 33 3d 77 ea f1 3c 3d f7 a1 bc 74 2c a8 bc
       0.043798275 0.029530747 -0.019771213 -0.02052901
0003c0 cb cd 93 bc d5 e0 4a bb 1e a2 97 bc 98 46 98 bc
       -0.018042466 -0.0030956764 -0.01850992 -0.01858835
0003d0 25 5c 47 bb 5d fc 0a 3d 66 00 a1 3c 40 95 fb bb
       -0.0030419913 0.03393208 0.01965351 -0.007677704
0003e0 2e b6 24 bd d2 aa ab 3c d0 af f8 bc a1 f3 fa bc
       -0.040212803 0.020955477 -0.030357271 -0.03063375
0003f0 07 36 1b bd 99 62 62 3c 46 10 85 3b 5b 88 91 3c
       -0.03789332 0.013817453 0.004060778 0.017765215

pool2.bias f4 [8]
000000 3d b7 0b 3c 09 6f 7a 3c 64 51 9b 3c c3 8d 15 3d
       0.008527574 0.015285262 0.018959709 0.036512148
000010 0f 6e 92 3c b0 d3 50 bd 2f db be bc 3d 9f d3 3c
       0.017874746 -0.05098313 -0.023297874 0.025832767

reduction2_2.weight f4 [16, 8, 1, 1, 1]
000000 e6 f8 f4 3e e8 e2 94 be 4c 01 ab 3e 40 fa 55 bd
       0.47846144 -0.29079366 0.33399427 -0.05224061
000010 1e 57 96 be e0 c4 d1 be d8 b0 7b be 42 d0 e3 3e
       -0.2936334 -0.40970516 -0.2457918 0.44494826
000020 ee 59 b0 3e 18 1b 9e 3e 48 17 c5 3e 90 e0 88 bd
       0.3444361 0.30880046 0.38494325 -0.06683457
000030 f4 41 b1 3e c4 73 ba be 40 3d fb 3e 82 c2 8d be
       0.3462063 -0.36416447 0.49070168 -0.2768746
000040 84 a0 60 3e c4 f9 3d 3e 80 94 1d be ea 68 f1 3e
       0.21936232 0.1855231 -0.1538868 0.47150356
000050 00 a0 8e bb a4 45 b1 be 74 8b d2 be cc 79 de 3e
       -0.0043525696 -0.34623444 -0.4112202 0.434523
000060 0e e4 c3 be 70 2d f5 bd 88 31 ab bd f8 25 29 be
       -0.3825993 -0.11971557 -0.08359057 -0.1651839
000070 48 2c 89 3e 14 04 0f 3e 10 e4 3b bd 5c 25 70 3e
       0.26791596 0.139664 -0.045871794 0.23451751
000080 70 cd 6f 3e 4c 5f f5 be f0 5b 60 3e 20 6a 99 bc
       0.23418212 -0.47924268 0.21910071 -0.018727362
000090 80 5c c6 3d 20 7a 6a bd 42 b5 c2 3e a0 b9 bb 3d
       0.09685612 -0.057245374 0.38028914 0.091662645
0000a0 b0 b4 cf 3e 56 5b d4 3e 02 2a 8e be 00 c8 06 be
       0.4056754 0.41475934 -0.27766424 -0.13162231
0000b0 30 2d 0e 3e 6c 0b 84 3e d2 41 82 be 00 2d 8d be
       0.13884425 0.25789964 -0.25440842 -0.27573395
0000c0 44 6c ff be 00 86 65 bc 04 0e 8d be b0 70 5f 3e
       -0.49887288 -0.014008999 -0.27549756 0.2182033
0000d0 f0 96 cb be 6c 63 9e be 68 92 8e be 5e 43 b5 be
       -0.39763594 -0.30935228 -0.27846074 -0.3540296
0000e0 40 82 12 bd f4 22 73 be 10 20 16 bd b8 72 e7 3e
       -0.035768747 -0.23743802 -0.03665167 0.4520471
0000f0 04 ec f2 3e b4 d2 09 3e c2 4b 94 3e 30 fe a7 3e
       0.4744569 0.13459283 0.2896405 0.32811117
000100 e0 3a 90 3c 98 0d fb 3d 1c 4f 63 3e c0 37 86 be
       0.017606199 0.12258452 0.22198147 -0.2621441
000110 10 78 e6 3d 5c 48 b0 3e 26 0f ee 3e a8 1b f9 be
       0.11253369 0.34430206 0.46495932 -0.48653913
000120 5a fb 90 3e 82 7c ec 3e ce 86 f3 be 30 87 ed 3d
       0.28316766 0.46188742 -0.47563785 0.115980506
000130 7c ba 9c 3e 24 53 35 3e 70 3c f9 be b0 f9 c0 3d
       0.30611026 0.17707497 -0.48678923 0.09422624
000140 1c 10 82 be c6 f7 db be 80 18 b9 bd a4 9a c7 be
       -0.25402915 -0.42962474 -0.09037876 -0.3898517
000150 c8 fb 9f 3d 08 e9 fa 3d c8 b1 c1 be a8 95 47 3e
       0.07811695 0.122514784 -0.3783095 0.19490683
000160 58 22 94 be 80 b2 48 bc 40 96 74 be 98 5d 44 be
       -0.28932452 -0.012249589 -0.23885441 -0.19176328
000170 c0 c7 cf be 6c cb a1 3e 24 de cb be 78 0a be be
       -0.40582085 0.3160051 -0.39817917 -0.37117362
000180 98 76 67 3e e0 9a 61 be f0 ef 6c be 70 5b 2b 3d
       0.22603834 -0.22031736 -0.23138404 0.04183525
000190 30 9d db 3d cc 4e d8 3e 0e 19 99 be 58 23 93 bd
       0.107233405 0.42247617 -0.29901928 -0.07184476
0001a0 c0 fe 1b bd be f1 b9 be 80 5a 5e 3d 88 31 ca bd
       -0.038084745 -0.36317247 0.054285526 -0.098727286
0001b0 98 b2 34 3e 7e 67 9c 3e 42 b0 c1 3e de ef db 3e
       0.17646253 0.30547708 0.37829787 0.42956442
0001c0 00 f5 13 3b 52 f3 f2 3e 4c ba e1 be f0 40 7f 3e
       0.0022576451 0.47451264 -0.44087446 0.24927115
0001d0 6c d9 86 3e 30 79 88 3e 00 f5 7d bc e0 86 3f be
       0.26337755 0.2665496 -0.015500307 -0.18703794
0001e0 48 59 56 be b4 0f 59 be 68 33 34 be f4 bf 62 3e
       -0.20932496 -0.21197397 -0.17597735 0.22143537
0001f0 d6 e2 ab 3e fc 3e c4 3e dc a0 db 3e 7c 73 00 be
       0.335715 0.38329303 0.42896163 -0.12544054

conv2_2.0.weight f4 [8, 8, 1, 1, 1]
000000 bc 71 d0 3e 46 46 d0 be 33 d0 b5 be 30 51 c1 3e
       0.40711772 -0.40678614 -0.35510406 0.37757254
000010 f6 f2 0b bf c1 2c 0e 3f 8a 53 c2 be 4f 93 07 3f
       -0.54667604 0.5553704 -0.3795436 0.5295915
000020 ea 33 55 3e ec 10 b7 be 9c 86 16 bf ba 8e fe bd
       0.20820585 -0.35755098 -0.5879915 -0.12429567
000030 83 51 d6 3d fc 90 e8 3e c1 a8 d4 3d f3 aa 98 bd
       0.10464766 0.45423114 0.1038375 -0.07454481
000040 bd 68 0f bf 90 3f a7 3e 5a b7 03 bf 21 3e 0e bf
       -0.5601919 0.32665682 -0.5145165 -0.5556355
000050 39 53 1b 3f 0e f4 e5 be fa 12 79 bc 72 b9 15 3e
       0.6067386 -0.4491276 -0.015202278 0.14621523
000060 00 2e 1d 3e b7 1a db 3c 7f 51 30 3e c9 75 55 be
       0.15349579 0.026746137 0.17218588 -0.20845713
000070 ec a2 0e 3f 36 6f 71 bd 5b a0 16 bf c5 84 1a 3f
       0.5571735 -0.05894395 -0.58838433 0.6035884
000080 47 fd e1 3e e7 1a ea 3c fa e4 d7 3e 9b f8 fa be
       0.44138548 0.028577281 0.42166883 -0.49017796
000090 a1 de 64 be 0b b7 c2 3e cb 1b ea 3e 07 60 1b bf
       -0.22350551 0.38030276 0.4572433 -0.606934
0000a0 b7 f5 ad bd f7 ea 9e 3c 3b ca 82 3d 07 04 c2 be
       -0.08494132 0.01939915 0.06386229 -0.37893698
0000b0 1a 3c 84 be be 9f 1b 3f ff 16 98 be 69 13 9e bd
       -0.25827104 0.6079062 -0.29705045 -0.07718546
0000c0 81 77 d4 be e1 2d 2c be 31 21 f2 3e 3d 5e 43 be
       -0.41497424 -0.16814376 0.47290948 -0.19078918
0000d0 3e 84 a2 be 38 a2 8c 3d 8b e7 03 bf 70 10 5d 3e
       -0.31741518 0.06866878 -0.5152518 0.21588302
0000e0 84 88 08 3e 32 f7 a1 be b4 dd e7 be dc 42 21 be
       0.13333327 -0.31633908 -0.45286334 -0.15748161
0000f0 fd 69 ae 3e bd 6e 9d be 13 52 15 3f 11 87 92 3d
       0.34065238 -0.3074855 0.5832836 0.07154668

conv2_2.0.bias f4 [8]
000000 b5 ea f1 3c 2d 83 40 3d 7c 8c 1d 3e f6 38 ba bd
       0.029530862 0.0470001 0.15385622 -0.09092896
000010 39 97 bb 3d de 77 6b be 64 1d 4a 3d df 19 8c bc
       0.09159703 -0.22994944 0.049344435 -0.01710218

conv2_2.2.weight f4 [8, 4, 3, 3, 3]
000000 d3 d6 ea bd 47 0e f8 bc 90 53 e1 3d ac 23 2d 3d
       -0.11466756 -0.030280245 0.110022664 0.042270347
000010 57 23 08 3a 03 73 a3 bd 2f cf 83 3d db 22 3f bd
       0.00051932543 -0.07980921 0.064360015 -0.0466641
000020 ad 91 02 3e 1f ef 31 bc 55 08 4d 3d 69 1c c8 bd
       0.12750883 -0.010860234 0.050056774 -0.09771044
000030 f8 42 6b bc 82 ec 09 be fc 6c 86 bd bc d9 3f bd
       -0.014359228 -0.13469127 -0.06563756 -0.046838507
000040 a6 25 63 3d af 80 bc 3d b9 64 69 3d 6b bd b4 bd
       0.055455826 0.09204232 0.056980822 -0.08825191
000050 44 75 90 bd 51 d7 b9 bc 25 1f a1 3d c0 a5 21 3c
       -0.07053617 -0.022685679 0.078672685 0.009866178
000060 d5 d7 a8 bb c3 a8 94 3d 43 80 82 bd c3 64 8b 3d
       -0.0051526823 0.07258751 -0.0637212 0.06806328
000070 fd 98 87 3d fe b7 70 3c 8c 19 44 bc 3c bb 48 3c
       0.06620977 0.014692305 -0.0119689815 0.012251671
000080 b3 03 61 bc e5 bb ca 3c bb 25 02 be 54 4d 89 3d
       -0.013733792 0.024747798 -0.12709706 0.06704202
000090 44 f8 9b bd 8a 3d 94 3c fa 95 e3 3d 65 23 a9 bd
       -0.07615712 0.01809575 0.1111259 -0.08258704
0000a0 54 4e 47 bd fb 80 6a 3d a7 50 b7 bd 7d 55 bb 3d
       -0.048658684 0.05725191 -0.0895093 0.09147165
0000b0 ff 0c 00 3e ad 2e ba bd b1 7d e0 bd 64 f2 bf 3d
       0.12504958 -0.09090934 -0.10961474 0.09372404
0000c0 fd 53 0b 3e ee 82 91 bd fb d4 af bd c8 9e c0 bc
       0.13606258 -0.07105051 -0.08585545 -0.023513213
0000d0 90 86 b2 3d 4e 28 2b 3d f0 be b8 bd 08 b9 c2 3d
       0.08717072 0.041786484 -0.090207934 0.09507948
0000e0 0a f6 a1 bd 2f 25 1b bd 15 7d 25 3d e3 14 f4 bd
       -0.07908256 -0.037877258 0.04040249 -0.11918046
0000f0 fe cf 2b 3d 2c d4 e7 bd 18 94 bf 3d 86 c3 d2 3d
       0.041946404 -0.113197654 0.093544185 0.102911994
000100 4a d5 e9 bd 4f cc 62 3d 5e b2 01 3e e0 f2 05 be
       -0.11417635 0.055370625 0.12665698 -0.1308093
000110 bc 32 b9 3d 3a 72 82 3d 18 a6 84 ba ef b1 fd 3d
       0.0904288 0.06369443 -0.00101203 0.12387454
000120 60 87 8f bd 8e 9c c3 bc bc fe 97 3d 52 31 52 bd
       -0.070082426 -0.023878362 0.074216336 -0.051316567
000130 a1 b2 57 3d 3b 31 48 bd 6c 8b 01 be 1d d7 d1 3d
       0.05266059 -0.048875075 -0.12650841 0.10246108
000140 87 e3 59 3d 43 20 f9 bd 57 fd 22 bd 3a 5a e0 3d
       0.053195503 -0.121643566 -0.039792385 0.10954709
000150 3f 8a 05 be 50 ef e3 bd 1b a5 ef 3c 24 e5 32 bd
       -0.13041018 -0.111296296 0.029253533 -0.043675557
000160 b1 27 d5 3c bb d5 cd 3c 50 ce 79 bd c4 93 29 3c
       0.026019903 0.025126329 -0.06098777 0.0103501715
000170 8f d9 68 bd d4 b0 b4 bd 67 cb 08 bd 39 bb c6 bd
       -0.056848105 -0.0882279 -0.033397105 -0.09703679
000180 b4 b7 fd bd d1 67 24 bc 8f 18 04 3e d8 ba cb 3d
       -0.12388554 -0.010034517 0.12899993 0.09947747
000190 49 ee 0a bd f2 2c 7b bd 15 b0 61 bd 10 6a 8b 3d
       -0.033918653 -0.06132216 -0.055099566 0.06807339
0001a0 b5 c6 db bc 64 25 a1 bd 1c 89 b4 3d 7f 2b 06 be
       -0.02682815 -0.0786846 0.08815214 -0.1310253
0001b0 82 8a 91 3c a9 73 9f 3b e6 b2 ea 3d c1 08 ff bd
       0.017766241 0.0048660827 0.114599034 -0.124528416
0001c0 51 59 35 3c 3c c7 52 bd 91 8f e8 bd 10 0e 29 3c
       0.011068658 -0.051459536 -0.11355508 0.010318294
0001d0 e6 a4 9b 3c eb 35 14 3c b9 9d 72 bd af 8e 3c bd
       0.018999528 0.009046058 -0.059232447 -0.04603451
0001e0 9d 3d 3c 3d bd cf 02 be 2b 33 fc bd b5 b2 fb bd
       0.045957197 -0.12774558 -0.12314447 -0.12289945
0001f0 93 bc 05 be 5d 93 af 3d 1b da d9 3d 06 82 a0 bc
       -0.13060217 0.08573029 0.106373034 -0.01959325
000200 78 26 95 bd 78 fb 07 bc 38 0b 4f 3d d0 a0 b2 bc
       -0.07282728 -0.008299701 0.05054781 -0.021805197
000210 bd be 92 3d 0d 27 94 bd fd 57 b0 bd 22 fd 18 bd
       0.07165287 -0.07234011 -0.086105324 -0.03735078
000220 0c d7 27 3b 1c d5 97 3d 4f 1d ba bd 44 29 95 bc
       0.0025610356 0.07413694 -0.090876214 -0.018208154
000230 62 ac b7 3d ba 2b 02 be 8b b3 92 bc f7 a5 08 bd
       0.08968426 -0.12711993 -0.017907878 -0.0333614
000240 3b 0d be bd 1e 88 3f 3d 2f ac fa 3d 9e 8e d7 bc
       -0.09279867 0.04676067 0.12239873 -0.026313122
000250 3e 1a 5f bd dd e4 a8 3c cb 12 3e bd 29 3a f6 bd
       -0.054468386 0.020616943 -0.04640464 -0.12022812
000260 9c 0d 2d bd 91 c6 78 bd 09 02 ac 3c 24 7c 96 3d
       -0.042249307 -0.060736243 0.020997064 0.07347897
000270 04 7f fa bd 3c 51 9d 3d 5f c0 51 3d 8f 60 a8 bd
       -0.122312576 0.0768151 0.05120885 -0.08221542
000280 de ed f5 bd 8e 47 f6 3c 88 bf e3 3d 3c f3 c5 bd
       -0.1200826 0.030063417 0.11120516 -0.09665534
000290 64 76 c0 bd 09 f8 eb bd 5a 86 16 3d c1 b0 ff 3d
       -0.09397581 -0.11521918 0.03674922 0.12484885
0002a0 3d fc 9e bd ea ae 59 3c 1b 64 a4 bd c5 5f 33 ba
       -0.077629544 0.013286332 -0.08026906 -0.0006842579
0002b0 36 2a 31 3b 68 7e 54 bd b7 22 9c 3d 4e 0a cd bd
       0.0027033216 -0.051878363 0.07623809 -0.10011731
0002c0 e0 82 fd bd 5c 87 52 bd 78 15 0f 3c 4b 46 cf bd
       -0.12378478 -0.05139862 0.008733146 -0.10120829
0002d0 53 ae 6f bd 2d b5 53 bd 0f 52 3f 3d 21 b3 e0 bd
       -0.058515858 -0.051686455 0.046709117 -0.10971666
0002e0 6f 00 8f 3d 80 31 c6 3d b4 b4 08 be 0d ad a9 bd
       0.069825046 0.0967741 -0.13350183 -0.0828496
0002f0 0a d3 67 3d eb 13 a8 bd 66 75 d5 3c fa 98 09 be
       0.056597747 -0.08206924 0.026056956 -0.13437262
000300 40 92 2c bd be 34 5b bd b6 90 0d bd cc 34 44 bd
       -0.042131662 -0.053517096 -0.034561835 -0.047901914
000310 b5 fe 17 3d fc 60 52 3d 04 c5 63 bc ce 0e fb 3c
       0.037108142 0.051362023 -0.013901953 0.030646708
000320 5b 84 56 3d ef 14 05 bc 7b 23 59 3d 5d b8 7b 3d
       0.052372318 -0.008122667 0.053012352 0.06145512
000330 f1 04 cf 3d 0b 05 25 3d f4 f5 fc bd bc 8e 48 3d
       0.101083644 0.040288012 -0.12351599 0.048964247
000340 29 7c 9a 3d cd 58 fa bd 4c 66 e2 3c 1a 5a 41 bd
       0.07543213 -0.12223969 0.02763667 -0.04720507
000350 3e ea c2 3d 72 a0 ac 3d a6 bf 55 bd 36 c8 e5 3d
       0.095173344 0.0842904 -0.052184723 0.11219828
000360 5c ba 1d bd 31 c2 a7 3c 9b 34 70 3d b6 79 6c 3d
       -0.038507804 0.02047834 0.05864392 0.05773326
000370 52 0c 31 3d c5 d4 fe bd f7 f1 0b 3c 24 cc ad bd
       0.04322464 -0.12442926 0.008541576 -0.08486202
000380 46 98 9c bd fc af 26 bd 25 8c a0 3d a7 35 a6 3d
       -0.07646231 -0.040695176 0.078392304 0.08115702
000390 ff df 57 bd d4 d0 cc bd da 91 ec bd e3 6f 85 bd
       -0.052703854 -0.10000768 -0.115512565 -0.06515481
0003a0 25 17 08 be 78 a5 ea 3d 72 4c a7 3c 5c c7 bd 3d
       -0.13290079 0.11457342 0.020422194 0.092665404
0003b0 10 d1 75 3d d0 40 bf bc 3f 4f b5 bd c2 17 23 bd
       0.06001383 -0.023346335 -0.088530056 -0.03981758
0003c0 04 78 1f 3d 09 35 d9 bd 31 e0 1d 3d 34 43 91 3d
       0.038932815 -0.10605819 0.038543884 0.07092896
0003d0 f1 cc c9 3d 15 b6 f5 3c 26 31 8d 3d dd c6 c8 bd
       0.098535426 0.02999405 0.0689414 -0.09803555
0003e0 8f 4c 8b 3c cc 57 31 bd 90 59 d7 bd cc 01 ad 3d
       0.01700428 -0.04329662 -0.105151296 0.08447608
0003f0 02 ae bd bb 28 cc f4 bb ad 0d ea bd 65 00 d1 3d
       -0.0057885656 -0.0074706264 -0.1142839 0.102051534

conv2_2.2.bias f4 [8]
000000 dc 67 c4 bd 68 95 b5 3c e4 29 29 b9 71 58 be bd
       -0.09590122 0.022165969 -0.00016132701 -0.092942126
000010 9f 95 2c 3d 85 b0 88 bd 89 ad 52 3d 06 ee b8 bd
       0.042134877 -0.066742934 0.051435027 -0.09029774
