weights/011/cpBest_SSC_PALNet.pth.tar (torch, 471958 bytes, 69 tensors)

conv2d_depth.0.weight f4 [6, 1, 3, 3]
-0.08146091 0.049319115 0.061581336 -0.18434165 0.11189045 0.08112098 -0.088040955 0.21214235
-0.04336869 -0.004801324 0.037858564 -0.022621937 0.112949274 -0.18386295 -0.119984165 -0.043871507
0.057520032 -0.1323109 0.40389448 0.22815064 0.3822075 0.051958226 0.17443177 0.24214603
0.28865972 0.25415507 0.25535062 -0.13278621 -0.21071966 -0.19201761 -0.17341588 0.082976006
-0.09252303 -0.07016655 0.18791974 -0.17437209 -0.0046851365 0.08562249 0.13959683 -0.057924565
7.4074866e-05 -0.14388685 -0.19622593 -0.20025344 0.054359686 0.078852504 0.2178359 0.24507575
0.41420016 0.28058004 0.40738213 0.4612551 0.15181749 0.43766767
00000000: fad4 a6bd d702 4a3d b63c 7c3d 0fc4 3cbe
00000010: d226 e53d c222 a63d d14e b4bd d83b 593e
00000020: 5ea3 31bd 6d54 9dbb 9511 1b3d a451 b9bc
00000030: f351 e73d 9246 3cbe 42ba f5bd 9cb2 33bd
00000040: 209a 6b3d 827c 07be 42cb ce3e 52a0 693e
00000050: b4b0 c33e 26d2 543d 3e9e 323e 21f5 773e
00000060: 35cb 933e 9d20 823e 51bd 823e 1cf9 07be
00000070: e5c6 57be 44a0 44be ef93 31be 53ef a93d
00000080: b77c bdbd 7bb3 8fbd 086e 403e 998e 32be
00000090: c685 99bb d85a af3d 79f2 0e3e 4f42 6dbd
000000a0: a458 9b38 1357 13be 73ef 48be 3d0f 4dbe
000000b0: 43a8 5e3d 6c7d a13d 6010 5f3e 23f5 7a3e
000000c0: 0b12 d43e 30a8 8f3e 6494 d03e a129 ec3e
000000d0: 0b76 1b3e fa15 e03e

conv2d_depth.0.bias f4 [6]
0.22544688 -0.024152497 0.09035331 -0.09297188 0.19581725 0.40084895
00000000: 8cdb 663e 75db c5bc 280b b93d 0b68 bebd
00000010: 5184 483e 133c cd3e

res_depth.0.weight f4 [3, 6, 1, 1]
0.025884084 0.22014056 0.02233841 -0.20835726 -0.22712855 0.091462106 0.080148235 -0.0711745
0.035057973 -0.1161615 0.13502371 -0.06310887 -0.06949247 0.06651693 0.060428053 0.25386617
0.14526087 -0.1036544
00000000: dc0a d43c 876c 613e 0bff b63c 9b5b 55be
00000010: 6394 68be 7c50 bb3d c224 a43d f0c3 91bd
00000020: f398 0f3d 15e6 edbd a843 0a3e 393f 81bd
00000030: 1152 8ebd 073a 883d 6883 773d bffa 813e
00000040: 44bf 143e c248 d4bd

res_depth.0.bias f4 [3]
-0.13910107 -0.18813619 0.23600541
00000000: 8370 0ebe c6a6 40be 67ab 713e

res_depth.2.weight f4 [3, 3, 3, 3]
0.11928678 0.07547327 0.055374473 0.09977696 0.10509948 -0.10548052 0.030594831 0.06716294
0.036204264 0.016443912 -0.08688686 0.034718156 -0.011188485 -0.12405524 0.0712553 0.060102444
-0.005753812 0.07813259 -0.042670038 -0.114239156 0.040075753 -0.073693976 -0.0725786 -0.121202156
0.07844259 -0.0003063053 0.10755374 -0.081678174 0.088748425 0.045731638 0.07524004 0.058161534
-0.11047796 0.09235313 -0.12361284 -0.00769947 -0.11371687 -0.0046438524 -0.11344762 0.082114995
-0.047900744 0.10776781 -0.0031596026 0.0066577457 -0.05668847 -0.043661408 -0.039499737 -0.10897479
-0.050656617 -0.083504125 -0.113151215 -0.10960527 -0.012674274 0.07414398 -0.070898265 -0.07990277
-0.121563785 -0.0048342315 -0.078427926 -0.031444184 0.054786913 -0.0064522694 0.033632275 -0.12329352
-0.09451692 -0.10980377 -0.053044066 -0.05475982 -0.07119873 -0.0011980032 -0.04638016 0.058666725
-0.016542768 0.12226735 -0.10410997 -0.013869341 0.022866819 0.11298472 -0.11560698 0.058755316
0.033643972
00000000: a14c f43d bb91 9a3d 58d0 623d dd57 cc3d
00000010: 653e d73d 2c06 d8bd 03a2 fa3c b98c 893d
00000020: ec4a 143d 62b5 863c bdf1 b1bd a034 0e3d
00000030: e84f 37bc ac10 febd 4cee 913d fb2d 763d
00000040: 798a bcbb fb03 a03d c7c6 2ebd 38f6 e9bd
00000050: 7926 243d deec 96bd 17a4 94bd d638 f8bd
00000060: 82a6 a03d 9a97 a0b9 2345 dc3d e346 a7bd
00000070: bcc1 b53d 1951 3b3d 7317 9a3d ca3a 6e3d
00000080: 4542 e2bd a323 bd3d bb28 fdbd d64b fcbb
00000090: 64e4 e8bd 752b 98bb 3a57 e8bd e82b a83d
000000a0: 9233 44bd 5fb5 dc3d 5611 4fbb 3829 da3b
000000b0: 2b32 68bd 4ed6 32bd 7aca 21bd 2d2e dfbd
000000c0: 507d 4fbd 3604 abbd d3bb e7bd ba78 e0bd
000000d0: c2a7 4fbc cdd8 973d 1c33 91bd 10a4 a3bd
000000e0: 6ff6 f8bd 7968 9ebb d29e a0bd 9ecb 00bd
000000f0: 3e68 603d 8f6d d3bb ffc1 093d 5081 fcbd
00000100: 1692 c1bd cde0 e0bd bc44 59bd d54b 60bd
00000110: a4d0 91bd 5106 9dba 1ff9 3dbd 854c 703d
00000120: b384 87bc 4e67 fa3d 9c37 d5bd 3c3c 63bc
00000130: 3253 bb3c 8864 e73d 5ac3 ecbd 6aa9 703d
00000140: 43ce 093d

res_depth.2.bias f4 [3]
0.1263324 -0.121529795 -0.108142994
00000000: 485d 013e 9de4 f8bd 137a ddbd

res_depth.4.weight f4 [6, 3, 1, 1]
-0.18890296 -0.1116426 -0.12620823 -0.077786565 0.27924493 0.28518948 0.14529306 -0.1478116
0.13729393 0.28289077 0.09003086 0.36965463 0.11251523 -0.30789965 0.032155495 -0.1371461
0.27449277 -0.3403884
00000000: c76f 41be e0a4 e4bd bb3c 01be 904e 9fbd
00000010: 31f9 8e3e 5b04 923e b4c7 143e ed5b 17be
00000020: c896 0c3e 0fd7 903e 1962 b83d 5f43 bd3e
00000030: 636e e63d 06a5 9dbe 7bb5 033d 0770 0cbe
00000040: 518a 8c3e 6347 aebe

res_depth.4.bias f4 [6]
-0.033651486 -0.11066651 -0.061615694 0.46447656 0.23549975 0.45534095
00000000: 24d6 09bd 20a5 e2bd bd60 7cbd dfcf ed3e
00000010: d926 713e 7322 e93e

pool1.weight f4 [8, 6, 4, 4, 4]
-0.05193126 -0.030646918 0.031832974 -0.019879857 0.036667857 0.04933972 -0.05241795 0.0041320915
0.051109806 0.033729643 0.010674165 -0.0005242253 -0.012390211 -0.013308354 0.00912433 -0.026088087
-0.05129846 -0.030981198 -0.046285015 0.0290648 0.010676362 -0.042876706 -0.051073767 -0.040098913
0.018269278 -0.028593102 -0.011751728 -0.01774516 0.010672435 -0.020869507 -0.025611453 0.019561991
0.036178887 0.026047619 0.034794748 0.033408187 -0.041150358 -0.008609916 0.0182197 -0.0024077212
0.0021913399 0.014859541 -0.007114576 0.03823099 -0.021086877 0.010143962 -0.03834068 0.03591493
-0.02042601 0.013615857 0.0064730165 -0.015203985 0.0055160504 0.027601361 0.015734417 -0.015340304
-0.024119237 0.0062591014 -0.010004849 -0.022552587 0.023919113 -0.033942517 0.036952 0.031968486
-0.039484724 0.031100538 0.023847315 0.03189937 -0.015976498 -0.033932738 -0.044743955 0.0040536784
0.049785957 0.008005337 0.045823723 0.031984296 0.017214457 -0.047117457 -0.00045416743 0.03483047
-0.0021725737 -0.042733967 -0.031793278 -0.029849032 0.04155588 -0.02173929 0.019999579 -0.04924574
-0.04839995 0.05197032 -0.033301678 -0.032846957 -0.022780042 0.012201839 -0.044678275 -0.03704296
0.047958374 0.052233223 -0.018860335 -0.005463937 0.031001365 -0.028959082 -0.026653435 -0.035080984
-0.0020024457 -0.0065540196 -0.03808484 0.007937 0.0111406995 -0.036068555 0.02499797 -0.025162207
0.033537887 -0.004202046 0.048903037 -0.015989412 -0.051552203 -0.016621564 -0.040698875 -0.040111847
-0.0015948989 -0.0029298165 0.013910298 -0.04767681 0.013176236 -0.022233188 -0.027573751 -0.003181139
-0.023605475 -0.004570941 -0.04622869 -0.045718823 -0.007208445 0.034618948 0.015549111 -0.010304354
-0.020007422 -0.051841695 0.010285268 0.0055662217 -0.04092826 -0.036380243 -0.032885946 0.012885438
0.01799318 -0.010431169 -0.038077135 0.01806087 -0.022193335 -0.022634171 0.027245343 0.041736566
-0.0009258761 0.025369598 0.043375842 -0.043688256 0.0113348 -0.037593376 0.049454357 0.015110803
-0.043640498 0.01959302 0.030715143 0.0024650295 0.035814352 -0.007323292 -0.03288592 -0.035867956
-0.015234119 0.0063592396 0.00782528 -0.0054429434 0.019985957 0.01095418 -0.034325715 -0.053408545
-0.0034321574 0.0017134525 0.003228691 0.0075924788 0.0034955672 0.0039864583 -0.009496223 -0.04792732
-0.044595372 -0.041803256 -0.008658452 -0.0101948455 0.030262649 0.015577519 -0.010058039 0.029751828
-0.023815995 0.018960662 0.020476619 -0.024125272 -0.006106465 -0.054411154 0.038324635 0.011415052
0.012052234 0.006241095 0.0018626325 0.024880111 -0.012753123 -0.037182413 0.024754332 0.013795581
0.034154534 0.046987884 0.03290176 -0.029604081 -0.00018064705 -0.012498001 -0.04241626 0.019890733
-0.020457672 0.029741835 0.0335004 0.0050760945 0.0018883739 0.03606222 -0.033484887 -0.021585252
0.0071468763 0.03380896 0.01302316 -0.022750793 0.0464313 0.036590587 -0.011090707 -0.047621924
0.0032191155 0.024228921 0.023890536 0.03562161 -0.05070545 -0.011714074 0.008544727 -0.042271152
-0.006192636 0.011684971 0.004929827 0.02167447 -0.022510171 0.0017305163 0.046440873 0.012314582
-0.017448004 -0.023784583 0.04901553 0.02136579 -0.047486432 0.011930027 -0.009613841 0.010850401
00000000: dfb5 54bd 3f0f fbbc 4b63 023d 15db a2bc
00000010: 0931 163d 7218 4a3d 34b4 56bd 7f66 873b
00000020: 8458 513d 1828 0a3d b1e2 2e3c 2a6c 09ba
00000030: 5000 4bbc 480b 5abc 377e 153c afb6 d5bc
00000040: 561e 52bd 48cc fdbc 5b95 3dbd 4e19 ee3c
00000050: e8eb 2e3c 7c9f 2fbd ba32 51bd c23e 24bd
00000060: 74a9 953c 153c eabc 528a 40bc 4c5e 91bc
00000070: 70db 2e3c 87f6 aabc 1ccf d1bc 7840 a03c
00000080: 5030 143d d161 d53c f084 0e3d 06d7 083d
00000090: 478d 28bd 9b10 0dbc 7b41 953c dcca 1dbb
000000a0: 959c 0f3b 6f75 733c 6421 e9bb 1998 1c3d
000000b0: 63be acbc dc32 263c 1e0b 1dbd 891b 133d
000000c0: 7354 a7bc 0b15 5f3c 991b d43b 231a 79bc
000000d0: fcbf b43b 401c e23c 77e5 803c e655 7bbc
000000e0: b595 c5bc 2619 cd3b 61eb 23bc 34c0 b8bc
000000f0: 04f2 c33c 4f07 0bbd fb5a 173d 63f1 023d
00000100: bcba 21bd 8ec6 fe3c 725b c33c eaa8 023d
00000110: 25e1 82bc 0efd 0abd 7045 37bd b8d4 843b
00000120: 5cec 4b3d d128 033c a8b1 3b3d f701 033d
00000130: 5505 8d3c 3cfe 40bd 521d eeb9 65aa 0e3d
00000140: bd61 0ebb d009 2fbd ab39 02bd f585 f4bc
00000150: 8036 2a3d 9816 b2bc 28d6 a33c e7b5 49bd
00000160: 073f 46bd d5de 543d 5767 08bd 888a 06bd
00000170: 369d babc 39ea 473c 9100 37bd 5cba 17bd
00000180: 0070 443d 81f2 553d fd80 9abc d30a b3bb
00000190: 93f6 fd3c 993b edbc 4e58 dabc 14b1 0fbd
000001a0: 773b 03bb 1ac3 d6bb d9fe 1bbd 310a 023c
000001b0: 7b87 363c 9fbc 13bd 8bc8 cc3c f920 cebc
000001c0: 065f 093d 51b1 89bb 8d4e 483d 3afc 82bc
000001d0: 6728 53bd f229 88bc ddb3 26bd 524c 24bd
000001e0: ed0b d1ba 2a02 40bb 05e8 633c c248 43bd
000001f0: 24e1 573c 6022 b6bc 59e2 e1bc a87a 50bb
00000200: 4560 c1bc d5c7 95bb 4b5a 3dbd a943 3bbd
00000210: d234 ecbb 99cc 0d3d b3c1 7e3c 98d3 28bc
00000220: 9be6 a3bc f557 54bd 8a83 283c da64 b63b
00000230: 64a4 27bd 7303 15bd 6ab3 06bd 721d 533c
00000240: 6f66 933c 7ee7 2abc c5f6 1bbd 64f4 933c
00000250: ccce b5bc 4c6b b9bc a031 df3c f6f3 2a3d
00000260: 7eb6 72ba e7d3 cf3c deaa 313d 75f2 32bd
00000270: 99b5 393c 83fb 19bd a790 4a3d 4d93 773c
00000280: 61c0 32bd 8b81 a03c 539e fb3c 558c 213b
00000290: 12b2 123d 3af8 efbb 63b3 06bd 47ea 12bd
000002a0: 8798 79bc 2b61 d03b 9a35 003c b85a b2bb
000002b0: 97b9 a33c 2979 333c 1f99 0cbd ebc2 5abd
000002c0: 0cee 60bb ed95 e03a 7298 533b 54ca f83b
000002d0: e315 653b d6a0 823b 0c96 1bbc 704f 44bd
000002e0: a3a9 36bd e439 2bbd 2edc 0dbc 4808 27bc
000002f0: 60e9 f73c da38 7f3c 79ca 24bc 1bba f33c
00000300: c319 c3bc 6453 9b3c 95be a73c 5da2 c5bc
00000310: be18 c8bb 3bde 5ebd 4bfa 1c3d 3306 3b3c
00000320: bc76 453c 1982 cc3b 9323 f43a 60d1 cb3c
00000330: 7af2 50bc 964c 18bd 99c9 ca3c dc06 623c
00000340: a0e5 0b3d 5e76 403d ffc3 063d 4284 f2bc
00000350: 136c 3db9 6ac4 4cbc acbc 2dbd e4f1 a23c
00000360: d996 a7bc 26a5 f33c b737 093d 5e55 a63b
00000370: 5083 f73a fab5 133d 7327 09bd 8ed3 b0bc
00000380: 5830 ea3b 447b 0a3d 185f 553c df5f babc
00000390: bf2e 3e3d 03e0 153d ccb5 35bc 350f 43bd
000003a0: ccf7 523b bb7b c63c 16b6 c33c f7e7 113d
000003b0: 85b0 4fbd 63ec 3fbc 2fff 0b3c 8424 2dbd
000003c0: 99eb cabb 5272 3f3c 638a a13b a88e b13c
000003d0: 4067 b8bc 7ed2 e23a c938 3e3d 1ac3 493c
000003e0: 1eef 8ebc e3d7 c2bc 82c4 483d 4f07 af3c
000003f0: 2281 42bd 2976 433c 5f83 1dbc e1c5 313c

pool1.bias f4 [8]
-0.085074395 -0.13476966 -0.061496433 -0.00027161458 0.04231534 0.018596936 0.012585794 -0.0012162677
00000000: 7c3b aebd 0f01 0abe afe3 7bbd 7e67 8eb9
00000010: da52 2d3d 9a58 983c a534 4e3c 2c6b 9fba

reduction2_1.weight f4 [16, 8, 1, 1, 1]
0.0947595 0.025625616 0.25710914 0.3026396 0.30381173 -0.022326652 -0.041174285 0.33874276
0.19066632 -0.31300455 0.036159016 -0.14771439 0.04074272 -0.1518273 -0.24444817 0.04871327
-0.11896166 0.13649179 0.16813782 0.19643678 0.20144819 -0.0001640068 0.15758292 -0.08517072
0.06838244 -0.15409607 0.26241213 0.22033913 -0.05920918 -0.14122997 0.25579125 0.09374675
-0.26528412 0.03425931 -0.15546055 -0.19404808 0.13330905 -0.035725567 -0.14345035 -0.22441633
-0.10513899 -0.3360965 0.01824264 0.08164591 -0.035941288 -0.27000025 -0.099052295 0.110365234
0.2790559 0.20775573 -0.0035386002 -0.22728057 0.2608922 -0.17577024 -0.31567886 0.30101526
0.29832032 -0.19139498 0.17778002 -0.15237236 0.039419904 -0.07307183 0.14287706 -0.045588892
-0.13780193 -0.17483892 0.02671617 -0.2815048 0.07533855 0.36290964 0.057107862 0.14471194
-0.038200084 -0.062005702 0.07008554 0.23975317 0.16202815 0.16822097 0.18974632 -0.18035822
0.25042155 0.12163069 0.28346765 0.3327501 0.011618661 -0.2444684 -0.091897875 -0.06032525
0.04948181 -0.31997284 -0.27619338 0.0086106425 0.017704237 -0.032930728 0.034157045 -0.08315539
0.24007398 -0.006550129 -0.13078658 0.15441455 -0.1382935 -0.061944965 -0.024158375 -0.12251952
0.13790782 0.20683151 -0.2668685 0.24801582 -0.14678724 -0.08789241 -0.31417558 0.033306792
-0.14891127 0.13915761 -0.03500903 0.2866099 -0.26418346 0.4654991 0.3671829 -0.14050616
-0.11441424 -0.17831013 0.2601401 0.10648436 0.30036056 0.24363865 0.32396913 0.44655058
00000000: 4511 c23d d0ec d13c cfa3 833e 94f3 9a3e
00000010: 368d 9b3e 62e6 b6bc 5ea6 28bd b16f ad3e
00000020: 083e 433e 2242 a0be 7a1b 143d 7142 17be
00000030: d7e1 263d 9e78 1bbe 9f50 7abe 9187 473d
00000040: 2ca2 f3bd 81c4 0b3e 522c 2c3e b926 493e
00000050: 6f48 4e3e 3df9 2bb9 6b5d 213e fd6d aebd
00000060: 180c 8c3d 5ccb 1dbe e25a 863e 95a0 613e
00000070: 5385 72bd 979e 10be 12f7 823e 4cfe bf3d
00000080: 52d3 87be 7e53 0c3d 0d31 1fbe 8ab4 46be
00000090: 2b82 083e f954 12bd a6e4 12be 65cd 65be
000000a0: 1c53 d7bd d714 acbe 9771 953c f935 a73d
000000b0: 2c37 13bd 793d 8abe eedb cabd 2b07 e23d
000000c0: 6ae0 8e3e ebbd 543e dce7 67bb 3dbc 68be
000000d0: aa93 853e 1dfd 33be a9a0 a1be ac1e 9a3e
000000e0: 71bd 983e 0cfd 43be f70b 363e 8007 1cbe
000000f0: c476 213d afa6 95bd 5d4e 123e 6bbb 3abd
00000100: f31b 0dbe f908 33be dfdb da3c 6621 90be
00000110: 194b 9a3d 4bcf b93e efe9 693d 5e2f 143e
00000120: b177 1cbd b1f9 7dbd 0289 8f3d db81 753e
00000130: b5ea 253e 1e42 2c3e dc4c 423e d3af 38be
00000140: 4137 803e 8319 f93d ac22 913e 395e aa3e
00000150: 325c 3e3c ed55 7abe f434 bcbd 9c17 77bd
00000160: 70ad 4a3d 7bd3 a3be 3869 8dbe a713 0d3c
00000170: 7a08 913c 5fe2 06bd 42e8 0b3d 604d aabd
00000180: f4d5 753e 77a2 d6bb ebec 05be d91e 1e3e
00000190: d09c 0dbe 01ba 7dbd c9e7 c5bc 84eb fabd
000001a0: b537 0d3e a4cb 533e fda2 88be dcf7 7d3e
000001b0: 654f 16be f000 b4bd 9fdb a0be b46c 083d
000001c0: 327c 18be 557f 0e3e a165 0fbd 88be 923e
000001d0: 0e43 87be e655 ee3e 66ff bb3e d9e0 0fbe
000001e0: 0352 eabd ee96 36be 1531 853e 7914 da3d
000001f0: dcc8 993e 697c 793e 48df a53e 47a2 e43e

conv2_1.0.weight f4 [8, 8, 1, 1, 1]
-0.05877615 0.16276759 0.096309766 0.22785032 0.35954633 0.4856852 -0.24125251 -0.30233482
0.07438939 -0.22274269 -0.0051261755 -0.2392023 -0.36707643 0.4033192 -0.30981448 -0.3488291
0.08348891 -0.08853738 0.18984151 0.40157834 0.18297754 0.61898893 0.049364503 0.2970082
0.39095727 0.18367764 0.33873525 -0.35240495 0.16721846 -0.13802 0.0662873 -0.3386192
0.32386073 -0.02806345 0.078558 0.15575767 -0.15966399 0.31590706 -0.1605813 0.4038419
-0.3667127 -0.34495088 0.05010851 0.08203769 -0.349019 0.45041412 0.3782987 0.013502799
0.12190892 0.02788585 -0.2420891 -0.13214087 0.2408131 -0.11871411 0.12256429 -0.070705175
0.13731508 -0.19008435 -0.33409873 -0.09684221 0.07070801 -0.108390644 -0.23717637 -0.071485825
00000000: 43bf 70bd 8cac 263e 0e3e c53d 9851 693e
00000010: 7516 b83e bbab f83e e60a 77be a1cb 9abe
00000020: 7759 983d a916 64be 7af9 a7bb 73f1 74be
00000030: 71f1 bbbe db7f ce3e 01a0 9ebe ba99 b2be
00000040: 3cfc aa3d 1653 b5bd d065 423e ad9b cd3e
00000050: 775e 3b3e 0f76 1e3f 6f32 4a3d 7511 983e
00000060: 8d2b c83e fe15 3c3e b56e ad3e 6c6e b4be
00000070: 513b 2b3e 1d55 0dbe a3c1 873d 7f5f adbe
00000080: 13d1 a53e 52e5 e5bc 04e3 a03d f07e 1f3e
00000090: f57e 23be 92be a13e 6d6f 24be 5ec4 ce3e
000000a0: c4c1 bbbe 679d b0be 953e 4d3d 6003 a83d
000000b0: 9eb2 b2be ae9c e63e 5eb0 c13e d83a 5d3c
000000c0: 62ab f93d de70 e43c 34e6 77be f04f 07be
000000d0: b697 763e 6220 f3bd fd02 fb3d e0cd 90bd
000000e0: 539c 0c3e 79a5 42be fd0e abbe 3555 c6bd
000000f0: 5ccf 903d eafb ddbd 5dde 72be 2967 92bd

conv2_1.0.bias f4 [8]
0.10021589 -0.15943135 0.0104347905 -0.23036355 -0.0036436452 -0.0095777605 -0.12884507 0.14715305
00000000: fd3d cd3d f941 23be aff6 2a3c 6ce4 6bbe
00000010: 39ca 6ebb 0aec 1cbc f6ef 03be 4aaf 163e

conv2_1.2.weight f4 [8, 4, 3, 3, 3]
-0.069216706 0.03094107 0.02169271 0.0009478078 0.017302617 0.004815925 0.026883403 0.06250089
0.035770718 -0.008120878 0.08323302 -0.023393968 0.05861762 -0.022265635 -0.0067200917 -0.024596296
-0.05187814 0.040588606 -0.018047383 -0.05145848 0.07968451 0.076373965 -0.008354991 -0.08070026
-0.032853454 -0.035289522 -0.017778454 -0.08599426 -0.0023805208 -0.07099584 0.026677595 0.060227867
-0.008904693 0.059553992 0.027766578 -0.016579194 -0.08930255 -0.053830806 0.045446914 -0.08099841
0.039793704 -0.02826788 -0.0875937 -0.008635795 -0.054454528 0.07454047 -0.056242082 0.010979669
-0.05343674 -0.04565209 -0.07208849 -0.038686324 0.061629564 0.058552444 0.010220204 -0.031499553
-0.0301453 0.0047267694 -0.045809764 -0.05176887 -0.062399726 -0.048527684 -0.1059748 -0.043509495
-0.015558046 0.019032702 0.034067564 0.060059234 -0.069028795 0.016186064 0.032933347 -0.012232259
-0.014317855 -0.03238704 -0.068587966 -0.09349484 -0.07684508 -0.022358818 -0.06391769 0.008397033
-0.044272143 -0.050952274 0.051369026 0.067726 -0.032376077 0.082639344 0.0075104763 -0.063429564
-0.053771924 0.060895793 0.07805849 0.015866289 0.0023299803 0.04497502 0.01992756 -0.06361706
0.06719292 -0.06579586 -0.049741983 -0.072463475 -0.030986058 0.022370093 -0.034738667 -0.034456182
-0.07196477 0.055171624 0.061543975 0.005511968 -0.13978416 -0.12091064 -0.113405906 0.003515821
-0.021604063 0.1317747 0.106148936 0.10186514 0.19530217 -0.12563233 -0.18061662 -0.120561466
0.050650854 0.059466373 0.12715842 0.030011501 0.0843746 0.093996204 -0.22141604 -0.18160658
-0.06973987 -0.07213998 -0.05936002 0.09144281 0.0051930007 0.115355566 0.10133276 -0.13576604
0.023401352 -0.11286048 0.06316662 0.026212595 0.08515824 -0.06997458 0.03171298 -0.11155702
0.027801001 -0.10772677 0.054929174 -0.036996886 0.06879894 -0.046107523 -0.08813337 -0.033703204
-0.087228864 -0.12525214 -0.01719935 0.003397234 -0.045459367 -0.018429782 0.08784348 -0.045069043
-0.13629991 0.0059963507 -0.17646892 -0.16990736 -0.16888912 -0.05653257 -0.0011506055 0.07441101
0.08961967 0.18664616 0.25409395 -0.1839252 -0.16342318 -0.047138546 -0.019989474 0.059997916
0.06757219 0.035155553 0.15657341 0.14569855 -0.06890934 -0.18298914 -0.07714685 -0.09669159
-0.13841304 -0.057946853 0.17365852 0.16281512 0.24646966 -0.048037414 0.020819057 0.005796689
-0.03191555 -0.05957601 -0.03335293 0.02430309 -0.06342884 -0.021415526 0.008936869 0.06656345
0.05021518 -0.010500786 0.005466149 -0.019776085 -0.032644857 -0.053514026 -0.008348739 0.083587185
0.012674601 -0.03679813 -0.04564052 0.053898413 -0.06829239 -0.06836607 0.05819509 -0.05644942
-0.05503228 0.001366702 0.04149452 0.013786271 -0.04181151 -0.1033479 -0.03551098 0.030243998
-0.005037598 0.003909648 0.12627736 -0.03488478 -0.07794193 0.0062262467 0.03424958 0.016373964
0.11819784 0.07671831 -0.07639909 -0.07203959 -0.063513465 0.05242928 0.069533326 -0.10253496
-0.02246977 0.048096146 0.020250253 -0.036266297 0.037762463 0.032839127 0.058777314 0.04272026
-0.03783308 -0.07495066 -0.050426677 -0.045526773 -0.013055354 0.0034224316 0.067831 -0.040850434
00000000: 7dc1 8dbd 2078 fd3c e9b4 b13c 4e76 783a
00000010: 38be 8d3c e8ce 9d3b 953a dc3c 7700 803d
00000020: 5184 123d 6e0d 05bc 1376 aa3d b5a4 bfbc
00000030: 0819 703d 6c66 b6bc 3734 dcbb 2c7e c9bc
00000040: 2c7e 54bd 3d40 263d 1bd8 93bc 21c6 52bd
00000050: a231 a33d f469 9c3d 5fe3 08bc 2e46 a5bd
00000060: 5891 06bd bf8b 10bd 1fa4 91bc c21d b0bd
00000070: 8302 1cbb 4466 91bd f98a da3c 7fb1 763d
00000080: fde4 11bc e3ee 733d bc76 e33c 17d1 87bc
00000090: 41e4 b6bd b17d 5cbd 8b26 3a3d 7fe2 a5bd
000000a0: b9fe 223d 0b92 e7bc 5364 b3bd 267d 0dbc
000000b0: b60b 5fbd ada8 983d 195e 66bd 12e4 333c
000000c0: 7ce0 5abd b0fd 3abd 21a3 93bd 8d75 1ebd
000000d0: 486f 7c3d b0d4 6f3d a472 273c ad05 01bd
000000e0: 47f3 f6bc 04e3 9a3b 05a3 3bbd 980b 54bd
000000f0: db96 7fbd f7c4 46bd 5109 d9bd 0337 32bd
00000100: 2de7 7ebc 78ea 9b3c 6e8a 0b3d ac00 763d
00000110: f85e 8dbd a398 843c 1ee5 063d d069 48bc
00000120: 7095 6abc 46a8 04bd d977 8cbd 397a bfbd
00000130: f460 9dbd d729 b7bc 47e7 82bd b693 093c
00000140: b556 35bd 55b3 50bd 5468 523d eeb3 8a3d
00000150: c79c 04bd d13e a93d 711a f63b 5ce7 81bd
00000160: f33f 5cbd de6d 793d 21dd 9f3d 05fa 813c
00000170: 95b2 183b ba37 383d 1f3f a33c a949 82bd
00000180: 719c 893d fbbf 86bd 40be 4bbd bb67 94bd
00000190: 79d6 fdbc 7c41 b73c 224a 0ebd ed21 0dbd
000001a0: 4462 93bd a4fb 613d 8915 7c3d bd9d b43b
000001b0: 9423 0fbe ff9f f7bd 5b41 e8bd b069 663b
000001c0: 01fb b0bc f2ef 063e 9d64 d93d ac9e d03d
000001d0: 4bfd 473e c3a5 00be 90f3 38be eee8 f6bd
000001e0: 4577 4f3d 0393 733d d135 023e aeda f53c
000001f0: 97cc ac3d 1581 c03d e3ba 62be 13f7 39be
00000200: c7d3 8ebd 20be 93bd 7e23 73bd 5e46 bb3d
00000210: 0c2a aa3b 8a3f ec3d 8d87 cf3d 4106 0bbe
00000220: 31b4 bf3c 6523 e7bd 805d 813d ccbb d63c
00000230: 7167 ae3d d54e 8fbd 78e5 013d 0278 e4bd
00000240: edbe e33c da9f dcbd 6afd 603d 0c8a 17bd
00000250: 75e6 8c3d 3edb 3cbd 457f b4bd 5f0c 0abd
00000260: 0ca5 b2bd 1942 00be a7e5 8cbc 21a4 5e3b
00000270: 9a33 3abd 0efa 96bc 48e7 b33d 519a 38bd
00000280: 3492 0bbe 097d c43b 45b4 34be 32fc 2dbe
00000290: 45f1 2cbe b28e 67bd eacf 96ba cd64 983d
000002a0: 848a b73d 2c20 3f3e 9a18 823e e356 3cbe
000002b0: 6858 27be 5914 41bd f7c0 a3bc 60c0 753d
000002c0: 4a63 8a3d 45ff 0f3d c854 203e 0032 153e
000002d0: 5720 8dbd 8161 3bbe 2bff 9dbd 3e06 c6bd
000002e0: 26bc 0dbe ae59 6dbd 8ad3 313e 02b9 263e
000002f0: 8b62 7c3e e1c2 44bd ba8c aa3c 27f2 bd3b
00000300: e1b9 02bd f905 74bd 159d 08bd 4617 c73c
00000310: fbe6 81bd 9d6f afbc f26b 123c 6b52 883d
00000320: 6fae 4d3d 7d0b 2cbc 621d b33b 7501 a2bc
00000330: 9db6 05bd 8631 5bbd 26c9 08bc c22f ab3d
00000340: 21a9 4f3c a3b9 16bd 8ef1 3abd 95c4 5c3d
00000350: e1dc 8bbd 8303 8cbd fa5d 6e3d 8237 67bd
00000360: 8769 61bd e922 b33a 28f6 293d d0df 613c
00000370: 8c42 2bbd 10a8 d3bd f673 11bd 43c2 f73c
00000380: 6f12 a5bb 811c 803b da4e 013e 58e3 0ebd
00000390: 05a0 9fbd 8b05 cc3b 4a49 0c3d b122 863c
000003a0: b611 f23d 7d1e 9d3d 2077 9cbd 7e89 93bd
000003b0: 5913 82bd 16c0 563d 7d67 8e3d d9fd d1bd
000003c0: 8612 b8bc 7700 453d dce3 a53c f88b 14bd
000003d0: d0ac 1a3d 5282 063d 7bc0 703d 70fb 2e3d
000003e0: dcf6 1abd bb7f 99bd 348c 4ebd 487a 3abd
000003f0: 20e6 55bc e04a 603b fbea 8a3d c952 27bd

conv2_1.2.bias f4 [8]
0.14834628 -0.007089261 -0.017802596 -0.10985358 -0.104516335 0.05349277 -0.09830611 0.15510717
00000000: 16e8 173e 084d e8bb c0d6 91bc eafa e0bd
00000010: a90c d6bd 3c1b 5b3d b754 c9bd 6ad4 1e3e

conv2_1.4.weight f4 [16, 8, 1, 1, 1]
0.010516318 0.21295334 -0.2647676 -0.20868692 -0.13600864 0.18418838 -0.17327438 0.21470934
0.27227122 -0.408411 -0.13400565 -0.2815944 0.25010356 -0.089621976 0.09430332 0.09195684
0.23858102 -0.27185896 -0.2570368 0.17469054 -0.06987271 -0.026053485 -0.06836053 -0.09473813
0.03910069 -0.16726692 0.0910292 -0.04589197 -0.08366541 -0.08298882 -0.03444581 -0.00082061044
-0.07722415 0.05826489 -0.2980224 -0.28392383 0.2735755 0.1283766 0.07314181 -0.035770636
-0.034283783 -0.2222848 -0.0103815785 0.15748037 -0.1868802 0.16917758 0.2701534 -0.32326677
0.31462246 -0.30079138 -0.00041909266 0.03601798 -0.1870743 0.2777811 -0.027409207 0.16331181
0.06626484 -0.26127192 0.20890012 -0.13509245 0.29036865 0.070609964 0.25174728 0.32956013
-0.00063098856 0.48402414 0.17901179 0.18423577 0.08153904 0.105002694 -0.051790558 -0.11067117
0.12940696 0.12672935 -0.08050288 0.02946242 -0.12911631 0.13925251 -0.31903636 -0.24556062
-0.22647367 -0.046388827 0.22710882 0.14202836 0.06827958 0.10314734 -0.116600476 0.3453547
-0.18276174 0.22227815 0.22160307 0.22912897 0.0783342 -0.2482526 -0.3060886 0.36985064
-0.2474228 -0.12527177 0.03497486 -0.16464405 0.15783222 0.054062586 -0.21978506 -0.2230877
-0.17133388 0.34728432 0.2026927 0.28565174 0.16234538 -0.007988461 0.21673764 -0.2642149
-0.19296978 -0.21334645 -0.29429755 -0.30850223 0.12884821 0.0283859 -0.23194869 -0.024659717
-0.009085418 0.33597204 0.088024445 0.15665834 -0.23895805 0.2776798 0.08862467 0.14512666
00000000: a24c 2c3c 7110 5a3e 9e8f 87be 06b2 55be
00000010: d945 0bbe e19b 3c3e d76e 31be c4dc 5b3e
00000020: 2267 8b3e 3f1b d1be c738 09be 242d 90be
00000030: 930d 803e ba8b b7bd 1922 c13d de53 bc3d
00000040: 954e 743e 1931 8bbe 549a 83be 14e2 323e
00000050: 6c19 8fbd 1e6e d5bc 9b00 8cbd 1106 c2bd
00000060: 0c28 203d 0548 2bbe 846d ba3d 38f9 3bbd
00000070: c558 abbd 0bf6 a9bd 0d17 0dbd 3c1e 57ba
00000080: b227 9ebd 2aa7 6e3d 6496 98be 775e 91be
00000090: 1712 8c3e 2875 033e 60cb 953d 3b84 12bd
000000a0: 276d 0cbd a09e 63be 7f17 2abc 8942 213e
000000b0: 865d 3fbe e33c 2d3e 8c51 8a3e 3983 a5be
000000c0: 3216 a13e 5401 9abe aab9 dbb9 9787 133d
000000d0: 6890 3fbe 5339 8e3e 4689 e0bc 363b 273e
000000e0: dcb5 873d 6fc5 85be eae9 553e ad55 0abe
000000f0: 33ab 943e f59b 903d 05e5 803e 1bbc a83e
00000100: ed68 25ba 03d2 f73e de4e 373e 4da8 3c3e
00000110: f1fd a63d a70b d73d 5622 54bd 91a7 e2bd
00000120: 4283 043e 57c5 013e b2de a4bd 2c5b f13c
00000130: 1137 04be 3698 0e3e bc58 a3be 3e74 7bbe
00000140: b7e8 67be 3602 3ebd 378f 683e e26f 113e
00000150: 2ad6 8b3d ea3e d33d 3bcc eebd 55d2 b03e
00000160: e525 3bbe e29c 633e eaeb 623e c9a0 6a3e
00000170: ae6d a03d ee35 7ebe a5b7 9cbe 105d bd3e
00000180: 675c 7dbe 3e47 00be cc41 0f3d 7398 28be
00000190: c59e 213e bb70 5d3d 560f 61be 1a71 64be
000001a0: 2672 2fbe 40cf b13e ad8e 4f3e f240 923e
000001b0: de3d 263e 09e2 02bc 79f0 5d3e 2d47 87be
000001c0: df99 45be 7e77 5abe 2bae 96be 01f4 9dbe
000001d0: c9f0 033e 8c89 e83c f583 6dbe 2d03 cabc
000001e0: 01db 14bc 8704 ac3e 2946 b43d 0b6b 203e
000001f0: 6bb1 74be 0c2c 8e3e da80 b53d 159c 143e

conv2_1.4.bias f4 [16]
-0.026171526 0.30903497 -0.059381876 0.21330403 -0.01864273 0.33195943 0.053892147 -0.031952605
0.10573136 -0.14164957 0.019927962 0.0036970947 -0.07676722 0.19978614 0.0027277796 -0.048811357
00000000: ab65 d6bc d539 9e3e 693a 73bd 5f6c 5a3e
00000010: a3b8 98bc 96f6 a93e 03be 5c3d bce0 02bd
00000020: af89 d83d 960c 11be f73f a33c f54a 723b
00000030: 2238 9dbd bd94 4c3e 8cc4 323b 6bee 47bd

pool2.weight f4 [8, 1, 7, 7, 7]
0.026613938 0.012309628 -0.010948974 -0.021607295 0.014141573 0.029220982 0.022149619 -0.019896485
0.032111466 -0.018529866 -0.014606856 -0.033525754 -0.018802354 0.001499553 -0.008490552 -0.010708695
0.019353656 0.038727675 0.014759939 -0.025633223 0.0125447605 -0.0124234315 0.03759187 -0.005995437
0.020643454 -0.03433992 0.022438275 0.011140412 0.024185883 -0.031023065 0.021251338 0.03516171
-0.012605394 -0.004225397 -0.012970422 -0.00026346027 0.026137864 -0.024584584 0.013342079 0.022661036
0.02381613 -0.042392474 -0.0026771463 -0.0057535297 -0.009625728 -0.016978502 -0.0030573164 -0.01378418
0.018503077 -0.0012595692 0.008133707 -0.0017187353 -0.004065802 -0.016020324 -0.02201357 0.023234006
0.021037247 0.0020890618 -0.023843553 0.04144676 -0.041644584 -0.01068073 -0.016413255 0.006688874
0.039661013 -0.042871 0.025432456 -0.009439824 -0.016557986 0.04223595 -0.012988932 -0.041587315
-0.010135615 -0.043298356 0.002911186 -0.039560087 -0.043963667 -0.0121036945 -0.016295388 0.03662137
0.0010190704 -0.024455436 0.03165732 0.016697042 0.034807514 0.007391703 0.0053900615 -0.019383077
0.038228884 0.03036447 0.023607312 0.037297275 0.032904204 -0.0064455844 -0.009330577 0.03228906
0.0021694505 0.036302958 -0.016156653 -0.025747936 -0.019682327 -0.006091508 -0.00022553628 0.020011675
-0.04094499 0.010690706 -0.013706992 0.01465372 -0.01991244 0.0026774984 0.02792248 -0.005094511
-0.025229545 -0.029118208 0.026084268 -0.009197591 -0.0050809993 -0.008657521 0.03860366 0.025151027
-0.006899553 -0.013069689 -0.020190848 -0.02681469 -0.013624296 -0.02249024 0.005896454 -0.012486162
0.016657107 0.039362945 0.022411304 0.0075071407 0.00027895885 0.031092174 -0.03635709 0.032969967
0.035725232 0.007950551 -0.027382609 -0.023158887 0.019052386 0.012164354 0.010767752 -0.03652084
0.0054320428 -0.011369474 0.015023416 0.0010997902 0.021559553 -0.03330243 0.041329186 -0.028375627
0.02917438 0.038885012 -0.008543197 -0.0037200663 -0.040395573 0.019073399 -0.01268357 -0.03262207
0.036804754 -0.017697161 -0.0374397 0.022881806 -0.016320452 0.035637144 -0.029359585 0.038016755
0.021728214 0.037762817 0.0034797303 0.037790414 -0.040361036 0.04063893 0.011769 -0.01711863
-0.042697422 0.016896337 -0.039890807 -0.02602835 0.020698244 -0.007435287 -0.041481625 0.02542031
-0.0022267832 0.005811451 -0.005266015 -0.040269274 -0.021219393 0.03304133 -0.01822651 0.04126001
-0.025044098 -0.023786437 -0.02625035 0.0034544303 -0.019542115 -0.014314585 0.035537347 -0.04052648
0.016647361 -0.0051160115 0.0042966413 0.033949494 0.017250871 -0.026546778 0.04373368 -0.008643331
-0.04331014 0.030389009 -0.024597691 -2.0191788e-05 0.006865886 -0.0190869 -0.022622008 0.012983504
0.011645669 0.007532667 0.0028020546 -0.02174079 -0.031616792 0.042764645 -0.013370921 -0.04379169
0.028732894 -0.011621142 -0.026439743 -0.006277707 0.006066329 -0.04360529 0.044033144 0.030964475
0.03559355 -0.0022060764 -0.022722915 -0.0064040394 0.043798275 0.029530747 -0.019771213 -0.02052901
-0.018042466 -0.0030956764 -0.01850992 -0.01858835 -0.0030419913 0.03393208 0.01965351 -0.007677704
-0.040212803 0.020955477 -0.030357271 -0.03063375 -0.03789332 0.013817453 0.004060778 0.017765215
00000000: 7905 da3c 52ae 493c 5363 33bc c801 b1bc
00000010: 0eb2 673c d760 ef3c 1e73 b53c f4fd a2bc
00000020: 5087 033d f2cb 97bc 9851 6fbc 4d52 09bd
00000030: 6507 9abc a68c c43a f51b 0bbc 8673 2fbc
00000040: 8f8b 9e3c e9a0 1e3d acd3 713c c4fc d1bc
00000050: 8a88 4d3c a68b 4bbc eff9 193d 5f75 c4bb
00000060: 761c a93c 04a8 0cbd 79d0 b73c 4686 363c
00000070: 7921 c63c 1524 febc 4917 ae3c ba05 103d
00000080: db86 4ebc 3375 8abb e581 54bc 0a21 8ab9
00000090: 131f d63c 9c65 c9bc bc98 5a3c a3a3 b93c
000000a0: 0b1a c33c bba3 2dbd 1073 2fbb 1b88 bcbb
000000b0: 3bb5 1dbc 8016 8bbc 425d 48bb 0bd7 61bc
000000c0: c493 973c 2118 a5ba 3d43 053c 3047 e1ba
000000d0: 6b3a 85bb 0e3d 83bc cd55 b4bc 3e55 be3c
000000e0: 4e56 ac3c a4e8 083b 8e53 c3bc 14c4 293d
000000f0: 8393 2abd 3bfe 2ebc 1775 86bc 582e db3b
00000100: 9673 223d 8099 2fbd ba57 d03c 7ea9 1abc
00000110: 9da4 87bc 9aff 2c3d 88cf 54bc 7657 2abd
00000120: da0f 26bc 9e59 31bd 99c9 3e3b c209 22bd
00000130: 3f13 34bd 934e 46bc e87d 85bc 4a00 163d
00000140: 5492 853a c456 c8bc 1bab 013d 3cc8 883c
00000150: 5392 0e3d 1936 f23b 1d9f b03b 42c9 9ebc
00000160: e495 1c3d e9be f83c 1f64 c13c 07c5 183d
00000170: 8fc6 063d 7b35 d3bb 47df 18bc 8941 043d
00000180: 572d 0e3b 69b2 143d f55a 84bc 56ed d2bc
00000190: d53c a1bc 469b c7bb ef7d 6cb9 86ef a33c
000001a0: efb5 27bd 1228 2f3c 4b93 60bc 2816 703c
000001b0: 6a1f a3bc f878 2f3b afbd e43c dbef a6bb
000001c0: 31ae cebc 4f89 eebc adae d53c 7eb1 16bc
000001d0: 837e a6bb 46d8 0dbc df1e 1e3d 8709 ce3c
000001e0: a515 e2bb 4022 56bc 4767 a5bc 7baa dbbc
000001f0: 7038 5fbc 743d b8bc 0b37 c13b c292 4cbc
00000200: 7c74 883c 0a3b 213d e997 b73c 76fe f53b
00000210: 3941 9239 04b5 fe3c 2ceb 14bd 840b 073d
00000220: 9f54 123d 0743 023c 7e51 e0bc b5b7 bdbc
00000230: c013 9c3c 004d 473c 3a6b 303c e096 15bd
00000240: 47ff b13b 0847 3abc c624 763c d626 903a
00000250: a99d b03c 2168 08bd cb48 293d 0174 e8bc
00000260: 1cff ee3c e445 1f3d c4f8 0bbc 5bcc 73bb
00000270: d475 25bd d13f 9c3c c0ce 4fbc b89e 05bd
00000280: 95c0 163d a3f9 90bc 5f5a 19bd a072 bb3c
00000290: 78b2 85bc 41f8 113d 8383 f0bc 75b7 1b3d
000002a0: 5eff b13c 2fad 1a3d 300c 643b 1fca 1a3d
000002b0: 9d51 25bd 0275 263d c4d2 403c 5f3c 8cbc
000002c0: 7ee3 2ebd 306a 8a3c 8b64 23bd 6839 d5bc
000002d0: 5d8f a93c b5a3 f3bb a3e8 29bd 413e d03c
000002e0: 39ef 11bb fc6d be3b 898e acbb 65f1 24bd
000002f0: 4bd4 adbc 5856 073d c34f 95bc 4200 293d
00000300: 4829 cdbc c6db c2bc f90a d7bc b963 623b
00000310: c916 a0bc b987 6abc 9c8f 113d 18ff 25bd
00000320: 0c60 883c 37a4 a7bb d7ca 8c3b a00e 0b3d
00000330: b351 8d3c a178 d9bc 1622 333d c29c 0dbc
00000340: f965 31bd 5ff2 f83c 1981 c9bc 8961 a9b7
00000350: 3afb e03b 215c 9cbc ca51 b9bc c3b8 543c
00000360: 7acd 3e3c 97d4 f63b ada2 373b be19 b2bc
00000370: 9c80 01bd fb29 2f3d b511 5bbc ea5e 33bd
00000380: 3f61 eb3c 9a66 3ebc 2998 d8bc 39b5 cdbb
00000390: 0ec8 c63b 769b 32bd 195c 343d 36a9 fd3c
000003a0: 8bca 113d d293 10bb 6825 babc fad8 d1bb
000003b0: d265 333d 77ea f13c 3df7 a1bc 742c a8bc
000003c0: cbcd 93bc d5e0 4abb 1ea2 97bc 9846 98bc
000003d0: 255c 47bb 5dfc 0a3d 6600 a13c 4095 fbbb
000003e0: 2eb6 24bd d2aa ab3c d0af f8bc a1f3 fabc
000003f0: 0736 1bbd 9962 623c 4610 853b 5b88 913c

pool2.bias f4 [8]
0.008527574 0.015285262 0.018959709 0.036512148 0.017874746 -0.05098313 -0.023297874 0.025832767
00000000: 3db7 0b3c 096f 7a3c 6451 9b3c c38d 153d
00000010: 0f6e 923c b0d3 50bd 2fdb bebc 3d9f d33c

reduction2_2.weight f4 [16, 8, 1, 1, 1]
0.47846144 -0.29079366 0.33399427 -0.05224061 -0.2936334 -0.40970516 -0.2457918 0.44494826
0.3444361 0.30880046 0.38494325 -0.06683457 0.3462063 -0.36416447 0.49070168 -0.2768746
0.21936232 0.1855231 -0.1538868 0.47150356 -0.0043525696 -0.34623444 -0.4112202 0.434523
-0.3825993 -0.11971557 -0.08359057 -0.1651839 0.26791596 0.139664 -0.045871794 0.23451751
0.23418212 -0.47924268 0.21910071 -0.018727362 0.09685612 -0.057245374 0.38028914 0.091662645
0.4056754 0.41475934 -0.27766424 -0.13162231 0.13884425 0.25789964 -0.25440842 -0.27573395
-0.49887288 -0.014008999 -0.27549756 0.2182033 -0.39763594 -0.30935228 -0.27846074 -0.3540296
-0.035768747 -0.23743802 -0.03665167 0.4520471 0.4744569 0.13459283 0.2896405 0.32811117
0.017606199 0.12258452 0.22198147 -0.2621441 0.11253369 0.34430206 0.46495932 -0.48653913
0.28316766 0.46188742 -0.47563785 0.115980506 0.30611026 0.17707497 -0.48678923 0.09422624
-0.25402915 -0.42962474 -0.09037876 -0.3898517 0.07811695 0.122514784 -0.3783095 0.19490683
-0.28932452 -0.012249589 -0.23885441 -0.19176328 -0.40582085 0.3160051 -0.39817917 -0.37117362
0.22603834 -0.22031736 -0.23138404 0.04183525 0.107233405 0.42247617 -0.29901928 -0.07184476
-0.038084745 -0.36317247 0.054285526 -0.098727286 0.17646253 0.30547708 0.37829787 0.42956442
0.0022576451 0.47451264 -0.44087446 0.24927115 0.26337755 0.2665496 -0.015500307 -0.18703794
-0.20932496 -0.21197397 -0.17597735 0.22143537 0.335715 0.38329303 0.42896163 -0.12544054
00000000: e6f8 f43e e8e2 94be 4c01 ab3e 40fa 55bd
00000010: 1e57 96be e0c4 d1be d8b0 7bbe 42d0 e33e
00000020: ee59 b03e 181b 9e3e 4817 c53e 90e0 88bd
00000030: f441 b13e c473 babe 403d fb3e 82c2 8dbe
00000040: 84a0 603e c4f9 3d3e 8094 1dbe ea68 f13e
00000050: 00a0 8ebb a445 b1be 748b d2be cc79 de3e
00000060: 0ee4 c3be 702d f5bd 8831 abbd f825 29be
00000070: 482c 893e 1404 0f3e 10e4 3bbd 5c25 703e
00000080: 70cd 6f3e 4c5f f5be f05b 603e 206a 99bc
00000090: 805c c63d 207a 6abd 42b5 c23e a0b9 bb3d
000000a0: b0b4 cf3e 565b d43e 022a 8ebe 00c8 06be
000000b0: 302d 0e3e 6c0b 843e d241 82be 002d 8dbe
000000c0: 446c ffbe 0086 65bc 040e 8dbe b070 5f3e
000000d0: f096 cbbe 6c63 9ebe 6892 8ebe 5e43 b5be
000000e0: 4082 12bd f422 73be 1020 16bd b872 e73e
000000f0: 04ec f23e b4d2 093e c24b 943e 30fe a73e
00000100: e03a 903c 980d fb3d 1c4f 633e c037 86be
00000110: 1078 e63d 5c48 b03e 260f ee3e a81b f9be
00000120: 5afb 903e 827c ec3e ce86 f3be 3087 ed3d
00000130: 7cba 9c3e 2453 353e 703c f9be b0f9 c03d
00000140: 1c10 82be c6f7 dbbe 8018 b9bd a49a c7be
00000150: c8fb 9f3d 08e9 fa3d c8b1 c1be a895 473e
00000160: 5822 94be 80b2 48bc 4096 74be 985d 44be
00000170: c0c7 cfbe 6ccb a13e 24de cbbe 780a bebe
00000180: 9876 673e e09a 61be f0ef 6cbe 705b 2b3d
00000190: 309d db3d cc4e d83e 0e19 99be 5823 93bd
000001a0: c0fe 1bbd bef1 b9be 805a 5e3d 8831 cabd
000001b0: 98b2 343e 7e67 9c3e 42b0 c13e deef db3e
000001c0: 00f5 133b 52f3 f23e 4cba e1be f040 7f3e
000001d0: 6cd9 863e 3079 883e 00f5 7dbc e086 3fbe
000001e0: 4859 56be b40f 59be 6833 34be f4bf 623e
000001f0: d6e2 ab3e fc3e c43e dca0 db3e 7c73 00be

conv2_2.0.weight f4 [8, 8, 1, 1, 1]
0.40711772 -0.40678614 -0.35510406 0.37757254 -0.54667604 0.5553704 -0.3795436 0.5295915
0.20820585 -0.35755098 -0.5879915 -0.12429567 0.10464766 0.45423114 0.1038375 -0.07454481
-0.5601919 0.32665682 -0.5145165 -0.5556355 0.6067386 -0.4491276 -0.015202278 0.14621523
0.15349579 0.026746137 0.17218588 -0.20845713 0.5571735 -0.05894395 -0.58838433 0.6035884
0.44138548 0.028577281 0.42166883 -0.49017796 -0.22350551 0.38030276 0.4572433 -0.606934
-0.08494132 0.01939915 0.06386229 -0.37893698 -0.25827104 0.6079062 -0.29705045 -0.07718546
-0.41497424 -0.16814376 0.47290948 -0.19078918 -0.31741518 0.06866878 -0.5152518 0.21588302
0.13333327 -0.31633908 -0.45286334 -0.15748161 0.34065238 -0.3074855 0.5832836 0.07154668
00000000: bc71 d03e 4646 d0be 33d0 b5be 3051 c13e
00000010: f6f2 0bbf c12c 0e3f 8a53 c2be 4f93 073f
00000020: ea33 553e ec10 b7be 9c86 16bf ba8e febd
00000030: 8351 d63d fc90 e83e c1a8 d43d f3aa 98bd
00000040: bd68 0fbf 903f a73e 5ab7 03bf 213e 0ebf
00000050: 3953 1b3f 0ef4 e5be fa12 79bc 72b9 153e
00000060: 002e 1d3e b71a db3c 7f51 303e c975 55be
00000070: eca2 0e3f 366f 71bd 5ba0 16bf c584 1a3f
00000080: 47fd e13e e71a ea3c fae4 d73e 9bf8 fabe
00000090: a1de 64be 0bb7 c23e cb1b ea3e 0760 1bbf
000000a0: b7f5 adbd f7ea 9e3c 3bca 823d 0704 c2be
000000b0: 1a3c 84be be9f 1b3f ff16 98be 6913 9ebd
000000c0: 8177 d4be e12d 2cbe 3121 f23e 3d5e 43be
000000d0: 3e84 a2be 38a2 8c3d 8be7 03bf 7010 5d3e
000000e0: 8488 083e 32f7 a1be b4dd e7be dc42 21be
000000f0: fd69 ae3e bd6e 9dbe 1352 153f 1187 923d

conv2_2.0.bias f4 [8]
0.029530862 0.0470001 0.15385622 -0.09092896 0.09159703 -0.22994944 0.049344435 -0.01710218
00000000: b5ea f13c 2d83 403d 7c8c 1d3e f638 babd
00000010: 3997 bb3d de77 6bbe 641d 4a3d df19 8cbc

conv2_2.2.weight f4 [8, 4, 3, 3, 3]
-0.11466756 -0.030280245 0.110022664 0.042270347 0.00051932543 -0.07980921 0.064360015 -0.0466641
0.12750883 -0.010860234 0.050056774 -0.09771044 -0.014359228 -0.13469127 -0.06563756 -0.046838507
0.055455826 0.09204232 0.056980822 -0.08825191 -0.07053617 -0.022685679 0.078672685 0.009866178
-0.0051526823 0.07258751 -0.0637212 0.06806328 0.06620977 0.014692305 -0.0119689815 0.012251671
-0.013733792 0.024747798 -0.12709706 0.06704202 -0.07615712 0.01809575 0.1111259 -0.08258704
-0.048658684 0.05725191 -0.0895093 0.09147165 0.12504958 -0.09090934 -0.10961474 0.09372404
0.13606258 -0.07105051 -0.08585545 -0.023513213 0.08717072 0.041786484 -0.090207934 0.09507948
-0.07908256 -0.037877258 0.04040249 -0.11918046 0.041946404 -0.113197654 0.093544185 0.102911994
-0.11417635 0.055370625 0.12665698 -0.1308093 0.0904288 0.06369443 -0.00101203 0.12387454
-0.070082426 -0.023878362 0.074216336 -0.051316567 0.05266059 -0.048875075 -0.12650841 0.10246108
0.053195503 -0.121643566 -0.039792385 0.10954709 -0.13041018 -0.111296296 0.029253533 -0.043675557
0.026019903 0.025126329 -0.06098777 0.0103501715 -0.056848105 -0.0882279 -0.033397105 -0.09703679
-0.12388554 -0.010034517 0.12899993 0.09947747 -0.033918653 -0.06132216 -0.055099566 0.06807339
-0.02682815 -0.0786846 0.08815214 -0.1310253 0.017766241 0.0048660827 0.114599034 -0.124528416
0.011068658 -0.051459536 -0.11355508 0.010318294 0.018999528 0.009046058 -0.059232447 -0.04603451
0.045957197 -0.12774558 -0.12314447 -0.12289945 -0.13060217 0.08573029 0.106373034 -0.01959325
-0.07282728 -0.008299701 0.05054781 -0.021805197 0.07165287 -0.07234011 -0.086105324 -0.03735078
0.0025610356 0.07413694 -0.090876214 -0.018208154 0.08968426 -0.12711993 -0.017907878 -0.0333614
-0.09279867 0.04676067 0.12239873 -0.026313122 -0.054468386 0.020616943 -0.04640464 -0.12022812
-0.042249307 -0.060736243 0.020997064 0.07347897 -0.122312576 0.0768151 0.05120885 -0.08221542
-0.1200826 0.030063417 0.11120516 -0.09665534 -0.09397581 -0.11521918 0.03674922 0.12484885
-0.077629544 0.013286332 -0.08026906 -0.0006842579 0.0027033216 -0.051878363 0.07623809 -0.10011731
-0.12378478 -0.05139862 0.008733146 -0.10120829 -0.058515858 -0.051686455 0.046709117 -0.10971666
0.069825046 0.0967741 -0.13350183 -0.0828496 0.056597747 -0.08206924 0.026056956 -0.13437262
-0.042131662 -0.053517096 -0.034561835 -0.047901914 0.037108142 0.051362023 -0.013901953 0.030646708
0.052372318 -0.008122667 0.053012352 0.06145512 0.101083644 0.040288012 -0.12351599 0.048964247
0.07543213 -0.12223969 0.02763667 -0.04720507 0.095173344 0.0842904 -0.052184723 0.11219828
-0.038507804 0.02047834 0.05864392 0.05773326 0.04322464 -0.12442926 0.008541576 -0.08486202
-0.07646231 -0.040695176 0.078392304 0.08115702 -0.052703854 -0.10000768 -0.115512565 -0.06515481
-0.13290079 0.11457342 0.020422194 0.092665404 0.06001383 -0.023346335 -0.088530056 -0.03981758
0.038932815 -0.10605819 0.038543884 0.07092896 0.098535426 0.02999405 0.0689414 -0.09803555
0.01700428 -0.04329662 -0.105151296 0.08447608 -0.0057885656 -0.0074706264 -0.1142839 0.102051534
00000000: d3d6 eabd 470e f8bc 9053 e13d ac23 2d3d
00000010: 5723 083a 0373 a3bd 2fcf 833d db22 3fbd
00000020: ad91 023e 1fef 31bc 5508 4d3d 691c c8bd
00000030: f842 6bbc 82ec 09be fc6c 86bd bcd9 3fbd
00000040: a625 633d af80 bc3d b964 693d 6bbd b4bd
00000050: 4475 90bd 51d7 b9bc 251f a13d c0a5 213c
00000060: d5d7 a8bb c3a8 943d 4380 82bd c364 8b3d
00000070: fd98 873d feb7 703c 8c19 44bc 3cbb 483c
00000080: b303 61bc e5bb ca3c bb25 02be 544d 893d
00000090: 44f8 9bbd 8a3d 943c fa95 e33d 6523 a9bd
000000a0: 544e 47bd fb80 6a3d a750 b7bd 7d55 bb3d
000000b0: ff0c 003e ad2e babd b17d e0bd 64f2 bf3d
000000c0: fd53 0b3e ee82 91bd fbd4 afbd c89e c0bc
000000d0: 9086 b23d 4e28 2b3d f0be b8bd 08b9 c23d
000000e0: 0af6 a1bd 2f25 1bbd 157d 253d e314 f4bd
000000f0: fecf 2b3d 2cd4 e7bd 1894 bf3d 86c3 d23d
00000100: 4ad5 e9bd 4fcc 623d 5eb2 013e e0f2 05be
00000110: bc32 b93d 3a72 823d 18a6 84ba efb1 fd3d
00000120: 6087 8fbd 8e9c c3bc bcfe 973d 5231 52bd
00000130: a1b2 573d 3b31 48bd 6c8b 01be 1dd7 d13d
00000140: 87e3 593d 4320 f9bd 57fd 22bd 3a5a e03d
00000150: 3f8a 05be 50ef e3bd 1ba5 ef3c 24e5 32bd
00000160: b127 d53c bbd5 cd3c 50ce 79bd c493 293c
00000170: 8fd9 68bd d4b0 b4bd 67cb 08bd 39bb c6bd
00000180: b4b7 fdbd d167 24bc 8f18 043e d8ba cb3d
00000190: 49ee 0abd f22c 7bbd 15b0 61bd 106a 8b3d
000001a0: b5c6 dbbc 6425 a1bd 1c89 b43d 7f2b 06be
000001b0: 828a 913c a973 9f3b e6b2 ea3d c108 ffbd
000001c0: 5159 353c 3cc7 52bd 918f e8bd 100e 293c
000001d0: e6a4 9b3c eb35 143c b99d 72bd af8e 3cbd
000001e0: 9d3d 3c3d bdcf 02be 2b33 fcbd b5b2 fbbd
000001f0: 93bc 05be 5d93 af3d 1bda d93d 0682 a0bc
00000200: 7826 95bd 78fb 07bc 380b 4f3d d0a0 b2bc
00000210: bdbe 923d 0d27 94bd fd57 b0bd 22fd 18bd
00000220: 0cd7 273b 1cd5 973d 4f1d babd 4429 95bc
00000230: 62ac b73d ba2b 02be 8bb3 92bc f7a5 08bd
00000240: 3b0d bebd 1e88 3f3d 2fac fa3d 9e8e d7bc
00000250: 3e1a 5fbd dde4 a83c cb12 3ebd 293a f6bd
00000260: 9c0d 2dbd 91c6 78bd 0902 ac3c 247c 963d
00000270: 047f fabd 3c51 9d3d 5fc0 513d 8f60 a8bd
00000280: deed f5bd 8e47 f63c 88bf e33d 3cf3 c5bd
00000290: 6476 c0bd 09f8 ebbd 5a86 163d c1b0 ff3d
000002a0: 3dfc 9ebd eaae 593c 1b64 a4bd c55f 33ba
000002b0: 362a 313b 687e 54bd b722 9c3d 4e0a cdbd
000002c0: e082 fdbd 5c87 52bd 7815 0f3c 4b46 cfbd
000002d0: 53ae 6fbd 2db5 53bd 0f52 3f3d 21b3 e0bd
000002e0: 6f00 8f3d 8031 c63d b4b4 08be 0dad a9bd
000002f0: 0ad3 673d eb13 a8bd 6675 d53c fa98 09be
00000300: 4092 2cbd be34 5bbd b690 0dbd cc34 44bd
00000310: b5fe 173d fc60 523d 04c5 63bc ce0e fb3c
00000320: 5b84 563d ef14 05bc 7b23 593d 5db8 7b3d
00000330: f104 cf3d 0b05 253d f4f5 fcbd bc8e 483d
00000340: 297c 9a3d cd58 fabd 4c66 e23c 1a5a 41bd
00000350: 3eea c23d 72a0 ac3d a6bf 55bd 36c8 e53d
00000360: 5cba 1dbd 31c2 a73c 9b34 703d b679 6c3d
00000370: 520c 313d c5d4 febd f7f1 0b3c 24cc adbd
00000380: 4698 9cbd fcaf 26bd 258c a03d a735 a63d
00000390: ffdf 57bd d4d0 ccbd da91 ecbd e36f 85bd
000003a0: 2517 08be 78a5 ea3d 724c a73c 5cc7 bd3d
000003b0: 10d1 753d d040 bfbc 3f4f b5bd c217 23bd
000003c0: 0478 1f3d 0935 d9bd 31e0 1d3d 3443 913d
000003d0: f1cc c93d 15b6 f53c 2631 8d3d ddc6 c8bd
000003e0: 8f4c 8b3c cc57 31bd 9059 d7bd cc01 ad3d
000003f0: 02ae bdbb 28cc f4bb ad0d eabd 6500 d13d

conv2_2.2.bias f4 [8]
-0.09590122 0.022165969 -0.00016132701 -0.092942126 0.042134877 -0.066742934 0.051435027 -0.09029774
00000000: dc67 c4bd 6895 b53c e429 29b9 7158 bebd
00000010: 9f95 2c3d 85b0 88bd 89ad 523d 06ee b8bd

conv2_2.4.weight f4 [16, 8, 1, 1, 1]
-0.13870943 0.11852759 -0.026210964 -0.1086759 0.16681069 0.13622546 -0.121589005 -0.2592917
-0.06503421 0.28893816 0.416839 0.28893876 0.15129495 -0.14668608 -0.34403664 0.46132112
-0.35909837 0.101095915 0.45304316 0.06674075 -0.40309548 -0.34649968 -0.29455084 -0.4660774
0.41012233 0.17843926 0.052863657 0.4977513 -0.3298146 0.46669573 -0.21002126 0.06148672
0.32046807 0.33962464 -0.02789247 0.019355655 0.26650542 -0.27264714 0.17580771 -0.4130379
-0.38974637 -0.32691783 -0.4572389 -0.16401505 -0.2641043 -0.39018935 0.39529645 -0.32953763
-0.22375059 0.30365807 0.47410738 -0.41593933 0.42305994 0.4847197 0.26539302 -0.35938114
-0.11917347 -0.069574594 -0.4078461 -0.46115 -0.11704165 -0.08992869 0.34262043 -0.39967895
-0.26049078 0.08870345 0.13337374 0.3608765 -0.36385584 -0.2551837 0.29397476 -0.16093183
-0.024101675 0.41874105 -0.35784858 -0.36018395 -0.36013007 -0.023384273 0.28257 0.381321
-0.07242674 0.110278964 -0.030113041 -0.21213746 0.028107464 0.13981456 0.02717334 0.24531102
0.11669135 0.21700597 0.3179558 -0.12117165 -0.07390851 -0.3271445 0.22480524 0.1845724
0.3334636 -0.19146991 0.42876703 -0.39228004 -0.34968454 -0.44420224 -0.14392221 -0.3454743
0.41954726 0.42952037 0.075258374 0.07827592 0.09100789 0.46398324 -0.043195665 -0.37485564
0.45386118 -0.24942482 -0.41390872 0.37872112 0.20288366 0.045229733 0.4275843 0.11011523
-0.00397712 0.038099468 -0.053805053 -0.15851712 -0.44356608 0.35577583 0.20070481 0.37370455
00000000: d809 0ebe 98be f23d 60b8 d6bc 7891 debd
00000010: 6cd0 2a3e b07e 0b3e a803 f9bd e2c1 84be
00000020: a830 85bd b4ef 933e ec6b d53e c8ef 933e
00000030: 10ed 1a3e e034 16be 9225 b0be 4832 ec3e
00000040: bedb b7be 600b cf3d 46f5 e73e 60af 883d
00000050: 8862 cebe 6868 b1be 5ecf 96be b2a1 eebe
00000060: 8efb d13e c8b8 363e 9087 583d 42d9 fe3e
00000070: 76dd a8be bef2 ee3e d00f 57be 80d9 7b3d
00000080: 6414 a43e 48e3 ad3e c07e e4bc c08f 9e3c
00000090: 6673 883e 6898 8bbe f006 343e b479 d3be
000000a0: d68c c7be c661 a7be 381b eabe 90f3 27be
000000b0: ae38 87be e6c6 c7be 4c64 ca3e 28b9 a8be
000000c0: e01e 65be 1279 9b3e 34be f23e 00f6 d4be
000000d0: 509b d83e 2e2d f83e 98e1 873e ce00 b8be
000000e0: 3811 f4bd 207d 8ebd 34d1 d0be da1b ecbe
000000f0: 88b3 efbd 882c b8bd f26b af3e b8a2 ccbe
00000100: 0c5f 85be 28aa b53d 2093 083e cec4 b83e
00000110: 504b babe 70a7 82be dc83 963e 50cb 24be
00000120: e070 c5bc 3a65 d63e ee37 b7be 086a b8be
00000130: f862 b8be 6090 bfbc 04ad 903e 823c c33e
00000140: 7854 94bd f0d9 e13d a0af f6bc 903a 59be
00000150: a041 e63c 8c2b 0f3e a09a de3c d032 7b3e
00000160: e0fb ee3d d036 5e3e 1acb a23e d828 f8bd
00000170: 585d 97bd 7c7f a7be 5833 663e 8c00 3d3e
00000180: bebb aa3e b010 44be 5a87 db3e eed8 c8be
00000190: da09 b3be 7a6e e3be 5860 13be 02e2 b0be
000001a0: e6ce d63e 18ea db3e 1021 9a3d 204f a03d
000001b0: 5862 ba3d 368f ed3e f0ed 30bd 14ed bfbe
000001c0: 7e60 e83e 3869 7fbe d8eb d3be bce7 c13e
000001d0: bcc0 4f3e d042 393d 54ec da3e 1884 e13d
000001e0: 8052 82bb 300e 1c3d b062 5cbd 5052 22be
000001f0: 181b e3be 4028 b63e 9085 4d3e 3456 bf3e

conv2_2.4.bias f4 [16]
-0.23446696 0.050148387 -0.23712276 0.27306217 0.014645398 -0.04370051 0.027125416 -0.08834691
0.14031255 0.03484967 -0.06861132 -0.18890457 0.3128676 0.17760943 -0.2374859 -0.2636522
00000000: 1b18 70be 6568 4d3d 4fd0 72be cece 8b3e
00000010: 40f3 6f3c 4eff 32bd 1f36 de3c 3aef b4bd
00000020: 18ae 0f3e 87be 0e3d 1784 8cbd 3370 41be
00000030: 2f30 a03e 3fdf 353e 812f 73be 6cfd 86be
