weights/002/cpBest_SSC_PalNet.pth.tar (torch_old, 935361 bytes, 68 tensors)

conv2d_depth.0.weight f4 [6, 1, 3, 3]
-0.027310623 0.1590205 0.1622186 -0.15736546 0.25401956 0.1922841 -0.04468763 0.35894224
0.020599214 -0.006215306 0.04811408 -0.028837333 0.14371514 -0.23398037 -0.15268618 -0.05584051
0.07319576 -0.16833457 0.285309 0.064928696 0.2585373 -0.14147341 0.01775126 0.115087785
0.16633669 0.10698476 0.13783544 -0.1688309 -0.26802278 -0.2443006 -0.22414352 0.10300732
-0.11780852 -0.08964334 0.2365256 -0.22184657 0.0041556084 0.1260578 0.19525701 -0.06413289
0.015874865 -0.171402 -0.24643995 -0.24908681 0.07773861 -0.17152488 0.017465299 0.03517245
0.28344107 0.13338046 0.2890323 0.3438302 -0.058982823 0.327518
00000000: 87ba dfbc 45d6 223e a21c 263e 6924 21be
00000010: da0e 823e 20e6 443e 600a 37bd 47c7 b73e
00000020: afbf a83c c4a9 cbbb 4513 453d 453c ecbc
00000030: 102a 133e 8d98 6fbe c459 1cbe 05b9 64bd
00000040: a9e7 953d e65f 2cbe 0514 923e 56f9 843d
00000050: 005f 843e 68de 10be 176b 913c 25b3 eb3d
00000060: 2a54 2a3e d31a db3d bc24 0d3e 02e2 2cbe
00000070: 483a 89be f029 7abe e185 65be 80f5 d23d
00000080: 9845 f1bd ed96 b7bd c433 723e bf2b 63be
00000090: c52b 883b 4c15 013e 74f1 473e 1b58 83bd
000000a0: 010c 823c 0284 2fbe c15a 7cbe 9d10 7fbe
000000b0: 6c35 9f3d 38a4 2fbe 6313 8f3c fd10 103d
000000c0: 301f 913e e394 083e 0bfc 933e 830a b03e
000000d0: f997 71bd 70b0 a73e

conv2d_depth.0.bias f4 [6]
0.36036873 -0.030757468 -0.020713033 -0.11866913 0.25451717 0.3733752
00000000: 4082 b83e 16f7 fbbc 61ae a9bc cd08 f3bd
00000010: 1350 823e 092b bf3e

res_depth.0.weight f4 [3, 6, 1, 1]
0.035983294 0.28010365 0.028325684 -0.26516116 -0.28908774 0.11631001 0.10238567 -0.09059346
0.044810947 -0.14783819 0.1718301 -0.0800451 -0.085637525 0.08457632 0.07754387 0.32301885
0.18495259 -0.13126329
00000000: 3863 133d bf69 8f3e 440b e83c 34c3 87be
00000010: 4f03 94be f133 ee3d 94af d13d 1089 b9bd
00000020: af8b 373d e562 17be 3bf4 2f3e afee a3bd
00000030: ba62 afbd 5a36 ad3d 52cf 9e3d ba62 a53e
00000040: 3664 3d3e e269 06be

res_depth.0.bias f4 [3]
-0.17973383 -0.23930304 0.3018756
00000000: 250c 38be db0b 75be 708f 9a3e

res_depth.2.weight f4 [3, 3, 3, 3]
0.15314701 0.09710058 0.07111804 0.12793584 0.13427004 -0.1339059 0.039513104 0.085733585
0.04646067 0.020919202 -0.11061837 0.044192523 -0.014309203 -0.15793765 0.090669654 0.07638502
-0.007413663 0.099314325 -0.055193916 -0.14613937 0.050429057 -0.09467379 -0.09299769 -0.15472998
0.099158004 -0.0010342968 0.13620488 -0.10379965 0.11306228 0.058334872 0.095870174 0.074095495
-0.1404789 0.117558904 -0.15727241 -0.009778313 -0.1447375 -0.0059102233 -0.14439388 0.10452352
-0.06094831 0.13713524 -0.0040214136 0.0084757535 -0.07215266 -0.055567652 -0.050258704 -0.13866769
-0.06447167 -0.10628534 -0.14402041 -0.13944209 -0.016106492 0.09438932 -0.09023778 -0.10166685
-0.15468796 -0.0061555915 -0.0997953 -0.04001427 0.069706306 -0.008216504 0.0428102 -0.15688889
-0.120267145 -0.13971804 -0.0675018 -0.069678746 -0.090619534 -0.0015244879 -0.059019264 0.074663065
-0.021048512 0.15558314 -0.1324924 -0.017647488 0.029097464 0.14380686 -0.14713587 0.0747748
0.042828526
00000000: 92d2 1c3e abdc c63d 56a6 913d 9d01 033e
00000010: 167e 093e a11e 09be 7ed8 213d 1795 af3d
00000020: 8b4d 3e3d bf5e ab3c e28b e2bd 3803 353d
00000030: 2671 6abc 68ba 21be 03b1 b93d c06f 9c3d
00000040: 50ee f2bb 4f65 cb3d 0413 62bd 8fa5 15be
00000050: b38e 4e3d 55e4 c1bd 9375 bebd 8971 1ebe
00000060: 5a13 cb3d 3e91 87ba 4b79 0b3e e994 d4bd
00000070: 328d e73d 8cf0 6e3d 9557 c43d 61bf 973d
00000080: b3d9 0fbe b9c2 f03d 050c 21be 3835 20bc
00000090: 1136 14be 8caa c1bb fddb 13be 6d10 d63d
000000a0: efa4 79bd 2e6d 0c3e 10c6 83bb e3dd 0a3c
000000b0: c6c4 93bd e89a 63bd 12dc 4dbd e7fe 0dbe
000000c0: b909 84bd 21ac d9bd 167a 13be e8c9 0ebe
000000d0: c3f1 83bc 304f c13d 96ce b8bd b636 d0bd
000000e0: 8566 1ebe d8b4 c9bb 7a61 ccbd 01e6 23bd
000000f0: 2ec2 8e3d 849e 06bc c059 2f3d 7ba7 20be
00000100: 9f4e f6bd 3f12 0fbe 623e 8abd bbb3 8ebd
00000110: bc96 b9bd 53d1 c7ba 2fbe 71bd f3e8 983d
00000120: ee6d acbc 3051 1f3e 16ac 07be 7791 90bc
00000130: ce5d ee3c 1b42 133e c9aa 16be 8823 993d
00000140: f76c 2f3d

res_depth.2.bias f4 [3]
0.15350586 -0.15455496 -0.13761662
00000000: a430 1d3e a843 1ebe 5feb 0cbe

res_depth.4.weight f4 [6, 3, 1, 1]
-0.23778267 -0.14207895 -0.1605969 -0.09897618 0.35543466 0.36297938 0.13993907 -0.18812943
0.17476444 0.34990185 0.114576794 0.47038105 0.1360024 -0.39181167 0.040913977 -0.23369014
0.34937727 -0.43323672
00000000: 4d7d 73be 257d 11be 8473 24be 06b4 cabd
00000010: 88fb b53e 6fd8 b93e 304c 0f3e 00a5 40be
00000020: 73f5 323e 5626 b33e 3da7 ea3d c9d5 f03e
00000030: 3744 0b3e 8a9b c8be 6a95 273d 784c 6fbe
00000040: 94e1 b23e 34d1 ddbe

res_depth.4.bias f4 [6]
0.030894695 -0.14080946 -0.21418494 0.6198016 0.3127778 0.44363996
00000000: df16 fd3c 5b30 10be 4c53 5bbe 51ab 1e3f
00000010: 6924 a03e c724 e33e

pool1.weight f4 [8, 6, 7, 7, 7]
-0.0063686566 0.009650421 0.018338302 -0.005798204 0.0024432272 0.0073533654 0.045929056 0.019379867
0.0140343895 -0.0126196835 -0.011049987 -0.00441743 0.024389071 0.039198946 -0.011453423 0.017342634
0.023516279 0.028666949 0.012243791 0.049103454 -0.0025625438 -0.033527568 0.025441661 0.006446802
-0.01178261 0.019689683 0.014901466 -0.0059040976 0.019727347 0.014466564 -0.019364845 -0.025252853
-0.0026747514 0.0065827686 0.010448233 0.027109616 -0.007736534 0.024348522 0.025898442 0.02085759
0.023193713 -0.005600869 0.029959051 0.00564087 0.029094858 0.034459196 0.019841079 0.053465046
0.018367827 0.029353261 0.03505634 0.02882664 -0.0029867277 0.040239006 0.010441759 0.006935237
0.021682259 0.034414 0.036291257 0.0067435224 -0.006658279 0.03274269 0.039551556 0.021735188
0.0015580457 0.0037441044 0.009802214 0.016312784 0.045854352 0.029466117 0.017074462 0.00030038433
0.00039258384 -0.0070385532 0.013851011 0.0064395783 0.031096345 -0.0072959927 0.0096349325 0.01143649
0.029810345 0.0060420916 0.008525657 0.010192123 0.010210494 0.008253003 0.030791204 0.008556276
0.036612388 0.037877098 0.009868347 0.019857192 0.0128225805 0.038550872 0.039349634 0.033779394
0.048653718 0.0018742639 -0.011614914 0.019916551 -0.00095499173 -0.029312333 0.023760604 0.009308764
0.027310057 0.0155957285 0.022266522 -0.037177898 0.0053095035 0.013026441 -0.0075826086 -0.010821554
-0.028142774 -0.026352683 -0.02956486 -0.034140855 0.024030766 -0.009040736 0.033463176 -0.005353974
-0.032443617 0.0031086588 -0.025334558 0.021194626 0.020739451 -0.0096762 -0.019833993 -0.021328116
-0.035161495 0.011986516 -0.021274311 0.030286066 0.0012153005 -0.014217229 0.01699422 -0.0024778098
-0.011287568 -0.029999817 0.0070350464 0.025435487 -0.0056704218 0.036944155 0.025074601 0.01766364
0.025988832 0.038602475 0.027022425 0.011036911 -0.025967658 -0.019233448 0.010160507 -0.004411637
-0.0054269703 0.028486488 -0.008192336 -0.030736247 -0.036812555 -0.019476196 0.016050452 0.025475942
0.02077063 0.017255688 0.021771962 0.008712046 -0.03000723 -0.01762878 0.014691721 -0.018752482
-0.028305987 0.020627515 -0.01991392 0.018103382 -0.0070928303 0.006487856 0.02045435 -0.019967472
-0.032578602 -0.03790807 -0.0034262948 -0.0067721666 0.009068575 -0.024399923 0.02302398 0.023230644
-0.0071713985 0.0034827262 -0.0028234217 0.013004957 -0.006567416 -0.016857365 0.009185409 -0.026316274
0.010297668 0.023773301 0.006927778 0.0030942427 0.019344734 0.01768395 -0.037571725 -0.0077815196
0.004506175 0.023968505 0.029933529 -0.035035804 -0.0121401595 -0.03172407 0.010574333 0.024249177
0.042622957 0.0029000521 0.0046697618 -0.0056412076 0.0100706825 0.006877425 -0.010096735 0.021520188
-0.018130686 0.004165012 0.015635764 -0.018910361 -0.0192163 -0.026461802 -0.015935153 0.022189146
0.010898278 -0.03302981 -0.002387949 0.002721646 0.01615575 -0.0050242734 -0.008143888 0.016732834
-0.002451395 -0.010490523 -0.02912161 -0.021040462 0.0057090423 0.021149546 -0.028131012 -0.0058887275
-0.008771669 0.00016483324 -0.020379756 0.029602075 0.0048198216 0.03151607 0.016458394 -0.006853004
0.026903104 0.004972557 0.030091563 0.0024384325 0.008255345 0.0033220975 -0.010084231 0.013332779
00000000: 2ab0 d0bb cd1c 1e3c 353a 963c dcfe bdbb
00000010: 8d1e 203b 80f4 f03b 1b20 3c3d 87c2 9e3c
00000020: 7ff0 653c cac2 4ebc 010b 35bc 17c0 90bb
00000030: 97cb c73c 138f 203d 23a7 3bbc 2412 8e3c
00000040: 36a5 c03c f3d6 ea3c 2e9a 483c b420 493d
00000050: 5af0 27bb 3454 09bd 086b d03c b23f d33b
00000060: d90b 41bc 424c a13c 4725 743c 2977 c1bb
00000070: 3f9b a13c 2b05 6d3c 06a3 9ebc 12df cebc
00000080: e24a 2fbb 44b4 d73b 112f 2b3c fc14 de3c
00000090: c082 fdbb 8d76 c73c f828 d43c 89dd aa3c
000000a0: be00 be3c 7f87 b7bb af6c f53c 0cd7 b83b
000000b0: 5758 ee3c 1625 0d3d c289 a23c 2afe 5a3d
000000c0: 2078 963c 4076 f03c 3d97 0f3d d925 ec3c
000000d0: fabc 43bb a8d1 243d e913 2b3c fc40 e33b
000000e0: fe9e b13c b2f5 0c3d 24a6 143d c4f8 dc3b
000000f0: b12d dabb 331d 063d d000 223d fe0d b23c
00000100: 5737 cc3a a65f 753b 7799 203c 63a2 853c
00000110: c6d1 3b3d ed62 f13c bedf 8b3c e77c 9d39
00000120: b6d3 cd39 aaa3 e6bb 5aef 623c 1903 d33b
00000130: c3bd fe3c 3913 efbb d6db 1d3c 1e60 3b3c
00000140: d334 f43c bdfc c53b 32af 0b3c ddfc 263c
00000150: ea49 273c 9a37 073c d63d fc3c 9f2f 0c3c
00000160: dff6 153d 0425 1b3d d9ae 213c 8dab a23c
00000170: cd15 523c 85e7 1d3d 152d 213d 435c 0a3d
00000180: 1f49 473d dca9 f53a 7b4c 3ebc 0928 a33c
00000190: 6958 7aba 6b20 f0bc 99a5 c23c c983 183c
000001a0: 57b9 df3c 3a85 7f3c 4868 b63c da47 18bd
000001b0: 58fb ad3b db6c 553c 8877 f8bb e34c 31bc
000001c0: ad8b e6bc 95e1 d7bc 0132 f2bc 48d7 0bbd
000001d0: 2bdc c43c 981f 14bc af10 093d 6470 afbb
000001e0: 99e3 04bd a4ba 4b3b 6b8a cfbc 5aa0 ad3c
000001f0: c8e5 a93c ed88 1ebc e67a a2bc 4db8 aebc
00000200: 8005 10bd 1863 443c 7747 aebc 7c1a f83c
00000210: b84a 9f3a 61ef 68bc 7637 8b3c c062 22bb
00000220: 7eef 38bc 2dc2 f5bc 3f86 e63b 155e d03c
00000230: f2ce b9bb c152 173d 4069 cd3c 57b3 903c
00000240: 88e6 d43c a11d 1e3d 225e dd3c 29d4 343c
00000250: 20ba d4bc 778f 9dbc 4178 263c 7e8f 90bb
00000260: bad4 b1bb 7f5c e93c 2639 06bc 95ca fbbc
00000270: c3c8 16bd 8b8c 9fbc 3d7c 833c ecb2 d03c
00000280: 2b27 aa3c cd5b 8d3c 1d5b b23c f8bc 0e3c
00000290: b9d1 f5bc 3b6a 90bc 8bb5 703c ce9e 99bc
000002a0: f5e1 e7bc 09fb a83c 8422 a3bc 8b4d 943c
000002b0: f96a e8bb 1598 d43b e28f a73c d392 a3bc
000002c0: 2471 05bd 7e45 1bbd b08b 60bb 0de9 ddbb
000002d0: 5c94 143c 59e2 c7bc c99c bc3c 314e be3c
000002e0: 0dfe eabb 733e 643b 2809 39bb be12 553c
000002f0: 7a33 d7bb 7518 8abc 667e 163c 3a95 d7bc
00000300: 8db7 283c 3ac0 c23c 6a02 e33b c7c8 4a3b
00000310: d978 9e3c eedd 903c cfe4 19bd 1efc febb
00000320: 89a8 933b 9959 c43c 2937 f53c b481 0fbd
00000330: 85e7 46bc 19f1 01bd f83f 2d3c 36a6 c63c
00000340: 6995 2e3d cd0e 3e3b cd04 993b e1d9 b8bb
00000350: 81ff 243c 065c e13b c76c 25bc 1b4b b03c
00000360: ce86 94bc a77a 883b 9316 803c e7e9 9abc
00000370: 816b 9dbc 6cc6 d8bc 708a 82bc 03c6 b53c
00000380: b18e 323c 444a 07bd 237f 1cbb a55d 323b
00000390: 1059 843c a9a2 a4bb f16d 05bc 4c13 893c
000003a0: 95a7 20bb 71e0 2bbc 7190 eebc 0c5d acbc
000003b0: eb12 bb3b d041 ad3c 0273 e6bc 3af6 c0bb
000003c0: 0cb7 0fbc 16d7 2c39 72f3 a6bc 0d80 f23c
000003d0: 98ef 9d3b ff16 013d c1d3 863c 2a8f e0bb
000003e0: e663 dc3c d5f0 a23b 9582 f63c 1cce 1f3b
000003f0: 6d41 073c 8cb7 593b 5538 25bc ba71 5a3c

pool1.bias f4 [8]
-0.009816641 -0.07397806 -0.014016198 -0.008255426 -0.010336602 -0.05118778 -0.008593864 -0.069763914
00000000: fad5 20bc cf81 97bd 32a4 65bc c441 07bc
00000010: da5a 29bc 47aa 51bd 47cd 0cbc 62e0 8ebd

reduction2_1.weight f4 [16, 8, 1, 1, 1]
-0.21334018 -0.030037005 0.13907027 0.15955201 -0.1378898 -0.16929811 0.18579751 -0.20486465
-0.070521146 -0.18885228 -0.20620489 0.21910833 0.419329 0.010971109 0.14987548 -0.4006877
-0.42198718 -0.3842858 -0.3682739 0.27930412 -0.15987286 -0.3783747 0.12877376 -0.22818696
-0.13245456 0.4039556 0.09115597 -0.15582018 -0.2984575 0.22772735 0.40921605 0.25427836
-0.023812918 -0.27673206 0.19264005 -0.06965157 -0.1981332 0.17048305 0.38843277 -0.0760514
-0.28472692 0.2501856 0.08103777 0.21912545 -0.01632013 -0.2574447 0.10313305 0.31189045
-0.4847067 0.26771212 0.37572294 0.34957317 -0.01700094 0.06824874 0.27347088 -0.3641736
0.16733925 0.38061243 -0.35945624 -0.3162939 0.19387123 -0.087307036 0.26915357 -0.38054103
0.07143939 -0.07144057 0.29394943 0.043237373 -0.096551165 0.12517014 0.35051376 -0.055758473
-0.04273068 0.16998565 -0.054673884 -0.1978595 -0.2962196 -0.3052844 0.37361932 -0.24986416
0.23147742 -0.261324 -0.2553711 -0.12960158 -0.44105068 0.048890337 0.36619142 -0.17763664
0.15097545 -0.3585511 0.17084302 -0.041849516 0.34928432 -0.27158946 -0.27567974 0.12543513
0.22188462 0.05575849 -0.27402353 -0.19355054 -0.29854822 0.35144824 -0.25582668 0.2631686
0.031567156 0.3223895 -0.37683395 -0.2115818 -0.37486646 0.29775193 0.32907712 0.3691535
0.25240088 -0.3181457 0.0029243215 -0.12128259 -0.35875556 -0.3575757 0.058033727 0.086626165
-0.16024323 0.2335639 -0.0740381 -0.15920052 0.3263515 -0.35679704 0.28829524 -0.33080864
00000000: d975 5abe 2a10 f6bc 7068 0e3e 9a61 233e
00000010: fc32 0dbe 7c5c 2dbe b441 3e3e 0ac8 51be
00000020: 646d 90bd 7e62 41be 6027 53be ef5d 603e
00000030: 4ab2 d63e 2bc0 333c f578 193e f026 cdbe
00000040: b40e d8be 1cc1 c4be 668e bcbe f300 8f3e
00000050: b6b5 23be 54ba c1be 45dd 033e d8a9 69be
00000060: 2ba2 07be 45d3 ce3e fbaf ba3d 538f 1fbe
00000070: 6ccf 98be 5c31 693e c484 d13e c630 823e
00000080: 4f13 c3bc d3af 8dbe 6f43 453e 7ba5 8ebd
00000090: 6ee3 4abe 1c93 2e3e a9e0 c63e d6c0 9bbd
000000a0: bac7 91be 5418 803e 21f7 a53d 6c62 603e
000000b0: cbb1 85bc cbcf 83be 6c37 d33d 1bb0 9f3e
000000c0: 7a2b f8be 9011 893e c25e c03e 41fb b23e
000000d0: 8e45 8bbc ffc5 8b3d 6004 8c3e f674 babe
000000e0: fb5a 2b3e a2df c23e a60a b8be 46f1 a1be
000000f0: 2e86 463e 08ce b2bd 7fce 893e 46d6 c2be
00000100: d14e 923d 6f4f 92bd 8a80 963e ac19 313d
00000110: 9ebc c5bd 9a2c 003e 8a76 b33e ff62 64bd
00000120: 5e06 2fbd b810 2e3e b9f1 5fbd ae9b 4abe
00000130: 18aa 97be 3d4e 9cbe 084b bf3e 64dc 7fbe
00000140: 6b08 6d3e 42cc 85be 00c0 82be 47b6 04be
00000150: 65d1 e1be 3c41 483d 717d bb3e 61e6 35be
00000160: 4f99 1a3e 0394 b7be 79f1 2e3e 666a 2bbd
00000170: 65d5 b23e c60d 8bbe e525 8dbe 1172 003e
00000180: b935 633e 0463 643d d04c 8cbe 1d32 46be
00000190: 50db 98be 06f1 b33e b7fb 82be 09be 863e
000001a0: 904c 013d 3d10 a53e 61f0 c0be e6a8 58be
000001b0: 7fee bfbe f172 983e cc7c a83e b001 bd3e
000001c0: b03a 813e fee3 a2be f9a5 3f3b 0263 f8bd
000001d0: cfae b7be 2a14 b7be c6b4 6d3d 0f69 b13d
000001e0: cd16 24be 602b 6f3e 4aa1 97bd 7605 23be
000001f0: 8b17 a73e 1aae b6be 6f9b 933e c05f a9be

conv2_1.0.weight f4 [8, 8, 1, 1, 1]
0.44524518 0.3013105 0.21387549 0.1645656 -0.18708129 0.26695338 -0.0010804666 -0.40649164
-0.04675841 -0.08328216 0.42256385 -0.39890754 0.50041664 0.15036646 0.51054645 0.26608577
0.40603223 -0.06503332 -0.018908514 0.2050643 0.33041143 -0.4559389 0.51480335 -0.4103144
-0.48804393 0.33390912 0.06243101 0.122587755 -0.18252464 0.22671881 -0.20612249 -0.1337343
0.5998868 -0.0736577 0.37783262 -0.09497925 0.2128697 0.090460256 -0.25417605 -0.261942
0.36012945 0.49538407 -0.13536952 -0.0040101074 0.4097841 0.08803139 0.34002036 -0.46749574
-0.34982437 0.1254625 0.13887987 -0.43398216 0.445831 0.16693845 -0.25649238 -0.22250223
-0.26609373 0.50116235 -0.07011012 0.054808233 -0.017118592 -0.19807377 -0.034652274 0.070650645
00000000: 2df7 e33e 5f45 9a3e 2d02 5b3e e283 283e
00000010: 3d92 3fbe 1dae 883e 719e 8dba ac1f d0be
00000020: bf85 3fbd d68f aabd 4a5a d83e 9c3d ccbe
00000030: 4e1b 003f aaf9 193e 2cb3 023f 653c 883e
00000040: 75e3 cf3e 3030 85bd 07e6 9abc 60fc 513e
00000050: b02b a93e d370 e9be 27ca 033f bb14 d2be
00000060: e5e0 f9be 23f6 aa3e a9b7 7f3d 4a0f fb3d
00000070: bde7 3abe fa28 683e c611 53be a5f1 08be
00000080: 2e92 193f d9d9 96bd 4773 c13e 7b84 c2bd
00000090: 84fa 593e 3a43 b93d 5d23 82be 431d 86be
000000a0: e362 b83e fba2 fd3e 4f9e 0abe 3867 83bb
000000b0: 39cf d13e cd49 b43d 2617 ae3e 9a5b efbe
000000c0: 2e1c b3be 3e79 003e 8636 0e3e e932 debe
000000d0: f643 e43e eaf1 2a3e f852 83be a0d7 63be
000000e0: 703d 88be 2d4c 003f e595 8fbd 997e 603d
000000f0: 4a3c 8cbc dad3 4abe 8bef 0dbd 49b1 903d

conv2_1.0.bias f4 [8]
-0.1955971 0.032211013 -0.06544728 -0.17074527 -0.18636473 -0.42897198 -0.0037589532 -0.08105385
00000000: 9b4a 48be b2ef 033d 3909 86bd d9d7 2ebe
00000010: 65d6 3ebe 37a2 dbbe c558 76bb 90ff a5bd

conv2_1.2.weight f4 [8, 8, 3, 3, 3]
-0.088658586 -0.036389098 -0.07131844 -0.064254984 0.09323757 -0.06012755 -0.00983162 -0.072776765
0.07573538 0.008779702 0.030456733 -0.06717127 0.071212776 0.06808904 -0.06855492 -0.0060179266
0.01418207 0.03219378 0.008387028 -0.088603474 0.014289632 0.04733749 0.015444661 -0.08973546
0.06193252 -0.0077061285 0.056301165 0.008731169 -0.014387091 0.016219117 0.033550404 -0.042831253
0.08550153 0.03479986 -0.08428089 -0.10211666 -0.046371136 0.050426245 0.10253327 0.056467723
-0.041107684 0.0729616 0.098053165 -0.019409912 0.050966557 0.035611246 0.075048566 -0.10286262
-0.04793295 -0.02697859 0.017204592 0.03532729 0.06273952 0.004548612 -0.030257126 -0.017593538
-0.025520386 -0.043613482 -0.021769922 -0.07815005 0.041221686 -0.11877125 -0.073774315 -0.036776852
-0.012921811 0.023356078 -0.00456037 0.0037997398 -0.061463565 -0.021990081 0.026503066 0.056019112
-0.076565586 -0.11278829 -0.0442861 0.06395942 -0.012230959 0.05652695 -0.055065352 0.058085404
-0.10338654 0.0031519572 0.049808726 -0.041450217 0.08793354 0.031985182 -0.08188692 0.012297584
-0.036141217 -0.06412769 -0.07258201 -0.058074914 -0.014686035 -0.018877039 -0.06673238 0.090159446
-0.046632282 0.078815356 0.060848847 0.025750611 0.083495505 -0.06140509 -0.028392585 -0.060634624
0.091827564 0.020324567 -0.08159119 -0.04860913 -0.011101291 -0.074206546 -0.0013433357 -0.07325624
0.018819973 0.07305524 0.023692729 0.013730496 -0.080510505 0.0025972163 -0.030489234 0.098620616
0.041357223 0.09031984 0.10673159 -0.0134381 0.10129244 -0.0066493903 -0.06181319 -0.039163087
-0.068924874 0.07132842 -0.020024825 -0.03237228 -0.11586734 -0.083868265 -0.037227847 0.05727862
-0.08646091 -0.0906606 -0.042959724 -0.0972404 -0.031475157 0.012092191 0.019755023 -0.020040546
-0.046360496 0.003771983 -0.01579571 0.06190032 0.067214794 0.03216478 -0.06328954 -0.05569532
-0.06455779 -0.11183822 -0.104569845 0.030249028 -0.024776809 0.01098172 0.0029903245 0.029062005
-0.09219483 0.04794672 0.0906325 0.009099508 -0.03161271 0.04286285 -0.0032574495 0.031737722
-0.051056914 -0.098492496 -0.028681675 -0.03090106 0.020014904 0.08726743 0.08955415 0.090507746
0.0020215418 0.096861 -0.06861777 0.07507692 -0.07289259 0.033129536 0.050463527 -0.079514585
-0.04295866 0.027919797 0.026364746 -0.0011366396 -0.071718596 -0.047768187 -0.051356293 -0.011527317
-0.06172417 -0.026822185 -0.009011202 -0.04071179 0.09180401 0.063190185 0.027685273 0.08814836
0.036546823 -0.096418545 0.0067988336 -0.07458263 -0.06792062 -0.013035846 0.016908566 -0.09272813
0.08537451 0.0461732 0.05850855 -0.02977894 -0.023119984 -0.058104035 0.074817404 -0.003775384
-0.07185475 0.038726773 -0.057270702 0.08595857 -0.050231274 0.04579602 0.06035897 0.06574898
-0.077306464 -0.053031642 0.05388803 0.076166004 -0.064250045 -0.06847863 0.08809717 -0.003557613
0.03904096 0.020149013 -0.09516342 -0.06637577 -0.003393922 -0.04976607 0.07076945 -0.0140434485
-0.07582608 -0.055087764 0.009597317 0.068626955 0.09423808 0.032173198 0.033130996 0.016909016
0.017651582 -0.034277298 0.0809186 0.07561484 0.06582861 -0.0059389994 0.023523197 -0.06387361
00000000: a292 b5bd bc0c 15bd 670f 92bd 1e98 83bd
00000010: 57f3 be3d 4e48 76bd ce14 21bc fc0b 95bd
00000020: 271b 9b3d bdd8 0f3c 6680 f93c 1791 89bd
00000030: 01d8 913d 4472 8b3d 8666 8cbd 0732 c5bb
00000040: ea5b 683c a0dd 033d bf69 093c bd75 b5bd
00000050: 101f 6a3c f5e4 413d 9a0b 7d3c 3ac7 b7bd
00000060: f4ac 7d3d b183 fcbb 0d9c 663d 2d0d 0f3c
00000070: d5b7 6bbc f4dd 843c 266c 093d d36f 2fbd
00000080: 6d1b af3d 4c8a 0e3d 769b acbd 8a22 d1bd
00000090: a9ef 3dbd c08b 4e3d f7fc d13d b34a 673d
000000a0: 8860 28bd e46c 953d 19d0 c83d 8901 9fbc
000000b0: 4fc2 503d 19dd 113d 10b3 993d a3a9 d2bd
000000c0: 5755 44bd 3402 ddbc a5f0 8c3c 59b3 103d
000000d0: 947d 803d 860c 953b cbdd f7bc 5320 90bc
000000e0: 2110 d1bc 0da4 32bd d656 b2bc 220d a0bd
000000f0: 12d8 283d 573e f3bd fd16 97bd 53a3 16bd
00000100: 01b6 53bc 3f55 bf3c 286f 95bb 0e05 793b
00000110: 38c1 7bbd 8b24 b4bc f51c d93c 4c74 653d
00000120: 6bce 9cbd 8cfd e6bd 5765 35bd 28fd 823d
00000130: 5c64 48bc ce88 673d 358c 61bd f6ea 6d3d
00000140: 53bc d3bd 1191 4e3b 3c04 4c3d b4c7 29bd
00000150: 8016 b43d e502 033d 54b4 a7bd ce7b 493c
00000160: d008 14bd 6155 83bd e0a5 94bd f6df 6dbd
00000170: b29d 70bc 05a4 9abc fcaa 88bd 84a5 b83d
00000180: 7e01 3fbd f269 a13d a43c 793d f2f2 d23c
00000190: b1ff aa3d e783 7bbd 9197 e8bc 035c 78bd
000001a0: 1710 bc3d b57f a63c 4819 a7bd 5e1a 47bd
000001b0: 30e2 35bc 9af9 97bd de12 b0ba 5e07 96bd
000001c0: 582c 9a3c fc9d 953d 4117 c23c e0f5 603c
000001d0: b1e2 a4bd 0f36 2a3b 8fc4 f9bc 9bf9 c93d
000001e0: 3166 293d 9cf9 b83d 1896 da3d 7a2b 5cbc
000001f0: 6972 cf3d 21e3 d9bb d42f 7dbd 7969 20bd
00000200: 7c28 8dbd a214 923d 1a0b a4bc cc98 04bd
00000210: db4b edbd 20c3 abbd 3a7c 18bd fc9c 6a3d
00000220: 6b12 b1bd 44ac b9bd 89f6 2fbd fa25 c7bd
00000230: 18ec 00bd 531e 463c 49d5 a13c 122c a4bc
00000240: 81e4 3dbd 6033 773b 0166 81bc 318b 7d3d
00000250: e9a7 893d 37bf 033d f29d 81bd c720 64bd
00000260: e036 84bd 700b e5bd b728 d6bd cfcc f73c
00000270: bcf8 cabc acec 333c 52f9 433b 7113 ee3c
00000280: a5d0 bcbd c863 443d 889d b93d 1a16 153c
00000290: 547c 01bd f590 2f3d ef7a 55bb 6aff 013d
000002a0: 0e21 51bd 6fb6 c9bd d5f5 eabc 3824 fdbc
000002b0: 4cf6 a33c 44b9 b23d 2b68 b73d 205c b93d
000002c0: d87b 043b 0f5f c63d 7987 8cbd eec1 993d
000002d0: b648 95bd d6b2 073d d8b2 4e3d 8bd8 a2bd
000002e0: 6bf5 2fbd 0fb8 e43c e1fa d73c 4cfb 94ba
000002f0: 33e1 92bd 93a8 43bd fa5a 52bd 12dd 3cbc
00000300: 7cd2 7cbd 33ba dbbc b8a3 13bc 68c1 26bd
00000310: be03 bc3d db69 813d 3acc e23c 2187 b43d
00000320: 1fb2 153d 1677 c5bd c0c8 de3b c7be 98bd
00000330: f719 8bbd 4d94 55bc d583 8a3c 3fe8 bdbd
00000340: d5d8 ae3d 1c20 3d3d a9a6 6f3d f7f2 f3bc
00000350: 1f66 bdbc 7ffe 6dbd de39 993d 6f6c 77bb
00000360: 9528 93bd f79f 1e3d af94 6abd 0c0b b03d
00000370: 4fbf 4dbd 9c94 3b3d f83a 773d 67a7 863d
00000380: da52 9ebd b537 59bd b2b9 5c3d ecfc 9b3d
00000390: 8795 83bd 863e 8cbd 4a6c b43d d726 69bb
000003a0: 6ae9 1f3d 8b0f a53c 0ae5 c2bd 05f0 87bd
000003b0: 906c 5ebb 82d7 4bbd 93ef 903d 7e16 66bc
000003c0: b44a 9bbd b5a3 61bd 113e 1d3c 4a8c 8c3d
000003d0: e5ff c03d 0bc8 033d 5eb4 073d c784 8a3c
000003e0: 0d9a 903c 5a66 0cbd a7b8 a53d f4db 9a3d
000003f0: 26d1 863d f09b c2bb b8b3 c03c 2bd0 82bd

conv2_1.2.bias f4 [8]
-0.015706517 0.008201361 0.012035518 0.07495494 -0.004310758 -0.04684884 -0.08923928 -0.08905747
00000000: f4aa 80bc 005f 063c 9f30 453c fa81 993d
00000010: 4241 8dbb 92e4 3fbd 15c3 b6bd c363 b6bd

conv2_1.4.weight f4 [16, 8, 1, 1, 1]
0.21774592 0.10875532 -0.4004405 0.27628997 -0.0572006 -0.108370855 -0.29463175 -0.25682846
0.15846378 0.23117074 0.22987182 0.4029148 -0.11806753 0.27020398 0.2819736 0.5443931
0.3125619 -0.083393514 0.0414163 0.29584357 0.24665268 -0.2251935 0.05235505 0.20153971
0.25754866 0.29708505 0.03687481 0.11572066 -0.05298032 0.40270993 -0.1365979 -0.32790118
0.10388707 -0.076606505 -0.31329718 0.33881328 -0.09966548 0.082603805 0.0020508019 -0.33524093
0.25456125 0.13806589 0.05792773 0.08749387 0.31875265 0.0810193 0.0095891645 0.3312658
0.36147094 0.29391366 0.108139634 0.23583719 0.20210433 0.013516811 -0.01563366 -0.28022444
0.3347326 0.30456743 -0.049971443 -0.12817764 0.3292465 -0.39966324 -0.39407244 0.031075222
-0.09864503 0.08344438 -0.31266302 0.3341337 -0.3949773 -0.035089474 -0.37313277 0.13426647
0.30967072 -0.28993344 -0.035626944 0.10578455 -0.36211145 0.25156847 0.06959908 -0.32084176
-0.034343343 0.3467895 -0.24432896 -0.18153054 -0.2829434 -0.0052828314 -0.23684545 0.34082472
0.13633682 0.12732238 -0.2706217 -0.25521556 0.1801225 0.16381302 0.33640677 0.19089632
0.15142232 -0.24337997 0.20616242 -0.09523747 -0.29188606 0.35395387 -0.23769996 -0.11879967
-0.04447583 0.14738345 -0.38818982 -0.29956022 0.2639145 0.39410886 0.19904764 -0.40146622
-0.19735636 0.38446134 -0.21184897 -0.09009834 0.2632711 0.047932554 -0.18661857 -0.40467992
0.20813346 0.20310624 -0.3164081 -0.031962488 -0.021401616 -0.041812316 0.04872417 0.22383174
00000000: c9f8 5e3e 1cbb de3d 8a06 cdbe e175 8d3e
00000010: 2d4b 6abd 8af1 ddbd f9d9 96be 057f 83be
00000020: 5444 223e 06b8 6c3e 8563 6b3e d94a ce3e
00000030: 64cd f1bd 2d58 8a3e d85e 903e 595d 0b3f
00000040: 1d08 a03e 38ca aabd 23a4 293d cf78 973e
00000050: 8592 7c3e 2099 66be 4072 563d 6d60 4e3e
00000060: 6bdd 833e 881b 983e 0a0a 173d f4fe ec3d
00000070: e401 59bd ff2f ce3e 52e0 0bbe aae2 a7be
00000080: bfc2 d43d dfe3 9cbd 7d68 a0be ef78 ad3e
00000090: 6a1d ccbd 2f2c a93d bf66 063b b3a4 abbe
000000a0: da55 823e 2561 0d3e a145 6d3d fc2f b33d
000000b0: 8c33 a33e 72ed a53d df1b 1d3c ac9b a93e
000000c0: b812 b93e da7b 963e 5078 dd3d 4e7f 713e
000000d0: 70f4 4e3e 9d75 5d3c 2912 80bc 9479 8fbe
000000e0: 1262 ab3e 43f0 9b3e dbae 4cbd 0041 03be
000000f0: ff92 a83e a9a0 ccbe ddc3 c9be 7791 fe3c
00000100: 6806 cabd e3e4 aa3d 5e15 a0be 9313 ab3e
00000110: 773a cabe fbb9 0fbd 420b bfbe 267d 093e
00000120: 298d 9e3e 2872 94be 8fed 11bd 92a5 d83d
00000130: ac66 b9be 95cd 803e f689 8e3d 5f45 a4be
00000140: 9bab 0cbd 658e b13e 5f31 7abe 24e3 39be
00000150: f5dd 90be 9a1b adbb 9d87 72be 9480 ae3e
00000160: e19b 0b3e cc60 023e ed8e 8abe 9dab 82be
00000170: 0872 383e 9abe 273e 823d ac3e 537a 433e
00000180: 740e 1b3e 9938 79be 3e1c 533e dd0b c3bd
00000190: 1772 95be 7139 b53e 9e67 73be 3e4d f3bd
000001a0: 4a2c 36bd b0eb 163e d1c0 c6be f55f 99be
000001b0: cd1f 873e a3c8 c93e 25d3 4b3e fb8c cdbe
000001c0: c917 4abe 1ed8 c43e f0ee 58be 7a85 b8bd
000001d0: 78cb 863e ed54 443d f018 3fbe 3532 cfbe
000001e0: f020 553e 15fb 4f3e 3e00 a2be 19eb 02bd
000001f0: 7152 afbc 6443 2bbd ff92 473d 2634 653e

conv2_1.4.bias f4 [16]
-0.28969005 -0.048112165 0.24285205 -0.22413726 0.16570072 -0.40065742 0.11038967 -0.1862625
0.08175325 0.18430485 0.322377 0.0047185957 0.37799188 0.20941973 -0.022433225 -0.19800282
00000000: 4152 94be 4311 45bd 35ae 783e 3d84 65be
00000010: 73ad 293e f822 cdbe fb13 e23d 99bb 3ebe
00000020: 3f6e a73d 69ba 3c3e 990e a53e 739e 9a3b
00000030: 2788 c13e 2072 563e e2c5 b7bc 40c1 4abe

pool2.weight f4 [8, 1, 7, 7, 7]
0.0025565166 -0.026037429 -0.02299103 0.0117793055 -0.03772605 -0.015835961 -0.025941508 -0.008569
0.007528907 0.011554514 0.012349359 0.010460539 -0.042713664 0.012372117 0.001486034 -0.035235964
0.012311011 -0.02176878 0.0014373276 -0.043783024 -0.0342254 0.0033304775 0.008790713 0.018687924
-0.0149578 -0.035453316 0.027901897 -0.0301602 0.00050206686 0.011739602 -0.026394218 0.0029685595
-0.0065345997 0.0062771677 -0.03419135 -0.02042368 -0.011173228 -0.022062514 0.032275308 0.04196157
0.008109662 0.028436523 0.031408787 -0.012401848 -0.0035429818 0.013303789 0.021010017 0.028291577
-0.01861712 -0.035213828 0.0068670628 -0.008157129 0.0049867528 0.001488782 -0.018757414 -0.041273683
-0.039435852 -0.036681384 -0.046656307 -0.0037471736 -0.009705452 -0.023280898 -0.040148083 -0.02945622
-0.014063776 -0.016745107 0.00930101 -0.048870455 -0.031074602 -0.045241203 -0.041590698 -0.034028072
0.0036175207 -0.005844304 0.0027557246 0.023159325 -0.0032438275 -0.00861492 -0.013437813 -0.008766286
0.039242264 -0.022755895 -0.020999141 -0.008767432 0.032079037 0.00071512436 0.015303492 0.011267684
0.022700442 0.0101903025 0.007729868 0.02229574 0.01762028 0.0103274165 0.005638659 0.011152312
0.020702811 0.009870295 0.016709879 -0.023278156 0.021770256 0.006780542 -0.016835045 0.023812726
-0.045852505 -0.051591862 -0.009988026 -0.0006215071 -0.0316617 -0.030428857 -0.023632959 -0.038229205
-0.05025305 -0.005222073 -0.022400044 -0.01736659 -0.04533525 -0.002356394 -0.008351586 0.0045475704
0.007926433 0.024684586 0.014125234 -0.0070558577 -0.017733539 -0.042943202 0.008681736 -0.00808706
-0.014470667 -0.015369086 0.011226258 0.0053470493 0.01282486 0.015193167 -0.019535512 0.042574737
0.023155574 0.009874956 -0.010218123 0.027011491 0.023981776 0.042670544 0.011403529 -0.0037418643
0.033004828 0.047068022 -0.0041611264 0.01114655 -0.003797737 0.0058443993 0.019402932 -0.03944477
-0.038222153 -0.034791887 -0.04715323 -0.0011303475 0.008947557 -0.0058052028 -0.03244647 -0.0051561994
-0.026592968 -0.05055353 0.0012781328 -0.048823964 -0.014139083 -0.036294095 -0.030166322 0.011228616
-0.03856419 0.009539239 -0.01822603 -0.027148312 0.022474756 0.012062365 -0.03919657 -0.025250368
0.029810742 0.011159726 0.030994395 0.006985175 -0.012359888 0.017159887 0.0176715 0.022798043
0.026725063 -0.014002459 0.016282765 0.033327747 -0.009397646 0.02353068 0.0434325 0.042486317
0.025458332 0.017939512 0.009886455 0.046025403 -0.0031574138 0.0049035265 -0.017006801 -0.032635354
0.014001647 0.0166896 0.02010467 -0.011442867 -0.02625709 -0.039161354 0.0020246133 -0.030530877
-0.011478824 -0.009388682 -0.011376378 0.0055468557 -0.0034565122 -0.044018947 -0.019162687 -0.045236565
-0.05237872 -0.02804468 0.012796759 -0.0017214405 0.02045315 -0.0003429775 0.013406266 -0.0018649871
-0.018658979 0.009034248 -0.012539885 -0.00062215584 0.02670236 -0.0070350613 0.013960562 -0.014626359
-0.017773658 0.033813726 0.031845577 -0.0028513486 0.033742975 0.00848561 0.04307838 -0.0020788577
-0.014483741 -0.0041850936 -0.007597497 0.033919085 0.02985892 -0.022485329 -0.0066664633 -0.0445711
-0.043634154 -0.0019201542 0.0048236977 -0.040822454 -0.010416616 0.018041708 0.009861785 -0.008581813
00000000: 3b8b 273b 724c d5bc af57 bcbc fdfd 403c
00000010: a186 1abd 6bba 81bc 4983 d4bc fe64 0cbc
00000020: 0db5 f63b 254f 3d3c f754 4a3c ae62 2b3c
00000030: 86f4 2ebd 6bb4 4a3c 07c7 c23a 9653 10bd
00000040: 1fb4 493c 7154 b2bc b664 bc3a d455 33bd
00000050: ef2f 0cbd 2444 5a3b ec06 103c 6b17 993c
00000060: 8f11 75bc 7f37 11bd 8592 e43c 8612 f7bc
00000070: 239d 033a 7657 403c b038 d8bc 2a8c 423b
00000080: 3220 d6bb b3b0 cd3b 3b0c 0cbd 904f a7bc
00000090: ea0f 37bc 72bc b4bc 1d33 043d e5df 2b3d
000000a0: 63de 043c b6f3 e83c 80a6 003d 1f31 4bbc
000000b0: 5f31 68bb 23f8 593c 331d ac3c bdc3 e73c
000000c0: ee82 98bc 603c 10bd 1905 e13b 7ba5 05bc
000000d0: ea67 a33b 3c23 c33a 26a9 99bc 980e 29bd
000000e0: 7d87 21bd 383f 16bd af1a 3fbd 2493 75bb
000000f0: 9e03 1fbc 95b7 bebc 5172 24bd 2c4e f1bc
00000100: c06b 66bc 092d 89bc 4363 183c 632c 48bd
00000110: 2a90 febc d74e 39bd 025b 2abd 0561 0bbd
00000120: ed13 6d3b 9381 bfbb 6399 343b a0b8 bd3c
00000130: 6596 54bb 9825 0dbc 462a 5cbc 78a0 0fbc
00000140: 7fbc 203d 926a babc 6406 acbc 46a5 0fbc
00000150: 4f65 033d 2f77 3b3a 7fbb 7a3c 189c 383c
00000160: 47f6 b93c 3af5 263c d54a fd3b 8ea5 b63c
00000170: 6858 903c 5334 293c 80c4 b83b 30b8 363c
00000180: f198 a93c 05b7 213c 28e3 883c d5b1 bebc
00000190: 8957 b23c 4f2f de3b a6e9 89bc e812 c33c
000001a0: d6cf 3bbd fd51 53bd d1a4 23bc a3ec 22ba
000001b0: b3af 01bd f045 f9bc e899 c1bc 3a96 1cbd
000001c0: 24d6 4dbd ec1d abbb 4c80 b7bc 6144 8ebc
000001d0: 75b1 39bd bb6d 1abb 17d5 08bc c903 953b
000001e0: dfdd 013c 5437 ca3c 876d 673c d334 e7bb
000001f0: ed45 91bc 36e5 2fbd d73d 0e3c 977f 04bc
00000200: 6016 6dbc 9ece 7bbc 57ee 373c 4d36 af3b
00000210: 5d1f 523c c3ec 783c f008 a0bc d962 2e3d
00000220: c2b0 bd3c 91ca 213c ea69 27bc 3447 dd3c
00000230: 6e75 c43c 4fc7 2e3d ded5 3a3c 113a 75bb
00000240: 1230 073d 66ca 403d 0f5a 88bb 05a0 363c
00000250: 74e3 78bb 6082 bf3b e6f2 9e3c d790 21bd
00000260: d58e 1cbd f081 0ebd bf23 41bd 2b28 94ba
00000270: c698 123c 9239 bebb 97e6 04bd 56f5 a8bb
00000280: 7fd9 d9bc 3811 4fbd 0587 a73a a3fb 47bd
00000290: 9da7 67bc 1ea9 14bd 5d1f f7bc 3bf8 373c
000002a0: 7cf5 1dbd 784a 1c3c c14e 95bc 2366 debc
000002b0: fb1c b83c 3aa1 453c 958c 20bd dcd9 cebc
000002c0: a835 f43c 49d7 363c f5e7 fd3c e5e3 e43b
000002d0: 2181 4abc e492 8c3c d2c3 903c f6c2 ba3c
000002e0: 85ee da3c 926a 65bc 6f63 853c ad82 083d
000002f0: 96f8 19bc 6ac3 c03c 47e6 313d 2206 2e3d
00000300: fe8d d03c e2f5 923c ccfa 213c 2285 3c3d
00000310: 9dec 4ebb c3ad a03b d951 8bbc a6ac 05bd
00000320: 2a67 653c a1b8 883c 8db2 a43c dd7a 3bbc
00000330: 1c19 d7bc a867 20bd 60af 043b e41b fabc
00000340: ad11 3cbc fdd2 19bc fd63 3abc 66c2 b53b
00000350: a786 62bb 364d 34bd 11fb 9cbc fa49 39bd
00000360: 128b 56bd f5bd e5bc 7fa9 513c f5a1 e1ba
00000370: 5d8d a73c a9d1 b3b9 f5a5 5b3c 9572 f4ba
00000380: b7da 98bc 6204 143c 1774 4dbc 2c18 23ba
00000390: e8be da3c 5f86 e6bb d7ba 643c 65a3 6fbc
000003a0: 109a 91bc 4380 0a3d 8270 023d b1dd 3abb
000003b0: 1336 0a3d 3a07 0b3c f572 303d 723d 08bb
000003c0: 364d 6dbc 1c23 89bb 6df4 f8bb bdee 0a3d
000003d0: b29a f43c 2733 b8bc 5972 dabb 3090 36bd
000003e0: bab9 32bd afad fbba 1c10 9e3b 7235 27bd
000003f0: 74aa 2abc 34cc 933c 5393 213c bc9a 0cbc

pool2.bias f4 [8]
-0.004746401 0.00070697704 -0.0012241958 -0.009160299 -0.006613206 -0.046659213 -0.060742624 -0.0007808463
00000000: b387 9bbb 6d54 393a 3275 a0ba 1415 16bc
00000010: 98b3 d8bb bb1d 3fbd 42cd 78bd b5b1 4cba

reduction2_2.weight f4 [16, 8, 1, 1, 1]
-0.1543797 -0.29392135 -0.19750263 -0.04077673 -0.22070396 0.3099245 0.13822034 0.048839636
0.30942765 0.38188827 0.23924577 0.099569075 0.2516464 -0.14102322 -0.3444203 0.19050612
-0.018071977 -0.35697445 0.03856261 -0.30959514 -0.13830228 0.22347881 0.17952457 0.17775084
0.015744813 0.04564299 0.068827376 -0.29295895 0.33419874 -0.17027181 -0.29108906 0.3190254
-0.38175917 -0.13631228 -0.017905004 0.27144474 -0.005483751 -0.37865773 -0.34844264 -0.29474422
-0.4104235 -0.27509087 -0.40620434 0.14270398 -0.13620602 0.37817523 0.14187348 -0.06550148
0.0789881 0.029570267 0.22734857 -0.32001522 -0.2343148 0.40640077 0.34295163 -0.40085104
-0.101330996 0.30452067 0.3289171 -0.4009638 -0.35834065 0.106827036 0.280465 -0.15119661
-0.28301337 0.23926654 0.12248412 -0.25019264 -0.20304279 0.06915962 0.30964202 -0.066007785
0.37442166 0.39017233 0.32394654 0.3599205 0.3635179 -0.31996557 0.2240351 -0.0055750636
0.2431746 -0.23197545 -0.0005891513 0.3642556 0.12831914 -0.02009803 -0.34625632 -0.3775415
-0.1369785 0.0093555525 0.15916517 0.025685253 0.17364101 -0.10237634 0.21755643 0.26379293
-0.08742027 0.10331958 0.028580306 -0.015045917 -0.1024493 -0.30428895 0.34867758 0.3251183
0.30531138 0.25361773 0.18060172 0.035088968 -0.0563656 -0.14097695 0.03072845 0.23478091
0.18026556 -0.39251837 -0.003341915 0.30693105 -0.18341394 -0.20818445 -0.39844424 -0.32074887
-0.35787857 0.28140858 0.1855294 -0.03526229 0.059995227 0.024518784 0.1285732 -0.27243674
00000000: b615 1ebe dc7c 96be 213e 4abe 8005 27bd
00000010: 3800 62be 6dae 9e3e a289 0d3e 120c 483d
00000020: 4d6d 9e3e dc86 c33e d8fc 743e dfea cb3d
00000030: ccd7 803e 6468 10be dc57 b0be 0914 433e
00000040: af0b 94bc 5bc5 b6be d4f3 1d3d 4183 9ebe
00000050: 1d9f 0dbe a1d7 643e 4ad5 373e 5104 363e
00000060: 44fb 803c 25f4 3a3d 5ef5 8c3d b7fe 95be
00000070: 191c ab3e bc5b 2ebe a009 95be 4c57 a33e
00000080: f075 c3be 7295 0bbe 84ad 92bc cefa 8a3e
00000090: 0ab1 b3bb 6ddf c1be 1367 b2be b7e8 96be
000000a0: 0723 d2be b6d8 8cbe 04fa cfbe fe20 123e
000000b0: 9779 0bbe 2fa0 c13e 4847 113e a425 86bd
000000c0: 83c4 a13d 583d f23c 10ce 683e 09d9 a3be
000000d0: 38f0 6fbe c313 d03e 5b97 af3e 593c cdbe
000000e0: a086 cfbd 22ea 9b3e d267 a83e 214b cdbe
000000f0: 6d78 b7be 22c8 da3d 1c99 8f3e 49d3 1abe
00000100: 21e7 90be 4a02 753e f4d8 fa3d 4019 80be
00000110: 73ea 4fbe 8fa3 8d3d 6689 9e3e 172f 87bd
00000120: 32b4 bf3e abc4 c73e 52dc a53e 8047 b83e
00000130: 051f ba3e 87d2 a3be 7569 653e 06af b6bb
00000140: c302 793e f98a 6dbe 4671 1aba b67f ba3e
00000150: 1866 033e a0a4 a4bc 8248 b1be 1f4d c1be
00000160: 1844 0cbe 0848 193c 32fc 223e e169 d23c
00000170: f3ce 313e b0aa d1bd 1dc7 5e3e de0f 873e
00000180: 6609 b3bd 3799 d33d 3f21 ea3c 2683 76bc
00000190: f0d0 d1bd c3cb 9bbe de85 b23e e875 a63e
000001a0: c651 9c3e 2fda 813e a8ef 383e 73b9 0f3d
000001b0: 9edf 66bd 435c 10be 3bba fb3c 686a 703e
000001c0: 8997 383e 2bf8 c8be 0804 5bbb 1126 9d3e
000001d0: ddd0 3bbe 4e2e 55be e200 ccbe 3239 a4be
000001e0: dc3b b7be c914 903e 6bfb 3d3e 316f 10bd
000001f0: 8ebd 753d 9edb c83c b1a8 033e d47c 8bbe

conv2_2.0.weight f4 [8, 8, 1, 1, 1]
0.36528012 -0.13109674 -0.1000608 -0.21420684 -0.18728279 0.037252612 -0.3494508 -0.38425153
0.13121627 -0.3264386 -0.015672665 -0.11538833 0.06428525 -0.24057515 -0.41130725 -0.42195144
0.028989498 0.2644672 -0.30061844 0.4518882 0.049105667 0.3301703 -0.37331548 -0.4079496
0.11520763 0.2426103 0.47013602 -0.06560471 -0.4044124 -0.3518835 0.22617242 -0.20775047
0.44495034 -0.44826895 -0.4060782 -0.063073255 0.41693154 0.10376182 -0.45614633 -0.42118675
-0.18917632 0.15838411 0.15634353 -0.3843334 0.28741625 0.20264696 0.12684134 0.074699454
0.25060463 0.42089152 -0.2320723 -0.36226016 -0.083814874 -0.47624445 0.37860462 0.16508907
0.32239342 -0.30975243 0.17213307 0.37814054 0.28567946 -0.04599065 -0.24571045 -0.21767958
00000000: ff05 bb3e 393e 06be adec ccbd 0a59 5bbe
00000010: 0fc7 3fbe 3296 183d 37eb b2be 9ebc c4be
00000020: 8f5d 063e f622 a7be f663 80bc b750 ecbd
00000030: fca7 833d 5559 76be dd96 d2be 050a d8be
00000040: 627b ed3c 3f68 873e a9ea 99be e45d e73e
00000050: 0623 493d 150c a93e 3523 bfbe c5de d0be
00000060: faf1 eb3d d66e 783e abb5 f03e c35b 86bd
00000070: 240f cfbe 132a b4be be99 673e 8abc 54be
00000080: 88d0 e33e 8283 e5be 7be9 cfbe 8d2c 81bd
00000090: 0d78 d53e 1481 d43d 038c e9be caa5 d7be
000000a0: 70b7 41be 722f 223e 8518 203e 59c7 c4be
000000b0: 3928 933e af82 4f3e b2e2 013e 07fc 983d
000000c0: 404f 803e 187f d73e 5ca4 6dbe 2a7a b9be
000000d0: 22a7 abbd 50d6 f3be 77d8 c13e 1c0d 293e
000000e0: c010 a53e df97 9ebe a743 303e a39b c13e
000000f0: 9444 923e b160 3cbd 859b 7bbe 65e7 5ebe

conv2_2.0.bias f4 [8]
0.19272022 -0.22928303 0.22451057 -0.1985589 0.27038297 -0.17563146 0.112941585 -0.057062227
00000000: 7358 453e 2cc9 6abe 19e6 653e 0653 4bbe
00000010: a36f 8a3e bcd8 33be eb4d e73d 15ba 69bd

conv2_2.2.weight f4 [8, 8, 3, 3, 3]
0.09839714 -0.022381071 -0.055025958 0.086878195 -0.058320098 -0.06388422 0.06725331 0.01654669
-0.062107477 0.042491347 -0.070434965 0.016521713 0.06872697 -0.010182681 -0.0864755 -0.036182094
-0.014479611 -0.04122586 0.04698252 -0.03719805 0.09796362 -0.08398399 0.046916828 0.012123862
0.03941533 -0.059166994 -0.023507113 0.0073717553 0.010674963 0.06714028 -0.06575514 -0.060040325
0.058494538 -0.082655266 0.095840946 0.039568435 0.06673242 -0.042458735 0.07439095 0.096324
0.07902608 0.0367693 0.036698386 -0.07548745 -0.016377434 0.0047993497 0.0360365 0.029988497
-0.051370315 -0.0787848 -0.073142275 0.065354906 0.07739351 0.08989701 0.06602361 -0.09028913
-0.039580178 0.051184006 -0.06429181 0.055190235 0.06162563 0.0668663 0.014909598 -0.09216678
0.01375321 0.0319784 -0.094574235 0.0420786 -0.027827945 0.025618076 -0.019738156 -0.037231263
0.09145971 -0.05935622 0.0077722566 -0.062998064 -0.037622754 -0.0314338 0.028255401 -0.002831227
0.065334976 0.0074980296 -0.0050542364 -0.0026884463 0.074820764 0.061900217 -0.01850012 -0.09060369
0.05688403 -0.05900822 0.0028653701 -0.029709453 0.08634342 0.01626523 0.025891837 0.046196386
0.091142535 0.008963533 0.03102645 0.059517458 0.052776486 -0.06847824 0.053019173 -0.08772932
0.078384496 -0.025182383 0.06394484 -0.029538171 0.061531227 0.05368643 0.0690734 -0.08283946
-0.021197515 0.021799266 -0.10451618 -0.09580715 0.019887647 0.100282565 0.025643691 0.008241194
-0.02867159 -0.068868026 0.01997642 -0.006858836 -0.08752015 -0.10264434 -0.025636459 0.06521712
0.018779885 -0.09312453 -0.023222862 0.084298074 -0.034201987 0.08077339 0.014675293 -0.083812565
0.046052217 0.052255843 -0.078774355 0.04548374 0.013232611 0.0081702825 -0.031386588 0.09436353
-0.053920634 -0.005343862 -0.020701362 0.050692044 -0.07881125 -0.0905367 0.07329924 0.012259322
-0.08898996 -0.054992124 -0.08612409 0.06074487 -0.049500007 -0.087695196 -0.0096243005 -0.092471994
0.0752219 -0.07308952 -0.03294886 -0.031089546 -0.050156217 0.078355804 0.10153818 0.05248957
0.049193803 0.004987263 -0.089132175 -0.04101505 -0.092295915 -0.043297406 0.011914499 -0.07012452
0.0729152 0.06488409 0.027523037 -0.012511584 -0.08615262 0.07903023 0.043843403 0.05391915
-0.028536843 0.029230826 0.009266858 -0.06401883 0.011466092 -0.045247592 0.0946721 -0.08861248
-0.055350244 -0.017950341 -0.0024403716 -0.040305298 -0.07502867 -0.017398981 -0.06874998 -0.0026791466
0.07897095 0.03960393 0.07423299 0.058636006 -0.049046822 0.09382949 0.020446265 0.059363656
-0.016095664 -0.022883685 0.097064026 0.054029144 0.019548506 0.083090514 -0.038166195 -0.049986575
0.04011944 0.06428941 -0.08913808 0.02814399 0.03873834 0.073679656 0.07950876 0.068664655
-0.0827857 0.036554452 -0.07255684 0.023238178 -0.026063813 0.09723328 0.06861539 0.080676
-0.064735465 -0.045888882 0.072490595 -0.01608239 0.032682426 -0.088550285 0.097463034 0.048585493
0.051237434 0.051226206 0.037780553 0.010067521 0.05397474 0.0042482098 -0.012127468 -0.014470285
-0.010964759 0.0011454005 -0.02053738 0.07042927 0.07681862 0.058820385 0.009454476 -0.009059886
00000000: 7184 c93d 8258 b7bc e662 61bd 32ed b13d
00000010: 0ee1 6ebd bbd5 82bd 1abc 893d ed8c 873c
00000020: 6964 7ebd 680b 2e3d 3540 90bd 8b58 873c
00000030: bac0 8c3d 42d5 26bc 111a b1bd ad33 14bd
00000040: e43b 6dbc 73dc 28bd be70 403d fc5c 18bd
00000050: 27a1 c83d ccff abbd dc2b 403d 2aa3 463c
00000060: f871 213d 1759 72bd fd91 c0bc c48e f13b
00000070: 0ae6 2e3c d880 893d a1aa 86bd d8ec 75bd
00000080: f897 6f3d 2a47 a9bd 4248 c43d 8312 223d
00000090: 02ab 883d 36e9 2dbd 485a 983d 8445 c53d
000000a0: 6dd8 a13d 689b 163d 0c51 163d 2a99 9abd
000000b0: f829 86bc dd43 9d3b 029b 133d 70aa f53c
000000c0: ae69 52bd ed59 a1bd 9ecb 95bd cbd8 853d
000000d0: 7d80 9e3d ec1b b83d 6337 873d 82e9 b8bd
000000e0: d31e 22bd 52a6 513d 6dab 83bd 280f 623d
000000f0: 286b 7c3d 33f1 883d 6347 743c f0c1 bcbd
00000100: 2555 613c c8fb 023d 23b0 c1bd 9c5a 2c3d
00000110: 6ef7 e3bc 00dd d13c eab1 a1bc cf7f 18bd
00000120: 3a4f bb3d 821f 73bd 6aae fe3b 2105 81bd
00000130: 511a 1abd bac0 00bd df77 e73c 1b8c 39bb
00000140: 58ce 853d 08b2 f53b 029e a5bb a530 30bb
00000150: a13b 993d 158b 7d3d 908d 97bc 6d8e b9bd
00000160: 3bff 683d 9ab2 71bd efc8 3b3b 3d61 f3bc
00000170: d2d4 b03d a93e 853c 1e1b d43c 6c38 3d3d
00000180: f0a8 ba3d c8db 123c 2f2b fe3c 94c8 733d
00000190: 282c 583d 523e 8cbd a22a 593d 6eab b3bd
000001a0: 0d88 a03d 494b cebc 83f5 823d 09fa f1bc
000001b0: 2b08 7c3d 4de6 5b3d 5b76 8d3d bca7 a9bd
000001c0: 69a6 adbc 6094 b23c 940c d6bd 8a36 c4bd
000001d0: 6beb a23c f260 cd3d b812 d23c 1306 073c
000001e0: afe0 eabc ae0a 8dbd 97a5 a33c 16c0 e0bb
000001f0: c43d b3bd 3237 d2bd 8d03 d2bc 8e90 853d
00000200: 46d8 993c 13b8 bebd df3d bebc 78a4 ac3d
00000210: 6217 0cbd 856c a53d a470 703c eca5 abbd
00000220: 40a1 3c3d 390a 563d 7354 a1bd 284d 3a3d
00000230: 98cd 583c a6dc 053c 398f 00bd ab41 c13d
00000240: e2db 5cbd 901b afbb e795 a9bc 76a2 4f3d
00000250: cb67 a1bd 4e6b b9bd e91d 963d 53db 483c
00000260: 5e40 b6bd 6c3f 61bd d461 b0bd 9dcf 783d
00000270: 85c0 4abd 8a99 b3bd 3eaf 1dbc f561 bdbd
00000280: f10d 9a3d f5af 95bd 62f5 06bd 81af febc
00000290: 9b70 4dbd 0279 a03d 40f3 cf3d 4eff 563d
000002a0: 717f 493d 326c a33b ee8a b6bd 66ff 27bd
000002b0: a405 bdbd 9f58 31bd 0835 433c 729d 8fbd
000002c0: 9054 953d f3e1 843d fe77 e13c 63fd 4cbc
000002d0: c970 b0bd 9ada a13d 2495 333d 54da 5c3d
000002e0: 19c6 e9bc 7c75 ef3c 05d4 173c 4e1c 83bd
000002f0: 47dc 3b3c 8a55 39bd 72e3 c13d 767a b5bd
00000300: f0b6 62bd 980c 93bc a4ee 1fbb 2b17 25bd
00000310: a2a8 99bd 4f88 8ebc cacc 8cbd 9f94 2fbb
00000320: 85bb a13d bb37 223d 7707 983d 4f2c 703d
00000330: 52e5 48bd ad29 c03d ed7e a73c 4e27 733d
00000340: 0edb 83bc 9176 bbbc 81c9 c63d aa4d 5d3d
00000350: 3024 a03c 5c2b aa3d 2854 1cbd b9be 4cbd
00000360: 4854 243d 2baa 833d 078e b6bd 3a8e e63c
00000370: 18ac 1e3d 5ce5 963d 7dd5 a23d 0ea0 8c3d
00000380: 8d8b a9bd 1fba 153d ae98 94bd fe5d be3c
00000390: c783 d5bc 3e22 c73d 3a86 8c3d 7539 a53d
000003a0: 0794 84bd fbf5 3bbd f375 943d 37bf 83bc
000003b0: 02de 053d da59 b5bd b39a c73d 9501 473d
000003c0: 58de 513d 92d2 513d c8bf 1a3d 3ef2 243c
000003d0: 9e14 5d3d 9134 8b3b 4ab2 46bc c614 6dbc
000003e0: 88a5 33bc 4321 963a 023e a8bc 393d 903d
000003f0: 1553 9d3d a5ed 703d f2e6 1a3c eb6f 14bc

conv2_2.2.bias f4 [8]
-0.06661082 0.061795708 0.058881413 -0.040600672 -0.007888232 0.058512174 -0.033744905 -0.010507361
00000000: 416b 88bd 7f1d 7d3d a32d 713d e44c 26bd
00000010: a53d 01bc 76aa 6f3d 1938 0abd 1127 2cbc

conv2_2.4.weight f4 [16, 8, 1, 1, 1]
-0.25914094 -0.3835479 -0.018467424 -0.30735016 -0.25896528 -0.03221004 -0.33787137 0.33323416
0.32420275 -0.18228927 -0.39529896 0.008124006 0.09608482 -0.08173427 -0.37807417 0.063815966
0.32222655 0.30059338 0.26781833 -0.21076147 -0.19809645 -0.21055561 -0.27568868 -0.40777823
0.14419176 0.3574556 0.37260187 0.38891697 0.24577059 0.062495004 -0.11539602 0.09066066
-0.22813815 0.19594333 -0.102643944 -0.035472553 0.07584901 0.40595275 0.14241938 -0.39920744
0.23144132 0.30893558 0.24122731 -0.36810216 0.26447785 -0.36328223 0.09502035 0.35168642
0.017753504 -0.30361158 -0.005396134 0.1462073 0.20488155 -0.27881333 -0.39592385 0.06335326
-0.042916045 -0.08006415 -0.34227756 -0.03982469 -0.3434169 0.24175233 0.29086357 0.06289048
-0.26461136 0.08910904 0.27150428 -0.05579745 0.27892923 -0.17379937 0.36915448 -0.2771859
0.3612807 0.41098928 0.23861112 0.14121968 -0.14650002 -0.03788077 -0.3006661 0.03073836
-0.21802972 0.094854705 0.18133011 -0.1254198 -0.24414223 -0.14903958 -0.02152139 0.420736
0.14646964 -0.009688106 -0.30738306 0.077761814 -0.2305461 0.11417722 0.050851326 0.3238768
-0.08531068 -0.3338026 0.29912323 -0.22568181 -0.30114546 -0.18452834 -0.09967528 0.02001932
0.26730826 -0.06334647 0.35707033 -0.112484656 0.062269565 0.26345423 0.35832295 -0.24756086
-0.2923659 0.25417644 0.39984185 -0.057294097 -0.24359693 0.016564915 -0.3340462 0.010986966
-0.36108926 0.38083747 0.04843287 0.32165694 0.03291579 -0.2138223 -0.12371163 0.33043605
00000000: 1fae 84be 6460 c4be ff48 97bc 005d 9dbe
00000010: 1997 84be adee 03bd 7afd acbe ab9d aa3e
00000020: e7fd a53e 0aaa 3abe a064 cabe 8d1a 053c
00000030: 1ec8 c43d 4c64 a7bd f092 c1be f2b1 823d
00000040: e1fa a43e 60e7 993e 7c1f 893e dbd1 57be
00000050: ccd9 4abe e49b 57be 1127 8dbe 4fc8 d0be
00000060: 01a7 133e 6c04 b73e acc5 be3e 2020 c73e
00000070: 49ab 7b3e c3fa 7f3d c054 ecbd 4cac b93d
00000080: 0c9d 69be 5ea5 483e fd36 d2bd ab4b 11bd
00000090: ba56 9b3d 0ad9 cf3e 63d6 113e eb64 ccbe
000000a0: f4fe 6c3e ce2c 9e3e 4b04 773e e377 bcbe
000000b0: a469 873e 2100 babe 079a c23d 3e10 b43e
000000c0: cc6f 913c fa72 9bbe 0ed2 b0bb 5eb7 153e
000000d0: 78cc 513e 9fc0 8ebe 88b6 cabe 5bbf 813d
000000e0: bcc8 2fbd acf8 a3bd 013f afbe 371f 23bd
000000f0: 57d4 afbe ec8d 773e 12ec 943e b9cc 803d
00000100: 247b 87be cd7e b63d 9c02 8b3e de8b 64bd
00000110: d0cf 8e3e 76f8 31be d101 bd3e 4feb 8dbe
00000120: c9f9 b83e 306d d23e 7956 743e e49b 103e
00000130: 1a04 16be de28 1bbd e8f0 99be 03cf fb3c
00000140: 2f43 5fbe 2f43 c23d 9aae 393e 0c6e 00be
00000150: 6c00 7abe d59d 18be a04d b0bc b66a d73e
00000160: 23fc 153e ddba 1ebc 5061 9dbe 9641 9f3d
00000170: 4714 6cbe bfd5 e93d 7b49 503d 2ed3 a53e
00000180: 5eb7 aebd 2de8 aabe ae26 993e 2219 67be
00000190: bd2f 9abe fff4 3cbe 8e22 ccbd 8fff a33c
000001a0: a1dc 883e cbbb 81bd ecd1 b63e 5b5e e6bd
000001b0: 5f0e 7f3d 79e3 863e 1b76 b73e 9880 7dbe
000001c0: fcb0 95be 6a23 823e 12b8 cc3e 37ad 6abd
000001d0: 7971 79be 25b3 873c 1b08 abbe ad02 343c
000001e0: b1e0 b8be 21fd c23e 8c61 463d 38b0 a43e
000001f0: b5d2 063d 3cf4 5abe 865c fdbd ea2e a93e

conv2_2.4.bias f4 [16]
-0.23264024 0.13851716 0.3123019 -0.13346562 -0.26812717 0.17190899 -0.2942846 -0.19995362
-0.09877905 0.24072993 -0.085404016 0.226979 0.25593737 0.065754674 -0.0026358792 0.12566341
00000000: 3e39 6ebe 71d7 0d3e 09e6 9f3e 36ab 08be
00000010: f747 89be e908 303e 79ac 96be a4c0 4cbe
00000020: ac4c cabd e881 763e 4de8 aebd 2f6d 683e
00000030: 390a 833e 63aa 863d b7be 2cbb e9ad 003e
