weights/010/cp_SSC_PALNet.pth.tar (torch_old, 890213 bytes, 69 tensors)

conv2d_depth.0.weight f4 [6, 1, 3, 3]
00000000: 8e8b 9e3d b891 603e 0674 5e3e 84a6 a7bb
00000010: c226 a23e d3f0 843e 3985 a93d 3401 d03e
00000020: db17 043e 9599 9dbb afbd 1a3d 6371 b9bc
00000030: 3ae5 e63d d1f3 3bbe 9d48 f5bd c141 33bd
00000040: 5610 6b3d 7c57 07be 4add d83e 063a 793e
00000050: c922 c63e 39f5 b83d db2f 543e e07f 8c3e
00000060: 94f2 a53e 5bbe 8e3e f7e6 933e b4d3 07be
00000070: fa6e 57be 393b 44be fec1 32be 147c a53d
00000080: 5c6b bdbd 9464 8fbd 1443 3e3e b393 32be
00000090: 48e9 0f3b ead2 bf3d 99c1 173e 75d9 55bd
000000a0: 3ce4 013c 893e 0cbe 1f4d 46be 9e8e 4abe
000000b0: b1a3 6f3d 2abc de3c be2c 293e 8c37 333e
000000c0: baaa cb3e 450a 863e 1192 c33e 8328 e33e
000000d0: 252f 003e 65a6 d23e
0.07741462 0.21930587 0.21723947 -0.0051162858 0.31670195 0.25964984 0.08277363 0.40625918
0.12899725 -0.004809568 0.037778553 -0.022637075 0.1127419 -0.18354727 -0.119767405 -0.04376388
0.057388626 -0.13216966 0.4235633 0.2433854 0.38698414 0.090311475 0.2072138 0.2744131
0.32411635 0.27879605 0.2888715 -0.13264352 -0.21038428 -0.19163217 -0.17456815 0.08080307
-0.09248993 -0.07001606 0.18580276 -0.17439155 0.0021959115 0.093664005 0.14819945 -0.052209336
0.0079279505 -0.1369573 -0.19365357 -0.19780967 0.058505718 0.027189333 0.16520974 0.17501658
0.39778692 0.2617971 0.38197377 0.44366845 0.12517984 0.41142574

conv2d_depth.0.bias f4 [6]
00000000: b00b c03e 1b7f c5bc 9ac8 e73d 6bea bebd
00000010: 7fc0 4d3e 1838 d03e
0.37508917 -0.02410846 0.113175586 -0.093220554 0.20092963 0.40667796

res_depth.0.weight f4 [3, 6, 1, 1]
00000000: a2ee 013c a50c 613e 75b6 3dba dafe 54be
00000010: ed3a 68be 7f26 853d 5fff a63d 4294 91bd
00000020: 99f8 153d 0c7d edbd db28 0a3e f422 7cbd
00000030: 8b2d 8cbd fc08 883d c44d 723d 98d5 813e
00000040: 0ab1 143e 9290 d6bd
0.00793043 0.2197748 -0.0007236966 -0.20800343 -0.22678728 0.06501483 0.08154177 -0.07108356
0.036614034 -0.115961164 0.13492148 -0.06155677 -0.06844624 0.06642339 0.059156194 0.25358272
0.1452066 -0.10476793

res_depth.0.bias f4 [3]
00000000: 7980 17be edda 3fbe 0f57 713e
-0.14795102 -0.18735857 0.23568366

res_depth.2.weight f4 [3, 3, 3, 3]
00000000: b5a8 ef3d 3110 953d 7a21 573d f598 c53d
00000010: 8e39 cf3d 9175 dfbd 906c de3c 478f 813d
00000020: bc52 053d fe1e 8a3c 94d9 b0bd a0f3 0f3d
00000030: 59ef 32bc 68f7 fcbd 22a8 923d 0d9b 763d
00000040: 1806 b5bb 0a6e a03d 24c0 2fbd c1c2 e9bd
00000050: 257b 233d e2c9 96bd f122 94bd eb9e f7bd
00000060: fbd9 a03d 532c e0b8 7628 dc3d 6dc4 a6bd
00000070: a2a2 b53d b47d 3b3d 8500 9a3d 271c 6e3d
00000080: d6b7 e1bd 3ee3 bc3d 86b5 fcbd 2b41 fbbb
00000090: 6c7a e8bd 0ff4 97bb bce9 e7bd b8d6 a73d
000000a0: 12d8 43bd 3358 dc3d b3b0 4ebb 9b1a da3b
000000b0: 9cc4 67bd 4c7f 32bd 887c 21bd 59ce debd
000000c0: 231d 4fbd 21ad aabd 1054 e7bd 2f0f e0bd
000000d0: a4f1 4ebc c7b7 973d 9904 91bd 8656 a3bd
000000e0: 538d f8bd e028 9ebb 5e51 a0bd a0a7 00bd
000000f0: 3205 603d 961f d3bb 7991 093d dc17 fcbd
00000100: 3e3b c1bd a780 e0bd 98e4 58bd baeb 5fbd
00000110: 1ea2 91bd 01b7 9cba 44a2 3dbd 06e3 6f3d
00000120: e160 87bc e4fc f93d 97d7 d4bd 57dd 62bc
00000130: 42f9 ba3c bdfa e63d 085a ecbd 4b3f 703d
00000140: 169f 093d
0.117021 0.07278479 0.05252216 0.09648315 0.101183996 -0.10911096 0.027151376 0.06326156
0.032549605 0.016860481 -0.0863525 0.03514445 -0.010921323 -0.123518765 0.07160975 0.06020646
-0.005524408 0.07833488 -0.04290785 -0.114140995 0.03991236 -0.07362725 -0.07233227 -0.12090858
0.078540765 -0.000106894084 0.10749905 -0.08142934 0.0886891 0.045774177 0.0751963 0.058132317
-0.11021392 0.092230305 -0.1233931 -0.0076676807 -0.11351475 -0.0046372483 -0.11323878 0.08195251
-0.047813483 0.1075901 -0.0031538426 0.0066560037 -0.056583986 -0.04357843 -0.039425403 -0.108792014
-0.050564896 -0.08333803 -0.112953305 -0.10940396 -0.012630854 0.074080996 -0.07080955 -0.079754874
-0.121363305 -0.00482665 -0.078280196 -0.03140986 0.054692455 -0.0064429743 0.033586 -0.12309238
-0.09435128 -0.109620385 -0.05295238 -0.054668166 -0.071109995 -0.0011956395 -0.046297327 0.058566116
-0.016525688 0.12206438 -0.10392683 -0.013846717 0.022823934 0.11278293 -0.115406096 0.05865411
0.03359898

res_depth.2.bias f4 [3]
00000000: b54b e03d c052 f8bd 5a1b ddbd
0.1095194 -0.12125158 -0.107962325

res_depth.4.weight f4 [6, 3, 1, 1]
00000000: ab78 25be 603d e4bd 8717 01be 4a00 9fbd
00000010: abca 8e3e d5d5 913e b39a 133e 1f2e 17be
00000020: 4f68 0c3e 3097 913e 5612 b83d 89ec bc3e
00000030: 515c e03d 9557 9dbe 5e90 033d 817f 15be
00000040: 3d5b 8c3e 86f0 adbe
-0.16159312 -0.11144519 -0.12606631 -0.07763727 0.27888998 0.28483453 0.14414482 -0.14763688
0.13711666 0.2843566 0.08987872 0.36899212 0.10955108 -0.30730882 0.0321201 -0.1459942
0.2741336 -0.33972567

res_depth.4.bias f4 [6]
00000000: 04d6 ee3d 7044 e2bd b854 1dbd 667e 013f
00000010: cce5 713e f6a2 ec3e
0.11661914 -0.1104821 -0.038410872 0.50583494 0.23622817 0.4621808

pool1.weight f4 [8, 6, 4, 4, 4]
00000000: a8af 09bc 85dd 183d 51ae 753d 7fc7 9fbb
00000010: 9873 51bc 252f 583d e54c b53c 96f6 97bb
00000020: 7558 b83c e218 2dbd 6840 a93d 106c 233c
00000030: 8694 ff3c c30b 5f3d ec16 553d 0638 81bc
00000040: ccd0 2f3d 6d99 323c 3655 783d 0664 2f3d
00000050: ab7b 60bd 4e40 0f3d 7047 953c a33e ca3c
00000060: 2555 6a3d 768d 6a3d 8333 6d3d 42ed b23d
00000070: 9429 3f3d ae22 f53d d1e0 5a3d f806 1dbc
00000080: 3fde a33c 5fd7 efbc e703 17ba acc2 48bc
00000090: c06d 1ebc abb4 0abb 7289 053d 36f2 0e3c
000000a0: 6cbe c53c 96d5 f6bc 0796 273d 2255 2cbd
000000b0: 212c 8f3d 4c0f c53d a717 253d 61b9 8abb
000000c0: 71ff 073d b680 1ebd bba3 b83c f6c0 5abd
000000d0: bddd 5c3b 45b8 70bd d824 023c 4ae0 7e3b
000000e0: e179 e73b f296 44bd c2b3 49bd 6d88 e03c
000000f0: f56e 1c3d 586b e23b 7001 bf3d 4cc0 e73c
00000100: c0cd a2bc f73f 133d f681 7d3c 6161 3fbd
00000110: 8596 f7bc 12f4 54bd 827e 3a3c 5773 253d
00000120: da23 18bd 65a1 213a 4cab 70bc 59ac 65bc
00000130: d04b 353d 0fdd a239 883b 50bd 06b6 003b
00000140: 806c 4f3d 01be 3dbd 9a85 6d3c 9585 eb3c
00000150: 392f d83c 3c35 0c3d 816b b23c 40a6 923c
00000160: 19dc 4c3c 1877 41bd 31b0 1a3d 5d40 c7bb
00000170: 12b1 93bb b758 233d b0a5 033d d6e8 72bc
00000180: 93de d0bb ece5 a8bc c25e dd3b e891 643a
00000190: d518 4d3d 7592 f13c f6bb 403d 599c d83c
000001a0: 62b7 abbc 2ded 0dbd 4659 4bbd ae73 a8bc
000001b0: bb6f 153c faa2 2ebc 636b cd3c dd74 45bd
000001c0: 4361 f93c 61d8 053c 24b8 063c 1b54 22bc
000001d0: 41b1 d73c 8f54 3bbd c09a de3c a2a6 bb3c
000001e0: b7c6 0abc 8e5f 7f3c 42e4 063c ba9b 85bb
000001f0: cd57 9dbc 4afb cabc 16eb 663c 5233 d33a
00000200: a672 afbd eb6d 1d3d e60b 29bd 5d4b 1abd
00000210: b6a8 94bc 7c1a 5a3d 0152 f93c 9cfb b53c
00000220: 08f6 753d f6a8 f5bc 66ea ea3c bee5 ab3d
00000230: e6e2 713d 5da3 ef3d 9bb7 d03d 33c0 1dbd
00000240: 4a21 fcbb 29ea 60bd 19fe 8f3d a740 493d
00000250: 8747 97bc e56a 1bbc ac43 943d aed9 a73c
00000260: 4648 91bc 2239 363d e65d a23d 421e 24bc
00000270: 8693 0dbc cc1c 3d3d 8d75 8d3d 13ff 423d
00000280: 3775 9f3c 6ce7 7dbc 8d58 8c3c d511 8bbd
00000290: 27bf 3abd cc72 fdbc 3f64 853c 1f50 73bb
000002a0: 28b1 14bd 43c7 413c 09e6 e8bc 6544 71bd
000002b0: 6b02 9f3d 67cb b63d 7c1a e43d 62c2 4a3d
000002c0: 3fd0 993d 9640 b8bc 462f 6dbd ac23 b8bd
000002d0: f0b3 543d b9a3 8bbb b702 02bd f8d2 8dbd
000002e0: 4ddd 37bd 5640 bcbd 042e cf3c f07a f9bb
000002f0: 57c6 c63d 23db ad3d 5854 d83d 5437 6ebd
00000300: 1819 70bc 40af ccbc 5cc3 b53c 2dde 2fbd
00000310: 718e 3fbd 79c4 8f3c 493f 383d 8f4d 683d
00000320: d8d8 d73b be55 563d 50de 413d d49c 87bc
00000330: 197a 253c b98a 0f3d 9ccf 833d 517a 223d
00000340: 553e 623d def7 9abc bbc4 e63c 1e55 4c3d
00000350: 0300 cb3b e21d 803b de94 46bc 0c5c 69bc
00000360: 4a0e 0b3d d6fc c93b b53c d5bc 6981 6c3d
00000370: dfef 933d 944e a53d 1c9a 953c 8c55 a8bc
00000380: 8d05 07bd 7587 143d 635c 63bc 4b00 1b3d
00000390: 67cf d03c a0c9 4f3d 4cd7 de3c dfbf f83c
000003a0: 4865 fabc 2152 a4bc fc9f 1f3d d062 4b3d
000003b0: d1c8 293d 91fc 0c3d 1742 993d 07aa 4f3d
000003c0: 8916 473d 1ff4 4ebb 77aa 2d3d ca59 62bd
000003d0: 6fea 4f3d b03c eabc 92e6 113d fad9 9cbc
000003e0: 37af 0fbd c470 33bc cb0e 933c efae fdbb
000003f0: a789 803d b6e9 bc3b 80ab 263d 975a 213d
-0.008403696 0.037320632 0.059980694 -0.0048760767 -0.012783907 0.052779336 0.022131393 -0.0046375496
0.022503117 -0.04226006 0.08264238 0.009974495 0.031198751 0.054454576 0.052023813 -0.015773784
0.042923734 0.010900837 0.06062814 0.04282 -0.05480544 0.034973435 0.01822254 0.02468807
0.057210106 0.057263814 0.057910454 0.087366596 0.04667051 0.11969505 0.053437058 -0.009584181
0.020003436 -0.029277502 -0.00057607744 -0.012253445 -0.009669721 -0.0021164815 0.03260178 0.00872474
0.024138652 -0.030131143 0.04091456 -0.042073376 0.06990839 0.09622058 0.04030576 -0.0042335247
0.033202592 -0.038696967 0.02253901 -0.05340668 0.0033701502 -0.058769483 0.007943355 0.003889101
0.0070640896 -0.047995515 -0.049243696 0.027408803 0.038191754 0.006909769 0.09326446 0.028289936
-0.0198735 0.035949674 0.01547288 -0.046723727 -0.03022314 -0.051990576 0.011382701 0.0403932
-0.037143566 0.0006165712 -0.014689278 -0.014018142 0.044261754 0.0003106375 -0.050838023 0.0019639744
0.050640583 -0.04632378 0.014497185 0.02875022 0.026389705 0.034230456 0.021779777 0.01790154
0.012503647 -0.047232717 0.037765685 -0.0060806707 -0.0045071924 0.039879527 0.032140434 -0.01482602
-0.006374189 -0.020617448 0.006755681 0.00087192515 0.05007251 0.029488781 0.047054254 0.02644174
-0.020961467 -0.034650017 -0.049645685 -0.020562973 0.009120877 -0.010658974 0.02507562 -0.048207153
0.030441886 0.0081692645 0.0082226135 -0.009907748 0.026329638 -0.04573494 0.0271734 0.022906605
-0.008470229 0.015586747 0.008233132 -0.004077402 -0.019206906 -0.024778027 0.014094135 0.0016113317
-0.08566789 0.038434904 -0.041271113 -0.03766953 -0.018146854 0.053247914 0.03043461 0.022214703
0.060049087 -0.029987793 0.028676223 0.08393429 0.059054278 0.11701081 0.1019127 -0.038513374
-0.007694398 -0.054910813 0.07030887 0.049133923 -0.018466724 -0.009485935 0.0723947 0.02048954
-0.017734658 0.04448808 0.07928066 -0.01001698 -0.008641129 0.04617004 0.06907187 0.04760654
0.019465072 -0.01549707 0.017132068 -0.067905106 -0.045592453 -0.030938528 0.016283153 -0.0037126613
-0.036301762 0.011827293 -0.028430002 -0.058903117 0.07764133 0.08925515 0.11137864 0.049501784
0.07510423 -0.022491734 -0.05790641 -0.08991179 0.051929414 -0.0042614606 -0.03174087 -0.06925005
-0.044888783 -0.091919586 0.025290497 -0.0076135322 0.09705799 0.08489063 0.10562962 -0.058158234
-0.01465442 -0.02498591 0.022187881 -0.042936493 -0.046766702 0.01754974 0.04498223 0.05671459
0.006587129 0.052327864 0.047331154 -0.016554274 0.010099911 0.035044406 0.06436083 0.03966743
0.055235226 -0.01891702 0.02816998 0.04988586 0.0061950698 0.0039098123 -0.012120454 -0.014243137
0.033949174 0.0061641736 -0.026029924 0.057740603 0.07223486 0.08071628 0.018261962 -0.020548604
-0.032964278 0.036261994 -0.013877007 0.037842076 0.025489522 0.050729394 0.02720227 0.030364929
-0.030565873 -0.020058693 0.038970932 0.04965478 0.04145128 0.034420554 0.07483309 0.05069926
0.048605476 -0.0031578613 0.042398896 -0.05526141 0.050760683 -0.028593391 0.03562028 -0.019146908
-0.035079207 -0.010952178 0.01795139 -0.007741801 0.06276255 0.005765165 0.0406909 0.039393034

pool1.bias f4 [8]
00000000: c393 eabc 93c8 8c3c d9a5 04bd 4d82 dd3d
00000010: 3e42 7d3d 4b80 e93c 7c51 bbbe 1293 103a
-0.028634911 0.017185485 -0.032384727 0.108158685 0.06183075 0.028503558 -0.36585605 0.0005515079

reduction2_1.weight f4 [16, 8, 1, 1, 1]
00000000: b1b0 f43d e3cd 82be ffa2 e83e 5d0c bb3c
00000010: 5fe5 953d 567b cd3e 45f6 e63c 2dbf 983e
00000020: a7ad 7b3d ea52 0abe 4d68 37be b2f0 27be
00000030: ecc0 483e ce10 833e 9385 883e c367 02be
00000040: 6827 a6be 6ae4 6ebe 2bd1 723e 028e 183e
00000050: 89ec 8e3e b796 863e 9081 973e 8a9d 3d3e
00000060: 29bd 343d e611 3a3d af68 acbd 09f4 92be
00000070: 0447 a33e 1af6 2e3e a186 d9bc 85bb 81be
00000080: 7879 b0be ffa9 0a3e a787 55bd 4fe7 8ebe
00000090: 0420 863e d007 3b3e ed9c 94be 3253 2a3e
000000a0: 8c01 82bd 2c93 663e ecd5 8ebe 341d 18bd
000000b0: 740f 82be 6da2 ad3e ff64 413e 1d22 b7bd
000000c0: 80dc 8abe 5320 263e 515f a43e 03b6 f1bd
000000d0: a9b4 6bbe e8af 153e 1404 1f3d db6c e0bc
000000e0: 57a8 8abe 1ac1 953e 3047 61be a3bb 703e
000000f0: 1f8e 34be b4b9 053e 487a 963e e9d9 b0bd
00000100: 1374 02be 8886 b33e f2da 443e 18b3 e939
00000110: ab86 24be b941 c43d 60f6 ab3e 775a 6f3e
00000120: 7380 33be 5ff4 463e 23fe 40be 653b 25bd
00000130: 10d6 76be 729b 40ba c8ef 213e 4095 643e
00000140: 28ae 913e f74f 88be 88b6 8ebe ecac 953e
00000150: d5b8 e8bd 9340 22bb 0379 033c ee45 71bd
00000160: b9b4 a03e 259e 51be 26fc a43e 5607 9ebd
00000170: 9103 9fbd 0234 c33e 9f13 28be 8936 213e
00000180: 5107 6dbd 4d1d 8c3e a4f3 99be 3b57 cb3d
00000190: 0be5 72be e21a 343e 3d73 cfbd 9503 87bd
000001a0: b43b 5fbe 24e7 8b3e 9c66 a5bd 0556 6cbe
000001b0: 78cd 0abc 3114 853e 444a e83c b6b9 21be
000001c0: e18b 933d d9f8 8c3e 20ad ce3d 9405 c63d
000001d0: 977d 60be 5ed5 88be 8e8c fa3d 5277 bf3d
000001e0: 9ecf 4a3c 1447 9cbe 223d 8bbe 7c79 4db7
000001f0: 4dae 3cbe d399 163e d39a 7e3d 741b c9bc
0.11947764 -0.25547704 0.45436856 0.022833044 0.0731914 0.4013316 0.028193602 0.29833356
0.061444905 -0.13508192 -0.17910881 -0.16400412 0.19604844 0.25598758 0.2666441 -0.12734894
-0.3245194 -0.2332932 0.23712604 0.14897922 0.27914837 0.2628686 0.29591036 0.18517128
0.04412571 0.045427226 -0.08418404 -0.2870181 0.31890118 0.17086068 -0.026553454 -0.2533838
-0.34467673 0.13541411 -0.05213132 -0.2791085 0.261963 0.18264699 -0.29025975 0.16633299
-0.06347951 0.22517079 -0.27897584 -0.037137225 -0.25402415 0.33912984 0.18886183 -0.089420535
-0.27121353 0.16223268 0.3210397 -0.11802294 -0.23018135 0.14617884 0.03882225 -0.027395656
-0.27081558 0.29248887 -0.21999812 0.23509078 -0.1763234 0.13059121 0.29390168 -0.08635313
-0.12739591 0.35063577 0.19224146 0.00044574658 -0.16066997 0.09582848 0.33586407 0.23374353
-0.17529468 0.19429158 -0.18846945 -0.040339846 -0.24105096 -0.0007347382 0.15814126 0.2232256
0.28453183 -0.26623508 -0.27873635 0.2923349 -0.11363379 -0.0024757728 0.008024457 -0.05890458
0.3138788 -0.20470484 0.32223624 -0.07716243 -0.07764352 0.38125616 -0.16413735 0.1574346
-0.057868306 0.27366105 -0.30068696 0.09928747 -0.23720185 0.1758838 -0.10129402 -0.0659248
-0.21800119 0.27324784 -0.08076212 -0.23079689 -0.008471839 0.25991967 0.028355725 -0.157935
0.07204414 0.27533606 0.10091615 0.09669033 -0.21922909 -0.26725286 0.1223384 0.093489304
0.012378601 -0.30522978 -0.27195078 -1.22472375e-05 -0.18425865 0.14707117 0.06215937 -0.024549223

conv2_1.0.weight f4 [8, 8, 1, 1, 1]
00000000: 1f92 d4bc ad72 983e ea86 ae3e d400 ad3d
00000010: 96be e73e d70d f03e aafc 653e 766f 04be
00000020: 4954 913c aab2 fcbc 0706 ce3c ec91 a2be
00000030: b9b1 2abd adf3 2fbe 2494 c9be 98ef f0bd
00000040: 6d20 9c3d d0c1 a0be 99d4 19be edf0 95be
00000050: ad30 70be 1c43 85be 1786 bdbe 4dde 51be
00000060: a2dc be3e e92c 303e c5ad e23e 63df 45bd
00000070: 2590 43be 413f 47be 3662 e1bd 14f2 193d
00000080: d367 e43d 5698 e0bd 3a40 7a3e ab85 82be
00000090: c40b e83e 26f7 503e 232b 843e 57b4 a13e
000000a0: 6848 fd3e 7fb3 9c3e 40aa 643d 8e31 c93e
000000b0: dcf6 fb3e 036b 0cbe 35a3 293e 16a4 10be
000000c0: b973 903e 6be6 ba3e cf8e d63d 0fcc 19bc
000000d0: d5cb 773d c9c9 1dbe bf4c a23e 7d61 34be
000000e0: fa02 23be ed96 9c3e 0be0 643e 75b5 953e
000000f0: 35e7 0d3e 2f0a 55be 1372 bf3e 7c7d a0be
-0.025948582 0.2977499 0.34087306 0.084474236 0.45262593 0.4688556 0.22459665 -0.12933144
0.017740386 -0.030846912 0.025149358 -0.31751955 -0.041673396 -0.17182799 -0.39370835 -0.11764449
0.07623372 -0.31397867 -0.15022506 -0.29285374 -0.23456068 -0.26027763 -0.37016365 -0.20494957
0.37277704 0.17204632 0.442732 -0.04830874 -0.19097956 -0.19457723 -0.110050604 0.03758438
0.111526154 -0.10966556 0.24438563 -0.25492606 0.45321476 0.2040678 0.2581416 0.315829
0.49469304 0.30605695 0.055826426 0.3929562 0.49211776 -0.13712697 0.16566165 -0.14125094
0.2821329 0.3650392 0.10476457 -0.00938703 0.060497124 -0.15409006 0.31699178 -0.17615314
-0.15919104 0.30583897 0.2235109 0.29240003 0.1385773 -0.20804666 0.3739172 -0.31345737

conv2_1.0.bias f4 [8]
00000000: 455c 42be 4968 0dbe aa7e a33e d4e9 83be
00000010: 8f68 acbc eb15 eebb caf1 16be d1c6 843c
-0.1898051 -0.13809313 0.31932575 -0.25764334 -0.021045951 -0.0072657964 -0.14740673 0.016208084

conv2_1.2.weight f4 [8, 8, 3, 3, 3]
00000000: 66ea d9bd 47fe 8c3d bde7 4cbd 1b68 29bd
00000010: 760a a9bc 24af b4bd 983c 7a3d 154b b13d
00000020: 77ad 8d3d 6d45 87bd ee97 d63c d049 223d
00000030: 020c fabc 8e38 d5bc 132d 82bd 93ed bf3a
00000040: 74f6 583d 4079 5f3d 1c7d 94bd 8421 dbbc
00000050: bf29 5d3d 6eb2 ee3c e433 463d 0bd4 863d
00000060: e8a8 d63c 8086 9f3d d59d f43c ddf1 3e3c
00000070: 7682 6dbd ef0b 473d d474 30bd 8b5f 6dbd
00000080: c6b1 0fbd 2f6c 87bd db53 0ebc cff9 54bb
00000090: 9579 c1bc 318d 9abc 6086 adbc 4358 a3ba
000000a0: 9a92 80bd 2075 7bbd d78a 343d 94b1 34bd
000000b0: b10a 223c f735 653d 05bb 8bbc 5776 fd3c
000000c0: d61b 82bd 0701 493c 0716 81bd 8574 20bd
000000d0: 5afe e13c a4bd 21bd 7ff0 40bd efb2 713b
000000e0: bbaf b5bd d2c3 043c 2a3b 95bd 1335 3b3d
000000f0: 810e dfbc 96b0 e2bc bc23 223c 81c0 033a
00000100: 9766 ccbd b3a1 023c 275e 463c a2d6 313b
00000110: efda a83b 1079 2b3c dcc7 c53a 69ed 143d
00000120: 7c82 7abd b848 53bd 6aed 9dbd dc49 cb3c
00000130: 929c 9dbc b995 19ba f70b 853b 2c1a 103b
00000140: 10f5 5cbc 37c3 71bc 2eb4 75bd bb03 9d3d
00000150: 8651 29bd 1e02 61bb a0ad 68ba eeb0 ea3b
00000160: 7cbf e13d 1ae4 c23d 5d66 01bd 6e75 a13c
00000170: 5082 9abc 376a 2bbd 08c0 433c 780b 95bd
00000180: 768a c53d 54d8 c03d 26d3 a23d a034 523d
00000190: b263 ccb9 7b83 c93d 2011 c0bd cfa9 a5bd
000001a0: 0895 b3bd 4f8c a1bd fbe8 78bc cf7c 913d
000001b0: 4d90 d93c 6873 9bbc 27b9 60bd cd64 93bc
000001c0: 2403 8bbc a1c7 22bd 2140 afbb f32c c2ba
000001d0: 132e 2bbd 8d94 3bbd 4d1f 5e3d 45d1 17bd
000001e0: 66be 8dbc 5394 d83c 8b31 b43c 8e80 6d3c
000001f0: 18f2 b53d 39ac 423d 2db8 723c b0a7 c0ba
00000200: db1c ba3d 5889 2cbd e6eb 273d 5aa0 33bd
00000210: 0361 043d c4cf ba3d de36 39bd d802 2cbd
00000220: 8177 d5bb f82a c3bc 64b4 f53c 959d e6bc
00000230: 6aa3 debc 92ef d13d 93ef ad3d 8c43 193e
00000240: 340c 893d 9eb0 8cbd a425 243c a220 33bd
00000250: cd81 a4bd efde 223d a225 0d3d 02fe 513d
00000260: 1dc0 103d 8504 a93d d723 7dbc 6875 e73d
00000270: 674d 98bd eea6 87bd a51c febc deda 363b
00000280: df87 84bc 296e 2e3d 3340 163b 3008 51bd
00000290: 2fdf d8bc f039 87bd 1f35 e73c a7e5 e53c
000002a0: a738 1739 2f6a ba3d 3f4c e53d 765f d1ba
000002b0: c4d4 f3bc 9774 613d 27c8 473c 9187 c63c
000002c0: 26a2 46bd 7f58 ba3c 8ff2 59bd b394 0e3d
000002d0: d895 d63c 6e93 75bd 7e40 333b 752a 433d
000002e0: 1475 613d ae15 0f3d f4e6 953d 0762 073d
000002f0: db97 b2bc 0681 9cbd f982 47bd d212 ce3a
00000300: f9a4 ce3c e720 283c 742a a13d eae6 333c
00000310: 7c93 943d 2b19 363d 017d 68bb 2629 c8bd
00000320: 4ef4 8e3d 4c2b 513d 7340 86bc 98f9 92bd
00000330: 9543 733c 6168 80bd 22ce ebbc b8cb 92bd
00000340: a415 97bd 95f9 85bd 076c 96bd bbff 1abb
00000350: bd47 773c 45a6 54bc e824 523d 6ca8 afbc
00000360: f021 3039 5d33 9e3c 6b11 9ebd ac75 803d
00000370: 40dc 0abd 7b35 a5bc fab1 973c a9b6 5f3c
00000380: 90cc 90bd 689a 91bd 84db a6bd ec64 2ebd
00000390: 7b36 f5bc 2e82 30bb 7039 2e3c 5a5c 0fbd
000003a0: 8c01 1cbd 8fbd a13c c7fd 16bd aa5d 86bd
000003b0: 8456 d93c 75fa 87bd 0d4a 83bd 0587 5e3d
000003c0: 8773 53bd 9d20 be3b 88d1 b1bd 4ffd 91bd
000003d0: 6a50 46bc 492d 283d ac34 5f3c bd6c 993d
000003e0: 6787 213d 79c4 3c3d e83a 523d 45df 95bd
000003f0: abb9 bcbb bbb6 853c 482f 54bd 504d 9abb
-0.10640411 0.06884437 -0.05002569 -0.04135905 -0.020634871 -0.08822468 0.061092943 0.08656899
0.069178514 -0.06605039 0.026195493 0.039621174 -0.030523304 -0.026027944 -0.063562535 0.0014642946
0.05296941 0.054558992 -0.07250425 -0.02674938 0.05399489 0.029137816 0.04838933 0.06583413
0.026203588 0.07789326 0.029860416 0.011654344 -0.057985745 0.048595365 -0.043080166 -0.057952445
-0.035081647 -0.06612431 -0.008686985 -0.003249753 -0.023617545 -0.018866153 -0.021182239 -0.0012462217
-0.06277962 -0.061390996 0.04407772 -0.044114664 0.009890244 0.055959668 -0.017056951 0.030940218
-0.063529655 0.012268311 -0.063030295 -0.03917362 0.027587105 -0.039487496 -0.047104355 0.0036880334
-0.088714086 0.008103328 -0.07286675 0.045704912 -0.027228596 -0.027672093 0.009896215 0.0005025939
-0.09980505 0.007973122 0.012107409 0.0027135988 0.005153052 0.010465875 0.001508947 0.036359224
-0.061159596 -0.051583022 -0.07711299 0.024815492 -0.019239698 -0.0005858797 0.004060264 0.0021988256
-0.013486162 -0.0147560155 -0.059986286 0.07666727 -0.041337512 -0.0034333537 -0.000887597 0.007162205
0.11022851 0.09516163 -0.03159176 0.019709315 -0.018860966 -0.04184934 0.011947639 -0.07277578
0.0964555 0.09416261 0.079504296 0.05131972 -0.0003898419 0.09839531 -0.09378266 -0.08089029
-0.0876866 -0.0788809 -0.015192266 0.071038835 0.026558066 -0.018975928 -0.054864075 -0.017992401
-0.016969271 -0.039741162 -0.005348221 -0.0014814421 -0.041791987 -0.045795966 0.05422907 -0.03706481
-0.017302703 0.026437914 0.02199628 0.014495982 0.08884066 0.047527526 0.014814419 -0.0014698412
0.09087535 -0.04212317 0.040996455 -0.043854095 0.03231908 0.091216594 -0.04521834 -0.0419949
-0.00651449 -0.0238242 0.029993244 -0.028151313 -0.027177531 0.102507725 0.08492961 0.14967173
0.06691781 -0.068696246 0.01001874 -0.043732293 -0.0803257 0.039763387 0.034459718 0.05126763
0.035339464 0.08252815 -0.015450439 0.1130169 -0.07436638 -0.06623636 -0.031019518 0.002790145
-0.01617807 0.042585526 0.002292645 -0.0510332 -0.02647361 -0.066028476 0.028223572 0.028063608
0.00014421587 0.09102284 0.111961834 -0.0015973884 -0.02976454 0.05504283 0.012193716 0.024234565
-0.04849448 0.022747276 -0.053209838 0.03480978 0.026194498 -0.059955053 0.0027351673 0.047647912
0.055043295 0.034932785 0.073194414 0.03305247 -0.021800926 -0.07641797 -0.04870889 0.0015722162
0.02522515 0.010261751 0.078694254 0.010980347 0.07254693 0.044457596 -0.0035474899 -0.097734734
0.06980191 0.05106668 -0.016388154 -0.071765125 0.014847656 -0.06269909 -0.028784815 -0.071677625
-0.073771745 -0.065417446 -0.07344823 -0.0023650962 0.015092787 -0.012979095 0.051304728 -0.021442614
0.0001679731 0.019311601 -0.07718166 0.06272444 -0.033901453 -0.020167103 0.018517483 0.013654389
-0.07070267 -0.07109529 -0.08147338 -0.042576715 -0.029933205 -0.0026933062 0.010633811 -0.035000183
-0.038087413 0.019743709 -0.036863115 -0.06560834 0.026530512 -0.06639568 -0.064106084 0.054327983
-0.051623847 0.0058022276 -0.08682543 -0.07128393 -0.012104133 0.041058812 0.013623398 0.07491443
0.03943577 0.04608581 0.05132571 -0.07317976 -0.005759438 0.016322484 -0.051802903 -0.0047089234

conv2_1.2.bias f4 [8]
00000000: a47f 69bd b388 21bd be56 8c3d aa2f f4bc
00000010: af66 d43d 7fec 8a3e e175 423d d069 5cbd
-0.057006493 -0.039437007 0.06852482 -0.029807884 0.10371148 0.27133557 0.0474757 -0.05381185

conv2_1.4.weight f4 [16, 8, 1, 1, 1]
00000000: c744 c23d fc70 8dbe 15ee b83e fbb1 0d3e
00000010: 6d01 5e3e 01df 1abe 0b33 3dbe 1d74 9dbd
00000020: a667 75be b5d5 053e e80c 5fbe 587f 97be
00000030: e711 8b3e ea6b d1bd 51e0 aabd d47b 523e
00000040: 8932 4b3e 58b0 55bd 700b 32be 7fa6 ef3d
00000050: 11dc 8c3e aa59 573c e1c0 4ebd b41c d7bd
00000060: f2dc cbbc 69d7 54bd 635d 493d 2f5a 8cbe
00000070: 7253 c63c cd32 c13d bdf4 7bbe 03ae cdbc
00000080: 75b2 afbe c12e 60be 38c2 18bd ebb2 373e
00000090: 8be5 3a3e 64f8 e63d 25e1 aebe b3c0 11be
000000a0: be7a 76be 1e11 783e 31e6 5c3e d571 cfbb
000000b0: 9db6 733e 5d3f 973d 02b5 62be ad48 813e
000000c0: ddb9 843d 3bc6 6d3e d5ed 2cbe 4804 e03b
000000d0: 5849 113e f0a9 643e ba90 91bd 4083 8b3d
000000e0: c094 55be 5279 92bc fe2c 183e 9a33 31be
000000f0: e7b5 cb3c 5a82 93bd 94c0 a7bd cce1 793e
00000100: 34a5 02be fac5 443e 1e1e 8b3e bbf7 86be
00000110: d6e3 8b3d e69f b9be f0f5 893e 1f2e 2fbe
00000120: 9110 0fbe cb11 8d3d f48e 81be 1540 9a3e
00000130: e095 2a3e e029 9b3e a89f a13d 58ff 95bd
00000140: 293d f43d e0a6 14be 0029 503e 9cfa 0e3c
00000150: 7a2e 553e 5949 74bd 7444 c5bd a523 7cbe
00000160: f139 6f3e d22f 45be ddd5 043e b055 92bd
00000170: ad79 3dbc 6daa 83be 8ce1 463e 43e5 84be
00000180: 9a39 b4bd b844 0dbe c703 f4bd 96b2 47be
00000190: 3642 d5bd 7734 6b3e 3c9d 923e e65d 78be
000001a0: c68b 5ebe b30e 6b3e e338 73be ba5b f6bd
000001b0: 0b9c 84be 80b1 3b3e b0f9 30bd e8ca 00be
000001c0: cf48 53be c9ba 93bd 34d8 573d 4aaa cd3d
000001d0: 58e4 89be 3c69 08be f9b2 5f3e 60af 333e
000001e0: 8897 283e c603 873d e293 203e 8b73 99be
000001f0: d2c2 f9bc 8a7f 2dbe e078 9ebd 0ca5 8e3e
0.094857745 -0.27625263 0.36119142 0.13837425 0.21680231 -0.15124132 -0.18476503 -0.076881625
-0.2396532 0.13069804 -0.21782267 -0.29589343 0.27162096 -0.10225661 -0.08343566 0.20555049
0.19843496 -0.052170128 -0.17387176 0.117016785 0.27511647 0.013143936 -0.050476912 -0.105035216
-0.024885628 -0.051963244 0.049161326 -0.27412555 0.024209712 0.094335176 -0.24605079 -0.02510739
-0.3431584 -0.21892835 -0.037294596 0.17939346 0.18251626 0.112778455 -0.34156147 -0.14233665
-0.2407026 0.2422528 0.21572186 -0.0063307085 0.2380013 0.073851325 -0.22139362 0.2525076
0.06480763 0.2322015 -0.168876 0.006836448 0.14188135 0.22330451 -0.071076825 0.06812143
-0.20857525 -0.017880116 0.14860913 -0.1730484 0.024867011 -0.07202597 -0.08191028 0.24402541
-0.12758332 0.19216147 0.27171415 -0.26360878 0.06830566 -0.36254805 0.26945448 -0.17107438
-0.13971163 0.06888159 -0.25304377 0.30127016 0.16658735 0.30305386 0.0789178 -0.073240936
0.11925728 -0.14516783 0.2032814 0.008726742 0.2081851 -0.059640262 -0.09632197 -0.24622972
0.23361947 -0.19256523 0.12972207 -0.0714525 -0.011564654 -0.25715962 0.19421977 -0.25956163
-0.08800049 -0.13795745 -0.11914783 -0.19501719 -0.10413019 0.22969232 0.28635585 -0.2425457
-0.21733007 0.22954826 -0.2375217 -0.12029214 -0.259003 0.1832943 -0.04320687 -0.12577403
-0.20633243 -0.07213361 0.05269642 0.10042246 -0.26932025 -0.13321394 0.21845616 0.17547369
0.16464055 0.065925166 0.15681413 -0.29970965 -0.030488405 -0.16943184 -0.07737899 0.27860296

conv2_1.4.bias f4 [16]
00000000: b5c7 d3bc 191e 763e 5b3c 55bd 45da 133e
00000010: 0188 e63d 970c 3abe af1f 91be 524f c2bd
00000020: 8605 923e 3a12 5f3e bb7a 803d dc9c 413e
00000030: a7c6 233e b204 26be 4b30 9c3d f2ce 5abe
-0.025852064 0.24034919 -0.052059513 0.14438732 0.112564094 -0.18168865 -0.28344485 -0.094877854
0.2851984 0.21784297 0.06273409 0.18907493 0.15993749 -0.16212729 0.07626399 -0.21368006

pool2.weight f4 [8, 1, 7, 7, 7]
00000000: ea75 893c 5b76 07bd 305a 943c 7406 3c3c
00000010: 010c c1bc 30eb d23c bdae a0bc 600c 2d3d
00000020: e8d7 1f3d 7051 573c 40fb 003d 6c32 b93c
00000030: 9c9b 5fbc 3c3d a03c c0fc f33a c4de 823c
00000040: 3406 753c 10e5 153c bad4 1a3d 2c1d 053d
00000050: 4eab 1dbd e856 a1bc b1d0 dcbc a018 823b
00000060: aef1 063d 54fd 5b3c 9a31 f2bc e26c c4bc
00000070: e0c5 833b 9172 2ebd cc24 fcbc 2009 98ba
00000080: 9600 2fbd fcfb a53c 620c cebc 2040 f7bb
00000090: d1c8 10bd 8e97 0f3d 5836 a53c 5191 89bc
000000a0: 9868 d63c fa22 8bbc 684d ba3c 0218 31bd
000000b0: 5044 523b 23bf 9dbc 507a 81bc 4f80 d5bc
000000c0: a0e4 d6bb 54d9 453c c050 0eba c1fd a3bc
000000d0: dfe4 d2bc 057d 2cbd dce1 23bd be2a 5cbc
000000e0: 75e7 1cbd 78e2 203c c86c e7bb dca4 4f3c
000000f0: 17cc a3bc 55fe dcbc 78f2 a3bc 7021 05bb
00000100: a01c 0abd cc4f a93c a25d 2bbd 000b 62bb
00000110: b694 1dbd ec3c 6c3c a887 d33c 94d5 28bd
00000120: 0af6 56bc 3046 eebc dc64 fd3c 9fa2 25bd
00000130: e883 243d d4a7 ff3c b00e f33b 5459 cb3c
00000140: 7889 e63c a0d5 f4bb 7eb9 883c fca9 633c
00000150: 9fb3 9abc e8a9 023c 6658 1dbd 3210 263d
00000160: 5026 eebc b50d b3bc 9e39 24bd d84d 083d
00000170: c24e e2bc a026 a9ba 1666 233d 0c5e 1e3d
00000180: 8843 fb3c 387f 6e3c 7025 ac3c 00e7 1dbc
00000190: a8ae 22bd a4f1 813c e8a0 1cbd ecf6 ef3c
000001a0: f0a7 f93c 0060 193d 748b 4ebc a033 a63c
000001b0: 6487 253d 18f4 33bd 3088 fbbb 0068 2e38
000001c0: 04e8 fd3c 5c44 47bc 4c71 473c 70e9 1c3d
000001d0: b6ad 23bd f10f c9bc c42d 2b3d 4397 0bbd
000001e0: 2030 d53b 0cd0 af3c fcb9 d1bc ccd6 49bc
000001f0: ec10 5f3c ae3f fdbc d451 843c 4031 cdba
00000200: 0054 24bd 4a09 fdbc 87ac 2abd 6e3c 2c3d
00000210: 442f 143d 2f6c 34bd 803d d93b a4ce f13c
00000220: e881 0a3d f03d 37bc c475 f13c 68a7 f63b
00000230: f44c e63c 7405 36bc f15c b7bc 04fa b53c
00000240: 2087 933c 588e 2f3d 35b6 0cbd 8076 6b3c
00000250: 5cee 833c 4cba 783c 8c29 d9bc 9a85 64bc
00000260: 58ce a5bb 0097 2db9 3a00 163d f4df 193c
00000270: 54cc 983c 9227 29bd 62a3 6cbc 223b 0fbd
00000280: f420 343d 3460 43bc 344e 9d3c a8ee 85bb
00000290: 48a7 3dbc 907b 26bd 692f 2ebd e04f 323c
000002a0: f03f 263d c077 f43c 5c10 efbc e867 56bc
000002b0: f859 f13b 704f 5ebc 9433 2c3d 34a7 103c
000002c0: 44f9 e5bc 3c5f 283d ce4b 6cbc 0667 203d
000002d0: 37a9 04bd fc3b 1e3d 44e6 4f3c f0e5 0dbd
000002e0: 4819 a93b 4511 e5bc ab14 25bd b09d c13b
000002f0: 0cfb 1f3d c428 103d f846 48bc c4c9 0e3d
00000300: ea8f 033d 3608 9ebc 4842 463c 8838 febb
00000310: ec57 2b3d 3091 613b f173 a8bc ae2b 243d
00000320: f03c 02bd 4b24 97bc c41f 853c 24b6 c83c
00000330: cdc0 9cbc 24b2 c63c 0001 cbba d6b5 e3bc
00000340: 12ac bebc 5afe 1abd e605 c9bc d6e2 313d
00000350: 1856 dc3c d080 35bc 5427 eebc 46a5 09bd
00000360: e8df 9ebb 60d5 b33c 885a 243d 2875 f4bb
00000370: 5e11 1dbd f87f 53bc 40b0 273c 8ecd 6abc
00000380: e263 903c d58f c5bc f4d3 683c e84d b8bb
00000390: 25fd debc b036 373b 34f8 8b3c 2c35 4f3c
000003a0: 1c9e 1abd 4e2f 8d3c a8a2 6cbc 6077 06bc
000003b0: 4e91 273d 9374 00bd 7524 dcbc 581d ed3b
000003c0: 5101 83bc 066a 2fbd bc90 37bc f271 243d
000003d0: 940e d03c 40fc c53c 9321 10bd 7c77 4f3c
000003e0: 0005 c93b 80be 7b3a 9ccd c0bc 8c74 acbc
000003f0: cace 1bbd 900d 25bb 9234 b1bc 005d 9d3b
0.016779859 -0.033071857 0.018109411 0.011476148 -0.023565294 0.025746912 -0.019614572 0.04224813
0.039024264 0.013141975 0.03148961 0.02260705 -0.01364794 0.019560449 0.0018614754 0.015975364
0.014955092 0.009148851 0.037800528 0.032498524 -0.038493447 -0.01969476 -0.02695498 0.0039702207
0.032945327 0.013427097 -0.029564667 -0.0239777 0.0040213913 -0.042589728 -0.030779265 -0.0011599399
-0.04272517 0.020261757 -0.025152389 -0.007545486 -0.035347763 0.035056643 0.020167515 -0.016792925
0.026172921 -0.016984452 0.022741988 -0.043235786 0.0032084174 -0.01925618 -0.015805393 -0.026062159
-0.006558016 0.012075741 -0.0005428903 -0.02001846 -0.0257439 -0.042111415 -0.04001032 -0.013437925
-0.038306672 0.009819619 -0.0070625283 0.012673583 -0.019994779 -0.026976744 -0.020013079 -0.002031412
-0.033718705 0.020667933 -0.041837342 -0.003449142 -0.0384719 0.014418822 0.025821522 -0.04121931
-0.013120184 -0.029086202 0.030931883 -0.04043829 0.040164858 0.031207956 0.0074175224 0.024822868
0.028141722 -0.007471755 0.016690012 0.013895508 -0.018884478 0.007975079 -0.03841438 0.04054279
-0.029071003 -0.021857122 -0.04009401 0.033277363 -0.027625445 -0.0012905188 0.03989228 0.03866391
0.03067185 0.0145566985 0.021013945 -0.009637594 -0.039717346 0.015862294 -0.03823939 0.029292546
0.030475587 0.03744507 -0.01260649 0.020288289 0.04041232 -0.043933958 -0.007676147 4.158169e-05
0.030994423 -0.012162294 0.012173008 0.03830856 -0.039960586 -0.024543734 0.041791692 -0.0340798
0.006505981 0.02146151 -0.02560138 -0.012319278 0.013614874 -0.030914154 0.0161523 -0.0015654936
-0.04011917 -0.030888218 -0.04166844 0.042049818 0.03617789 -0.044048484 0.006629646 0.02951748
0.033815295 -0.011184201 0.0294751 0.0075272806 0.028112866 -0.011109699 -0.022383185 0.022213943
0.018008769 0.04286036 -0.034353454 0.014371514 0.01610487 0.015181135 -0.026509069 -0.013947869
-0.0050599985 -0.00016554818 0.03662131 0.0093917735 0.018652119 -0.041297503 -0.01444325 -0.034968503
0.04397674 -0.011924792 0.01920233 -0.004087288 -0.0115755275 -0.040645182 -0.042525683 0.0108833015
0.04058832 0.029842257 -0.029182605 -0.013086297 0.0073654614 -0.013568744 0.042041376 0.008828927
-0.02807296 0.041106448 -0.01442237 0.03916075 -0.03238794 0.038631424 0.012689177 -0.034643114
0.0051604845 -0.027962336 -0.040302914 0.0059086904 0.039057776 0.035195127 -0.0122239515 0.034860387
0.03211967 -0.019291025 0.012100764 -0.007758204 0.041831896 0.0034418814 -0.020563098 0.04008072
-0.031796396 -0.018449923 0.016250499 0.024500914 -0.019134903 0.024254866 -0.0015487969 -0.027796667
-0.023275409 -0.037840225 -0.024538945 0.04342922 0.026896521 -0.011078075 -0.029071487 -0.033604883
-0.004848469 0.021952331 0.0401254 -0.007460255 -0.03834664 -0.012908928 0.010234892 -0.014331235
0.017625753 -0.024116436 0.01421069 -0.0056245215 -0.027220318 0.002795618 0.017086126 0.0126469545
-0.03774844 0.01723447 -0.014443077 -0.008207172 0.040910058 -0.031361174 -0.026872853 0.007236164
-0.015991839 -0.04282572 -0.011203941 0.04014773 0.025397576 0.024168134 -0.03518827 0.012662765
0.0061346292 0.0009603277 -0.023535542 -0.021051668 -0.038039006 -0.0025185086 -0.021631513 0.004802346

pool2.bias f4 [8]
00000000: ccfb ae3c 48a8 fd3b 00cc fabc 10c9 adbb
00000010: 1419 59bc 564f 05bd e412 12bc 6842 d33b
0.0213603 0.007741008 -0.030614853 -0.0053035095 -0.013250608 -0.032546364 -0.008915637 0.006447125

reduction2_2.weight f4 [16, 8, 1, 1, 1]
00000000: 8830 833e dc39 d73e 10ea 743e 4870 6d3e
00000010: 80df 633c 20ae c7be 80d5 d43d cc29 083e
00000020: 40e7 62bd 46ec ac3e b2fd d6be 10d0 243d
00000030: 28c1 eebd 4208 a0be 6809 f33d ae6f e1be
00000040: bcee 7bbe ea85 f33e 186f f13e 3c0a e23e
00000050: c031 e83e d839 70be c0cc f73c b8de 263e
00000060: 088e d73d f8e8 e8be 3c93 e93e 7059 9c3e
00000070: 74e7 03be 0059 7d3e c202 9bbe 20fa 8fbd
00000080: 4276 ffbe 00cc 863b 70e9 293e 203c 373d
00000090: f013 ebbe b0e5 7b3e 0069 993b 60dd f43c
000000a0: bef5 f4be fe1c d4be e678 e4be 90c4 303e
000000b0: 4046 8a3c 00cf 8c3e aa84 803e d84f 0c3e
000000c0: 503c 8abe 0647 d43e 321c 8cbe 26c8 c73e
000000d0: 68b3 9d3d 90ad 3c3e aca0 733e 96a6 ac3e
000000e0: e474 713e ac54 d1be 245b 84be da79 aa3e
000000f0: 0ec0 873e 909c 62bd eaea f0be e86e bfbd
00000100: b0e5 0e3e 9ead 8fbe 7a12 f23e 40e5 0fbc
00000110: 780a 193e 8086 cc3c 6892 9bbe f8e7 753e
00000120: ea73 ec3e d635 fc3e d2d8 db3e 68b8 eebd
00000130: 4881 5ebe 0ef8 a23e 5c38 f1be 0051 46bd
00000140: e270 f93e 8056 1bbd 288e 7f3e 609a c23c
00000150: b8aa a5bd 6602 af3e 4286 e93e 784f d5bd
00000160: f61d dcbe 4090 8fbe c026 05bd 601d c9bd
00000170: 9cbc e83e e2e8 c5be d0f8 cebe c898 fd3e
00000180: c86b 1a3e 0098 0b3a 40bb 473c 4c4d 8b3e
00000190: 90c9 c9bd c861 6e3e 642d 01be 948c 5bbe
000001a0: 9e62 9e3e 0030 463e 147d 1cbe 6e7c d03e
000001b0: 0090 5bbe b053 3e3e c0c5 c8be 6831 133e
000001c0: 6455 37be ecda 94be b2e2 c1be 7030 b8be
000001d0: 1e35 9cbe 482a 093e 0abe 8cbe 005d 6fbe
000001e0: f668 b83e 3c9f b83e e048 1d3e 00e7 dbbd
000001f0: 1cbb 4bbe 5817 e0bd 00c3 0abc 6800 653e
0.25622964 0.4203633 0.23917413 0.23187363 0.013908267 -0.39000034 0.103922844 0.13297194
-0.05539632 0.33774012 -0.4199043 0.040237486 -0.116579354 -0.312563 0.118670285 -0.44030517
-0.24602789 0.47563106 0.4715507 0.44148433 0.45350456 -0.23459566 0.030249 0.16295898
0.10525137 -0.4549024 0.45620143 0.30536985 -0.12881261 0.24740982 -0.30275542 -0.070301294
-0.4989491 0.004113674 0.16592956 0.044735074 -0.4591365 0.24599338 0.0046817064 0.029890716
-0.47843736 -0.4142837 -0.44623488 0.17262483 0.016879201 0.27501678 0.25101215 0.13702333
-0.2699914 0.41460437 -0.2736526 0.3901989 0.07700235 0.18425584 0.2379176 0.33720845
0.23579746 -0.40884912 -0.25850785 0.3329609 0.26513714 -0.05532509 -0.47054225 -0.093473256
0.13954806 -0.28062147 0.47279721 -0.008782685 0.149454 0.024966478 -0.30385137 0.2401427
0.46182185 0.49259824 0.42938858 -0.116562665 -0.21729004 0.31829876 -0.4711331 -0.04841709
0.48718935 -0.03792429 0.24956572 0.023755252 -0.08089203 0.34181517 0.45610243 -0.10415548
-0.42991608 -0.28039742 -0.032507658 -0.09820056 0.45456398 -0.38654238 -0.40424204 0.49530625
0.15080178 0.0005325079 0.01219064 0.2720741 -0.09852898 0.23279488 -0.12614971 -0.21440345
0.30934614 0.19354248 -0.15282089 0.40719932 -0.2144165 0.18586612 -0.3921337 0.14374316
-0.17903668 -0.29073274 -0.37868267 -0.35974455 -0.30509275 0.13395035 -0.27488738 -0.2337532
0.3601758 0.36058986 0.15359831 -0.10737419 -0.19895595 -0.109419525 -0.008469343 0.22363436

conv2_2.0.weight f4 [8, 8, 1, 1, 1]
00000000: 80a9 b1bb fa76 d2be d3dc 0bbf b707 81be
00000010: 4c4c 773e f814 d83d 5c2a 413e 19b6 0cbf
00000020: 8849 0ebf 2928 0a3f 2251 d43e 2247 70be
00000030: 11f7 163f d33c d9be 2937 f2be 450b a3be
00000040: 22db 27be 5006 c9bd 2d50 81be b138 0c3f
00000050: a878 333e 600e e1be 36db a53e 0010 d7bd
00000060: d4e1 f1be f0b7 74bd 52e4 d73e d8a8 0dbf
00000070: 1dee 073f 66d7 bd3e bcfc 0f3e 946d 563e
00000080: 6885 05be 61f4 06bf 4a4a b1be 540d 613e
00000090: 3077 9f3e 5e38 96be 80ce 69bd 8063 bebb
000000a0: 2865 83bd 2499 adbe 7cb3 3b3e 7863 9fbe
000000b0: 4096 b6bd e055 55bd 8e21 bf3e 08da bb3d
000000c0: e76f 173f 5083 263d 361e d03e 6aa6 fcbe
000000d0: a2f9 bdbe a8d6 8abd e844 0fbf 787d 3b3e
000000e0: 3c0c 733e 284c 4e3e 2c2a 64be 94b8 993e
000000f0: 0a83 07bf 1224 ee3e a03d aabd 00d6 4ebc
-0.0054218173 -0.41106397 -0.54633826 -0.25201198 0.24150199 0.105508745 0.18863815 -0.5496536
-0.5558095 0.5396753 0.4146815 -0.23464635 0.58970743 -0.42429218 -0.4730771 -0.31844535
-0.16392186 -0.09815657 -0.25256482 0.54774004 0.17526495 -0.4395628 0.32393807 -0.10501099
-0.47242606 -0.05974573 0.42166382 -0.5533576 0.5309771 0.37078398 0.14061254 0.20940238
-0.13039172 -0.5271664 -0.3462699 0.2197774 0.3114562 -0.2933988 -0.0570817 -0.005810201
-0.064157784 -0.339059 0.18330187 -0.31130576 -0.08915377 -0.05208385 0.37330288 0.091724455
0.59155124 0.040652573 0.4064805 -0.49345714 -0.37104517 -0.06779224 -0.5596452 0.18309581
0.23735136 0.20146239 -0.22281712 0.30023634 -0.52934325 0.46511894 -0.08312535 -0.012624264

conv2_2.0.bias f4 [8]
00000000: 8d2d 57be b039 f53d 26e9 273e 205d d13d
00000010: ec4b 93be 9854 c8bd 8633 6d3e ddaa 903e
-0.2101347 0.11973894 0.16397533 0.1022284 -0.2876886 -0.0978176 0.23164186 0.28255358

conv2_2.2.weight f4 [8, 8, 3, 3, 3]
00000000: 289e 48bc eccc c2bd eb8e bf3d 1f3e a6bd
00000010: 4199 cd3d 2ceb 95bd f364 c4bd ad85 db3d
00000020: c81e 373c 8481 e7bd 5815 2dbd 1faa a8bd
00000030: cac0 6c3d 2aa4 4d3d c73e bfbd 7a66 4a3d
00000040: d7c0 cdbd 0e34 2f3d 0a28 57bd a605 abbd
00000050: 667d 463d dbfa d2bd e3c1 dabd 6e76 dabd
00000060: 1c6a 4abd 9418 fa3c 3122 c93d 99b9 e0bd
00000070: 7b03 dabd 0437 d73c 38fa 01bd 0029 3dbd
00000080: bc90 b33c 9b1b cdbd f5b1 ba3d a877 633c
00000090: 5831 38bd 1314 de3d 009c dfbc 7ed9 e1bd
000000a0: daf4 b2bd e002 a1bd b0d5 a3bc 0adc 053d
000000b0: 5233 1b3d 30c8 8cbd db78 8bbd a996 c4bd
000000c0: d0d8 34bc a9d6 953d 21aa 7fbd a05b d1bd
000000d0: e0e4 8dbb 501a a0bd cc4c 9a3c b7cd 8abd
000000e0: 1eb9 413d 7980 e23d 5a4a d8bd 13a3 bb3d
000000f0: eef8 90bd b1ab d3bd c703 d13d a0da 8dbc
00000100: 384d 50bc b468 a1bc bf7b a73d 24c0 cc3c
00000110: 8334 9e3d 4a8e 0b3d e85f 7bbc f15c 7abd
00000120: e61a 5ebd 09f1 dc3d 88b1 80bd 758b e6bd
00000130: ee63 5b3d 351e b23d c774 9e3d 7866 c1bd
00000140: 9395 efbd fc64 c9bc 02a1 dbbd 0bee 91bd
00000150: 659c 8ebd b48d eabc e0a1 82bc b2d1 1dbd
00000160: ed41 ea3d 59c8 df3d 7bf2 c7bd 5264 5f3d
00000170: 1e2f 01bd be55 633d 8090 88bd 2098 56bd
00000180: 92bb 033d a1a3 d7bd e8d4 6a3c 9b9f e63d
00000190: b2d1 70bd c378 93bd c287 4f3d ef4e 803d
000001a0: e4c8 88bd 644f a73c 94ec 97bc 1223 26bd
000001b0: d028 2bbc 969a 053d b1df d2bd a82f 043c
000001c0: 48de 94bc 6790 eb3d a820 333c a0db 57bc
000001d0: e553 ba3d 4837 7fbd 82ff 16bd b70c dd3d
000001e0: d072 2bbd 3409 9ebd 47eb a43d a054 48bc
000001f0: f0e5 b6bd e632 13bd d740 983d ce3d dfbd
00000200: 9e2e 693d 8fe8 9f3d db1d 7ebd c9d1 e13d
00000210: fab2 01bd 3d04 b53d b47b dd3c f4fe 64bd
00000220: acbe acbc 126a bdbd ce3e a3bd d260 303d
00000230: a3ca e13d 58c4 2cbc ed45 d63d b791 e43d
00000240: 38ed 29bc f8c7 20bc 6e5a a7bd 8dec b03d
00000250: 5986 963d 17f4 6fbd 5b9e bb3d 5c5b 97bc
00000260: b254 54bd 8b92 a93d 5ac5 573d 70b7 0cbd
00000270: f4fe 893c 5a68 46bd ef97 81bd 024b 54bd
00000280: 3e64 18bd 4976 cc3d 5144 b4bd 7424 48bd
00000290: 47ac f0bd e2f6 4d3d 2de0 78bd 946c c4bc
000002a0: cbec a7bd 7e98 0d3d b2e3 b7bd 888d 9bbd
000002b0: 260d 653d 1e4a ccbd b4ee c2bc cf47 db3d
000002c0: f961 ea3d f30e aa3d 3c1c df3c 38d7 afbd
000002d0: 62c6 7fbd 2944 c9bd 75d2 f03d 9607 5fbd
000002e0: 8088 e6ba 82a7 2a3d 38dd 703c ae59 46bd
000002f0: 7cee ad3c c58f 9cbd 8e3e 7dbd 3880 213c
00000300: 7fc1 d8bd 7861 9bbc 62f8 013d c282 233d
00000310: 7290 203d 1e35 88bd 8d3c bc3d 3b6c 80bd
00000320: 4d51 853d bfa4 a03d 1858 8abc 5b2d 9d3d
00000330: 3f71 b7bd 09ea dc3d d4db f1bc 3ddf 843d
00000340: 7995 ee3d 3424 d0bc d254 90bd 28e6 533c
00000350: f85a 7cbd c3b6 9e3d 5a05 323d cc93 9fbd
00000360: fc82 cdbc 90c8 8fbc aade 98bd faed b7bd
00000370: a5cc bc3d 960c 08bd 63f6 a9bd ffa6 e23d
00000380: f18d 823d 1264 363d 894e 983d 1221 053d
00000390: 4ee3 2a3d dd92 d7bd 4261 90bd dce4 fa3c
000003a0: ae31 313d e4d5 0ebd b034 a8bc 9af7 513d
000003b0: 2779 ee3d 3092 ec3b c09c d5bd 42dc 073d
000003c0: dc03 e5bd 398e bbbd 2ad6 aebd 9f09 9e3d
000003d0: 9d80 bf3d 8f0e babd 3a63 54bd 0ea8 6f3d
000003e0: 6cd0 b73c d142 b83d 1eea 673d 0651 293d
000003f0: 2418 24bd 3825 2e3c e09b 86bc 3361 c83d
-0.012244739 -0.09511742 0.09353431 -0.081173174 0.100389965 -0.07320246 -0.09589567 0.10718856
0.011176772 -0.11304 -0.042256683 -0.08235573 0.057801045 0.050205387 -0.09338146 0.049414136
-0.10046547 0.042774253 -0.05252842 -0.08350687 0.048459433 -0.10301753 -0.10681512 -0.1066712
-0.0494176 0.030529298 0.098209746 -0.109729 -0.10645195 0.02627135 -0.031732768 -0.04618168
0.0219196 -0.10015031 0.09115974 0.013883509 -0.044968933 0.108436726 -0.027296066 -0.110278115
-0.08738108 -0.078618765 -0.019999355 0.03268055 0.03789074 -0.0687412 -0.06810161 -0.09599049
-0.01103802 0.07316334 -0.062418107 -0.10222554 -0.0043302625 -0.07817519 0.018835448 -0.06777518
0.047295682 0.110596605 -0.105610564 0.09161963 -0.070787296 -0.10335482 0.102057986 -0.017316163
-0.012713723 -0.019703247 0.081778996 0.024993964 0.077248596 0.034071244 -0.01534269 -0.061123792
-0.05422487 0.10788161 -0.062838614 -0.11257068 0.053562097 0.08697168 0.07737117 -0.094433725
-0.11698451 -0.024584286 -0.10724069 -0.07125481 -0.06963424 -0.028632022 -0.015946329 -0.03853006
0.114383556 0.10926885 -0.09763046 0.054539032 -0.031539075 0.055501692 -0.06668186 -0.05239117
0.032161303 -0.105292566 0.014332987 0.11260911 -0.05879373 -0.07200768 0.050666578 0.062650554
-0.06678942 0.020423599 -0.018545426 -0.04056079 -0.010446742 0.032618128 -0.10296572 0.008068003
-0.018172398 0.11502152 0.010933079 -0.013174921 0.09098033 -0.06230858 -0.036864765 0.10793441
-0.04185754 -0.07716599 0.08052688 -0.012227207 -0.08930576 -0.035937212 0.07434242 -0.1090046
0.056929223 0.07808029 -0.06204019 0.110263415 -0.031664826 0.08838699 0.027036525 -0.055907205
-0.021087013 -0.09248747 -0.079709634 0.043061085 0.11024978 -0.010544859 0.10462556 0.111606054
-0.010371499 -0.009813301 -0.08171545 0.086388685 0.073498435 -0.05858239 0.09161063 -0.01847618
-0.051838584 0.08279904 0.052678443 -0.034354627 0.016845204 -0.04843936 -0.06327807 -0.051829346
-0.037204973 0.099834986 -0.08802093 -0.04886289 -0.11751609 0.050284274 -0.060760666 -0.023977555
-0.081994615 0.034569256 -0.08978976 -0.07595354 0.055920742 -0.09975074 -0.023795463 0.10707056
0.11444468 0.083036326 0.027235143 -0.085859716 -0.062445052 -0.09827454 0.117588915 -0.054450594
-0.0017588288 0.041663654 0.01470118 -0.04842537 0.021231882 -0.07644609 -0.061827235 0.00985723
-0.105837815 -0.018967375 0.031731017 0.039919622 0.039200254 -0.06650756 0.09191237 -0.06270643
0.065096475 0.07843923 -0.01688771 0.076746665 -0.08957147 0.10786826 -0.029523768 0.06487892
0.116496034 -0.025407888 -0.07047428 0.0129332915 -0.061610192 0.07749703 0.043462135 -0.07791862
-0.025086872 -0.01755169 -0.07464345 -0.08980937 0.0921872 -0.033215128 -0.08298948 0.11067008
0.063747294 0.04452903 0.074368544 0.03250224 0.04172068 -0.10526059 -0.070498005 0.030626707
0.04326027 -0.03487195 -0.020532936 0.051261522 0.11644202 0.0072195753 -0.10430288 0.03316904
-0.11182377 -0.09157986 -0.08536942 0.07716679 0.09350703 -0.09084808 -0.051852442 0.05850988
0.02243825 0.08997119 0.056619756 0.041337036 -0.040062085 0.010628991 -0.016431749 0.09784164

conv2_2.2.bias f4 [8]
00000000: 139f 33bd 54c2 4cbd 0846 d3bc 644d 61bc
00000010: 9c22 69bd 407a 193c 8e9e cbbc 1ebe e4bc
-0.043852877 -0.049990013 -0.02579023 -0.0137513615 -0.05691777 0.009367526 -0.024855878 -0.027922686

conv2_2.4.weight f4 [16, 8, 1, 1, 1]
00000000: 88de 7a3e a044 933c 00e7 083c 2c34 f2be
00000010: 5054 88bd f074 d1bd e87f 85be 5854 27be
00000020: 8cf9 573e 9afe bdbe fcb5 0fbe f8f9 c5bd
00000030: 286d 89bd e6a5 cf3e 70e1 2ebd 8031 7cbd
00000040: f8a0 a13e a0b4 e23d 68ae 4c3e a85c 233e
00000050: 221a d53e 40f7 483c 04e1 4d3e e853 9f3d
00000060: e00c 83be 34a2 6a3e 78d7 853d 0421 a7be
00000070: 8406 b6be 0670 e93e 6c24 d73e 6040 fa3e
00000080: 3e5d febe e8d8 c73d 5c53 24be f085 e93d
00000090: 004c e93b c4c9 5a3e 0090 0139 8e12 f33e
000000a0: 36b6 f43e 9024 ed3e 7cca 6d3e dcd4 113e
000000b0: 342d d1be 4086 553d 403a 133c d092 7a3d
000000c0: 1675 9d3e 9478 353e 5848 babe a2f8 e83e
000000d0: 18b8 41be e897 543e 8882 a0be d8e1 b2be
000000e0: 8a6c a9be f894 663e d021 57bd 7ef9 c9be
000000f0: 269b 95be 30b3 c1bd 480f d1be f883 4abe
00000100: 227b e03e 18dc 9dbe 20c0 433d e051 abbd
00000110: 18ee dc3e 96c5 d9be 20a1 b0bd 1a65 aebe
00000120: 1064 cfbd aea4 a23e 98aa dbbd 128e b93e
00000130: 0e15 943e 2827 a83e 600c 7cbe 3082 c1bd
00000140: 305d f23e 0206 f9be 80ff 553d 04f5 5c3e
00000150: 86cc d8be 4cb2 c0be c82d bebe e0bb 72bd
00000160: 261f d8be 6e72 f8be 904c b8bd be37 ba3e
00000170: 188a 933e d04d 6b3e e804 9abd 7e11 f2be
00000180: 78e4 483e 2672 e93e 72ea fdbe 0cf8 34be
00000190: bc67 10be 3678 96be 68f7 acbd 1c76 7d3e
000001a0: 10ee 2e3e c83c 513e 9480 a93e 308a e5bd
000001b0: ae06 f6be 601b e93c a049 ff3e 2205 e3be
000001c0: 3850 9f3d 8414 7abe 04f7 80be a0b5 4c3e
000001d0: f279 f73e 38cb 053e 3469 783e 107c 35bd
000001e0: b66c eb3e e088 7abe 8211 873e a20b edbe
000001f0: 7053 243e 645f 933e e473 8b3e 1abd adbe
0.24498951 0.017977059 0.008355856 -0.4730543 -0.06656706 -0.10227382 -0.26074147 -0.16340768
0.21091288 -0.37108308 -0.14034265 -0.096668184 -0.06710273 0.40556258 -0.042695463 -0.061570644
0.31568122 0.11069608 0.19988406 0.15953314 0.416215 0.01226598 0.20105368 0.07779676
-0.2559576 0.22913438 0.06535238 -0.32642376 -0.35551846 0.4559328 0.42019975 0.4887724
-0.49680513 0.097581685 -0.16047424 0.114025 0.0071196556 0.2136603 0.00012356043 0.47475094
0.47795266 0.46316957 0.23221773 0.14241356 -0.408548 0.052129984 0.008986056 0.061175168
0.30753392 0.17721778 -0.3638332 0.45502192 -0.18917882 0.20761073 -0.31349587 -0.3493793
-0.3309062 0.22517765 -0.05252248 -0.3944816 -0.2921993 -0.094580054 -0.4083197 -0.19776905
0.43843943 -0.3083198 0.047790647 -0.08365226 0.431504 -0.4253356 -0.08624482 -0.3406151
-0.10126507 0.31766266 -0.107258976 0.36241204 0.28922313 0.32842374 -0.24614096 -0.094486594
0.4733672 -0.48637396 0.052245617 0.21577841 -0.4234354 -0.3763603 -0.37144303 -0.059261203
-0.42211264 -0.48524803 -0.08998978 0.36370653 0.28816295 0.22978902 -0.07520467 -0.4727897
0.19618404 0.455949 -0.4959293 -0.17672747 -0.14102072 -0.2938859 -0.084456265 0.24752086
0.17083001 0.20433342 0.3310591 -0.11207998 -0.4805197 0.028455436 0.4986086 -0.44339854
0.077789724 -0.24421889 -0.25188458 0.1999116 0.48335224 0.13065803 0.24258882 -0.04430777
0.45981377 -0.24466276 0.26380545 -0.46297938 0.16047454 0.28783715 0.27236855 -0.33933336

conv2_2.4.bias f4 [16]
00000000: 084f 07bd cf99 9c3e 6019 9bbc d74f 9abe
00000010: 20c1 d8bc 741d 9f3d e05c d3bd fd3d 9ebe
00000020: 1f7e aebe 9b31 29be 00f1 2cbd 9dbe 9bbe
00000030: 911b 35be 9c20 883d 1a1b 61be 61d1 82be
-0.033034354 0.30586097 -0.018932998 -0.30139038 -0.026459277 0.077692896 -0.10320449 -0.30906668
-0.34080598 -0.16522829 -0.042222023 -0.30418864 -0.17686297 0.06646845 -0.21982995 -0.25550368
