weights/010/cpBest_SSC_PALNet.pth.tar (torch_old, 890213 bytes, 69 tensors)

conv2d_depth.0.weight f4 [6, 1, 3, 3]
00000000: 393c 9a3d 9df8 5f3e ad00 5e3e c81c 06bc
00000010: 8b2b a23e b9c3 843e 9c50 a53d a928 d03e
00000020: 8385 023e f0fa 9ebb db11 1c3d 8008 bbbc
00000030: 70e6 e83d 408d 3dbe ff5a f7bd afd2 34bd
00000040: 0d17 6d3d 0e5f 08be 1c5b d83e e431 773e
00000050: facb c53e 83de b13d 2d70 523e d1d3 8b3e
00000060: e250 a53e 14dc 8d3e 623f 933e 23dc 08be
00000070: b442 59be cade 45be 295b 34be aed5 a63d
00000080: f505 bfbd f4a0 90bd 69db 3f3e 911f 34be
00000090: 955f 183b 1aa9 c13d 2e29 193e 6139 57bd
000000a0: dfa2 043c 2e64 0dbe f2fb 47be f44d 4cbe
000000b0: 6198 713d d22d c03c cb16 273e 3b88 313e
000000c0: 3a48 cb3e 7859 853e 1172 c33e 3914 e33e
000000d0: 8c74 f93d 4196 d23e
0.07531018 0.21872182 0.21679945 -0.008185573 0.31673846 0.25930575 0.08072016 0.4065602
0.12746243 -0.0048516914 0.038102966 -0.022831202 0.113720775 -0.18510914 -0.12077903 -0.044146236
0.05788331 -0.1331751 0.4225701 0.24140126 0.38632184 0.08685019 0.20550604 0.2731004
0.3228827 0.2770697 0.28759295 -0.13365225 -0.21216851 -0.19323269 -0.176129 0.08146225
-0.09327308 -0.07061949 0.18736042 -0.17590167 0.002325033 0.09456082 0.14957115 -0.052544955
0.008095472 -0.13807747 -0.19529703 -0.19951612 0.05898321 0.023459349 0.16317289 0.17337124
0.39703542 0.26044822 0.38172963 0.44351366 0.12180433 0.4113026

conv2d_depth.0.bias f4 [6]
00000000: bd78 c03e de2f c7bc 89e7 e43d 598b c0bd
00000010: bd74 4f3e f449 d03e
0.37592116 -0.024314817 0.11176974 -0.094015785 0.20259376 0.40681422

res_depth.0.weight f4 [3, 6, 1, 1]
00000000: 0630 063c 49ea 623e 510e 02ba 16d0 56be
00000010: 0a40 6abe adcc 863d 165f a83d 36c4 92bd
00000020: 2120 173d 1c86 efbd c150 0b3e a65b 7ebd
00000030: 0954 8dbd 1811 893d f953 743d 06d7 823e
00000040: 22e4 153e fd67 d8bd
0.008190161 0.22159685 -0.000496124 -0.20977816 -0.22875991 0.065820076 0.08221261 -0.071663305
0.036895875 -0.11695501 0.13605024 -0.06209912 -0.06900794 0.066927135 0.059650395 0.25554675
0.14637807 -0.10566709

res_depth.0.bias f4 [3]
00000000: acae 18be ed7a 41be b964 733e
-0.14910382 -0.18894549 0.23768891

res_depth.2.weight f4 [3, 3, 3, 3]
00000000: b2b2 f13d e655 963d def4 583d 444d c73d
00000010: 0b04 d13d a04e e1bd db70 e03c a3af 823d
00000020: a484 063d fd3f 8b3c 8c62 b2bd e11f 113d
00000030: d46d 34bc 931b ffbd d9dc 933d c8b4 783d
00000040: c272 b6bb 37cb a13d 614b 31bd a4c8 ebbd
00000050: e2de 243d 3a00 98bd af55 95bd 50b3 f9bd
00000060: 9b39 a23d 7d4c deb8 6502 de3d b929 a8bd
00000070: ce35 b73d 0d17 3d3d 9a58 9b3d 4f27 703d
00000080: 4d96 e3bd a67c be3d 18ce febd bd59 fdbb
00000090: 6080 eabd 682c 99bb 40ee e9bd 1a5a a93d
000000a0: 2f7a 45bd b532 de3d df7b 50bb f6f1 db3b
000000b0: 9bc8 69bd 660f 34bd 02db 22bd 2caa e0bd
000000c0: 2be8 50bd ed33 acbd ec56 e9bd d3ec e1bd
000000d0: c0bc 50bc efed 983d 8d34 92bd 1ab8 a4bd
000000e0: cba2 fabd 4084 9fbb d8af a1bd f4a5 01bd
000000f0: d6e2 613d d2f0 d4bb 1fb8 0a3d 6e30 febd
00000100: dada c2bd 4b5e e2bd d9ba 5abd 5ec9 61bd
00000110: 12d2 92bd 6112 9eba c43d 3fbd 30ef 713d
00000120: 8368 88bc 5713 fc3d d3a8 d6bd 15be 64bc
00000130: aa92 bc3c 99fd e83d 1863 eebd 754b 723d
00000140: bcc5 0a3d
0.118016616 0.073406026 0.0529679 0.09731534 0.10205849 -0.11001325 0.027397564 0.06381156
0.03284134 0.016998285 -0.087102026 0.035430793 -0.011012513 -0.12456431 0.07219858 0.06071928
-0.0055678794 0.07900088 -0.043284778 -0.115128785 0.04025162 -0.07421918 -0.072917335 -0.12192404
0.079211436 -0.00010600032 0.108403005 -0.08211083 0.08945809 0.04616456 0.07585259 0.058631238
-0.11112652 0.093011186 -0.12441653 -0.007731645 -0.11450267 -0.004674483 -0.11422396 0.08269139
-0.048212226 0.10849515 -0.0031812114 0.0067121936 -0.057076078 -0.043959998 -0.039759643 -0.10969958
-0.051002663 -0.084083416 -0.11393532 -0.11031499 -0.012740314 0.07467257 -0.071389295 -0.08042927
-0.122380815 -0.0048680604 -0.07894868 -0.031652406 0.05514797 -0.0064984346 0.033866998 -0.12411581
-0.09514399 -0.11053141 -0.053400848 -0.05512368 -0.07168974 -0.0012059921 -0.046689764 0.059065998
-0.016651398 0.12308376 -0.104814194 -0.013961335 0.023019154 0.11376495 -0.116399944 0.059153993
0.03387998

res_depth.2.bias f4 [3]
00000000: f190 e23d 3868 fabd e4f5 debd
0.11062802 -0.122269094 -0.10886744

res_depth.4.weight f4 [6, 3, 1, 1]
00000000: d62f 27be 2e2a e6bd 3f18 02be 675c a0bd
00000010: 85f7 8f3e c905 933e e865 143e 4764 18be
00000020: 0f92 0d3e fcc3 923e a4a8 b93d f185 be3e
00000030: cb26 e23d f5b2 9ebe cc91 043d ba36 17be
00000040: fd84 8d3e 787a afbe
-0.16326842 -0.11238514 -0.12704562 -0.07830124 0.2811853 0.2871535 0.14491999 -0.14882003
0.13825248 0.2866515 0.09065369 0.37211564 0.110425554 -0.30995908 0.032365605 -0.1476697
0.27640525 -0.34273124

res_depth.4.bias f4 [6]
00000000: 1c17 ec3d db24 e4bd 964f 28bd f154 023f
00000010: 826f 733e 66f1 ec3e
0.11527845 -0.11139842 -0.041091524 0.5091086 0.23773006 0.46277922

pool1.weight f4 [8, 6, 4, 4, 4]
00000000: 3fdd 00bc 6999 193d 5804 773d 947a 78bb
00000010: 25ac 49bc 561e 5c3d e6c2 b73c bc2d 8fbb
00000020: 1fa5 b63c 6c15 30bd 1617 aa3d 6210 163c
00000030: 8814 ff3c 33fc 603d 7a00 543d 24f0 71bc
00000040: 2041 353d 9a90 453c df0d 7c3d e3c4 2f3d
00000050: 7ff2 5ebd 89cc 123d eb67 983c e85a cd3c
00000060: 4284 6c3d cbef 6c3d bbfc 6e3d eaf5 b33d
00000070: f334 433d ad56 f63d 1898 5a3d 33a0 24bc
00000080: e63a a43c 1d3c edbc 3c4c 47ba ed12 48bc
00000090: 24bf 0fbc 9991 eeba b6c0 073d a99e 0a3c
000000a0: f5af c83c d0ab f5bc e488 293d 81ac 2dbd
000000b0: f8b3 903d 8c7b c53d c531 243d e1a7 99bb
000000c0: 1a8f 023d 5b52 1dbd ac23 b83c a269 5dbd
000000d0: a131 313b fdd2 6fbd 54a7 063c a21b 7d3b
000000e0: 306d e33b d7fb 43bd 98f9 4abd c4b5 e03c
000000f0: 478c 183d 7cbe bf3b 68f1 bc3d 111b e73c
00000100: 542f a4bc 4272 143d 079d 7f3c e3fd 40bd
00000110: e3ab f9bc 4ec5 56bd 8716 3c3c 93d7 263d
00000120: 045a 19bd 5400 233a dbb7 72bc d9ae 67bc
00000130: 04df 363d 763f a439 aa09 52bd 78b4 013b
00000140: 2f38 513d 035a 3fbd b28e 6f3c 868e ed3c
00000150: 8f03 da3c fc5e 0d3d 9bfb b33c 2ed6 933c
00000160: 86a6 4e3c b416 43bd 7708 1c3d 1f05 c9bb
00000170: 0ae4 94bb 4bba 243d 1ea7 043d 20f8 74bc
00000180: ddac d2bb b86c aabc 2339 df3b a98a 663a
00000190: dde3 4e3d b9a1 f33c d05a 423d 8a71 da3c
000001a0: 4241 adbc 071a 0fbd 3421 4dbd 47fa a9bc
000001b0: c9a2 163c dd2f 30bc 6b36 cf3c 9317 47bd
000001c0: bb76 fb3c e9dc 063c acbc 073c b8b4 23bc
000001d0: 9785 d93c f7ed 3cbd de75 e03c 0a40 bd3c
000001e0: 77f0 0bbc 9dbd 803c 72e9 073c 42a0 86bb
000001f0: 2db3 9ebc 31c3 ccbc f9ed 683c 7e04 d53a
00000200: 9158 afbd 2ef9 1d3d 882a 2bbd a666 15bd
00000210: 0e41 90bc fb39 5e3d d3ef fb3c 475b ba3c
00000220: 5076 743d 3ddc fcbc 6bcd e73c b1a1 aa3d
00000230: d7de 703d 5735 f13d 4042 d03d 0126 19bd
00000240: 5e4d d2bb ca1a 5cbd a4de 923d 026d 4a3d
00000250: 4a75 8ebc e249 0dbc 4984 963d 242f ac3c
00000260: e8a8 91bc 170f 393d 5d00 a43d 5ed1 27bc
00000270: 0b29 00bc f6f7 3c3d 1b9f 8d3d 1dcc 423d
00000280: a1f9 9f3c a32d 71bc 796f 8d3c 5789 8bbd
00000290: 62c0 36bd b607 fbbc 84c5 8a3c 81ce 85bb
000002a0: 0bd4 14bd a8e3 4e3c 59c7 e7bc 74c1 72bd
000002b0: 8bdb a03d 2a06 b73d 84ec e43d 1780 4a3d
000002c0: d3ab 963d 284b b2bc e4e5 6fbd ce27 babd
000002d0: 6185 523d d89e 57bb cc8b 01bd 6e21 8fbd
000002e0: 7795 3abd 1528 bcbd 4324 d33c 1091 02bc
000002f0: b5dd c43d 346e ac3d e674 d53d 75e6 71bd
00000300: ffd4 6fbc 3826 cebc 2268 b73c d2a1 30bd
00000310: 038e 40bd a402 923c beff 393d b2d2 6a3d
00000320: 9797 db3b 9d19 583d 247a 433d bb1a 89bc
00000330: b5bf 263c cac1 103d 7bad 843d da8c 243d
00000340: e176 643d 8ec4 9bbc b82c e83c 19db 4d3d
00000350: b047 ce3b a265 803b 11d7 49bc 104a 6bbc
00000360: 13e9 0b3d 60d3 c73b 8666 d8bc bd25 6e3d
00000370: 6911 953d 8b43 a63d fce4 943c a09c aabc
00000380: 1c46 08bd b0c5 153d 7f6a 67bc 782d 1c3d
00000390: 3e92 d33c 386d 513d c23d e03c 1560 fa3c
000003a0: 4181 fcbc 020d a6bc b276 203d ede1 4c3d
000003b0: c613 2b3d a653 0d3d 3b1b 9a3d 5afa 503d
000003c0: df43 483d 41ae 4ebb 95a2 2e3d dd66 64bd
000003d0: 2d86 513d 9f76 ebbc d617 133d 8b0d 9ebc
000003e0: 41c2 10bd 6a31 34bc 76cb 933c 39f6 ffbb
000003f0: 9561 813d d584 b83b 16fc 263d 3e94 223d
-0.007865249 0.03749982 0.060306877 -0.003791486 -0.012309109 0.053739868 0.022431802 -0.0043694656
0.022295533 -0.04298918 0.083051845 0.009159179 0.03113772 0.054928016 0.051758267 -0.014766727
0.04425156 0.0120584015 0.061536666 0.042912375 -0.05443048 0.03583959 0.01860424 0.025067762
0.05774332 0.057845872 0.05834649 0.08787139 0.04765792 0.12028251 0.053367704 -0.01004796
0.020047616 -0.028959328 -0.00076026074 -0.0122115435 -0.008773599 -0.001820135 0.033142768 0.008460679
0.024497965 -0.029989153 0.041390315 -0.04240084 0.07065576 0.09642705 0.040086526 -0.004689202
0.031874754 -0.03840862 0.022477947 -0.054055817 0.0027037638 -0.058550823 0.008218605 0.0038621207
0.0069405064 -0.047847595 -0.049554437 0.027430423 0.037243154 0.005851565 0.09225732 0.028211148
-0.020042099 0.036241777 0.015601403 -0.047117125 -0.03047747 -0.05243426 0.01147998 0.04073293
-0.03743936 0.00062180054 -0.014814342 -0.014140808 0.044646278 0.000313278 -0.051278748 0.0019791406
0.05107897 -0.0467167 0.014621424 0.028998625 0.026613025 0.034514412 0.02197056 0.018046465
0.0126129445 -0.047629073 0.03809401 -0.0061346437 -0.004543786 0.040216725 0.032385938 -0.014951736
-0.0064292983 -0.020803794 0.006812231 0.00087944657 0.050510276 0.029740201 0.047449887 0.026665468
-0.021149281 -0.03493693 -0.050080493 -0.020749224 0.009194084 -0.010753599 0.025294503 -0.048606467
0.030696264 0.00823138 0.008284729 -0.009991817 0.026552958 -0.04612538 0.027399953 0.023101825
-0.008541218 0.015715415 0.008295404 -0.0041084597 -0.019372547 -0.024995418 0.014216893 0.0016251949
-0.085618146 0.038567714 -0.041788608 -0.036474846 -0.017609145 0.054254513 0.030754006 0.022748603
0.059683144 -0.030866737 0.028296193 0.083316214 0.058806267 0.11777752 0.10168886 -0.03738976
-0.0064179143 -0.053736486 0.071713716 0.049420364 -0.017389912 -0.008623572 0.0734945 0.021018572
-0.017780736 0.045180406 0.08007882 -0.010242788 -0.007822285 0.04613491 0.069151126 0.04755794
0.019528212 -0.014720353 0.017265068 -0.06813305 -0.044617064 -0.030643325 0.016939886 -0.004083455
-0.036335032 0.01262752 -0.028293299 -0.059266523 0.078543745 0.089367226 0.11177924 0.049438562
0.073569916 -0.021764353 -0.05856885 -0.090896234 0.05139673 -0.0032901075 -0.03162746 -0.06988798
-0.045552697 -0.091873325 0.025774127 -0.007969156 0.096126 0.08419457 0.10422687 -0.05905767
-0.014638185 -0.025164708 0.022388522 -0.043123074 -0.047010433 0.017823525 0.04540991 0.05732984
0.0067014205 0.0527588 0.047723904 -0.016736379 0.010177542 0.03534106 0.06478401 0.04017339
0.055777434 -0.019014623 0.028341636 0.050257776 0.006295167 0.0039183656 -0.012319342 -0.01436092
0.034157824 0.006098196 -0.026416074 0.05814146 0.07278711 0.081183515 0.018175595 -0.020826638
-0.033269987 0.036565483 -0.014124512 0.0381293 0.02582657 0.05112955 0.027373198 0.030563394
-0.030823352 -0.020269874 0.039175697 0.050020147 0.041766904 0.0345036 0.07524725 0.051020004
0.048892852 -0.003153697 0.04263552 -0.05576216 0.05115335 -0.028743086 0.035911404 -0.019293567
-0.035341505 -0.010998109 0.018041354 -0.0078113344 0.063174404 0.005631069 0.04076775 0.039692156

pool1.bias f4 [8]
00000000: 7597 06bd 6f12 913c 65ca 30bd 91e9 e13d
00000010: 33c0 8d3d 9581 f83c e7f4 bdbe b82d b7ba
-0.032859284 0.017708985 -0.04316177 0.110308774 0.06921425 0.030335227 -0.37100908 -0.0013975417

reduction2_1.weight f4 [16, 8, 1, 1, 1]
00000000: 2bd9 f33d 0e18 84be 0389 e93e ac58 bc3c
00000010: 90cc 923d 555f ce3e 112b e43c cbdb 983e
00000020: cff5 7d3d 344c 0bbe 20dd 38be c60a 29be
00000030: 2ecf 4a3e f65f 843e fa9f 893e cf59 03be
00000040: f175 a7be 850b 71be 0344 753e 1928 193e
00000050: dae9 8f3e 0410 873e 77e2 983e a3b1 3e3e
00000060: 671a 383d 5c7b 3a3d 192b aabd a242 94be
00000070: 4bd8 a43e 3ab9 2f3e 947f debc e5a2 82be
00000080: 6f01 b2be 4508 0c3e cb39 55bd 9c2e 90be
00000090: c953 873e 67c1 3c3e eed0 95be 3c47 2c3e
000000a0: 6158 83bd affb 683e 94e3 8fbe b6a3 18bd
000000b0: be2e 83be 38b0 ae3e 0ac2 423e d67f b8bd
000000c0: 8435 8cbe be6f 273e 5273 a53e b6b3 f3bd
000000d0: e8c9 6dbe 54ee 163e 6634 1f3d b866 e4bc
000000e0: 3f8e 8bbe 6188 963e 4488 62be b128 733e
000000f0: 13c2 35be 6ea6 063e f3b1 973e ddb7 b2bd
00000100: 0ce4 03be c9cd b43e 7cb2 453e a46c ebb8
00000110: 3367 28be 7c7e c03d 808d ad3e 8293 6f3e
00000120: 3c28 35be 080c 483e 1775 42be 3243 28bd
00000130: a7d9 78be b473 1dba fb5a 233e d2ac 663e
00000140: 202a 933e 6c8d 89be 8e9a 8fbe ca01 973e
00000150: 6438 edbd 525b 82bb 7226 013c dd4e 74bd
00000160: a155 a13e 242e 53be d3a0 a53e 8ff0 a1bd
00000170: 349d a5bd 88ac c33e 5698 29be 7f30 203e
00000180: 89f1 6ebd b41a 8d3e 1425 9bbe cfd6 cc3d
00000190: ebe4 74be 6f16 363e 56c0 d0bd 3407 88bd
000001a0: dd20 61be 3e0a 8d3e 3ed2 a6bd 025f 6ebe
000001b0: 3cf8 0bbc 981e 863e a34f ea3c c01b 23be
000001c0: 38aa 923d 84d2 8d3e 0575 cd3d c5d8 c63d
000001d0: 606a 63be fb3c 8abe 75ab fd3d f378 c03d
000001e0: e69e 5b3c 0d9e 9dbe 0c37 8cbe c1b3 6339
000001f0: 8e7a 3ebe b1dc 173e 76a5 803d f962 cbbc
0.11906656 -0.25799602 0.45612344 0.0229915 0.071679235 0.40307108 0.027852567 0.2985519
0.062002 -0.13603288 -0.18053102 -0.16508016 0.19805595 0.25854462 0.26879865 -0.12827228
-0.3270717 -0.2353955 0.23951726 0.14956702 0.28108102 0.26379406 0.2986028 0.1862245
0.044947054 0.0455278 -0.083090015 -0.28957087 0.32196268 0.17160502 -0.027160443 -0.25514904
-0.3476672 0.1367503 -0.05205707 -0.2816056 0.2643111 0.18433152 -0.29260963 0.16824049
-0.06413341 0.2275226 -0.28103316 -0.037265502 -0.256216 0.3411882 0.19019333 -0.09008758
-0.2738458 0.1635122 0.32314545 -0.118995115 -0.23221552 0.14739352 0.03886833 -0.027881011
-0.27256963 0.29400924 -0.22122294 0.23745991 -0.17749815 0.13149425 0.29627952 -0.087264754
-0.12879962 0.35313252 0.19306368 -0.00011225909 -0.16445617 0.09399125 0.33897018 0.23396114
-0.1769113 0.1953584 -0.18989979 -0.041079707 -0.24301778 -0.0006006316 0.15952675 0.22526863
0.28743076 -0.2686571 -0.28047603 0.29493552 -0.11583021 -0.0039781714 0.007882701 -0.059645522
0.31510642 -0.2062307 0.32349262 -0.07907211 -0.08086625 0.38217568 -0.16562018 0.156435
-0.058335815 0.27559435 -0.30301726 0.10001909 -0.2391545 0.17781995 -0.10192935 -0.06641999
-0.21985193 0.27546877 -0.08145569 -0.2327843 -0.00854307 0.26195216 0.028602427 -0.15928555
0.07161373 0.27699673 0.10032085 0.09709314 -0.22208548 -0.2699965 0.123862185 0.09398069
0.013404584 -0.30784646 -0.27385747 0.0002171537 -0.18601438 0.14830281 0.06281559 -0.024827467

conv2_1.0.weight f4 [8, 8, 1, 1, 1]
00000000: a023 dcbc 3ab7 983e 66eb ae3e 7097 a93d
00000010: 4c59 e73e 7020 f03e ce8f 653e 4659 07be
00000020: 0f6e 923c 22da febc 9480 ce3c 4df2 a3be
00000030: b139 2cbd 8781 31be ce5a cbbe f8fe f2bd
00000040: 87f6 9d3d 552a a2be 1d67 1abe c481 97be
00000050: 9ef9 72be 2877 86be 862a bfbe 969e 53be
00000060: 233c c03e 9cd8 2f3e 8945 e33e 060a 48bd
00000070: 1a47 44be af57 48be 6b1b e4bd 9cdf 163d
00000080: 8818 e33d cabc e5bd ed83 783e 7a77 83be
00000090: 29a9 e83e b1cd 503e 4377 843e 0af3 a13e
000000a0: 79f1 fc3e 35f9 9c3e 3c98 5b3d ce0b c93e
000000b0: 27da fb3e 726e 0fbe 5115 293e 3df1 12be
000000c0: 3a4e 913e 600a bc3e 5198 d53d f1a9 27bc
000000d0: 286c 773d 8529 20be 3328 a33e e16e 36be
000000e0: 879b 25be 4b7e 9d3e f6b9 643e a584 963e
000000f0: 1e7b 0d3e 2c2d 57be 06b1 c03e 09ed a1be
-0.026872456 0.2982729 0.3416397 0.082808375 0.45185316 0.46899748 0.22418138 -0.13217649
0.017874746 -0.031109873 0.025207795 -0.32020798 -0.042047206 -0.17334567 -0.39717716 -0.11865038
0.07713037 -0.31672922 -0.15078397 -0.2959119 -0.23728034 -0.26262784 -0.3733713 -0.20665964
0.3754588 0.17172474 0.4438899 -0.048837684 -0.19167748 -0.19564699 -0.11138042 0.036834344
0.11088663 -0.11217649 0.24269076 -0.2567709 0.4544156 0.20390965 0.2587224 0.31630737
0.4940298 0.3065888 0.05361198 0.3926682 0.49189875 -0.14006975 0.16512038 -0.14349838
0.28379995 0.36726665 0.10429443 -0.010233388 0.06040588 -0.15640838 0.31866607 -0.17815734
-0.1617261 0.30760416 0.22336563 0.29398075 0.13816497 -0.21013325 0.37635058 -0.31626156

conv2_1.0.bias f4 [8]
00000000: a1cf 4abe ff8f 0ebe a5ea a13e 24f0 85be
00000010: be35 31bc 0563 b7bb f224 1abe f53d 8b3c
-0.19805767 -0.13922118 0.31624332 -0.26159775 -0.010816036 -0.005596521 -0.15053156 0.016997317

conv2_1.2.weight f4 [8, 8, 3, 3, 3]
00000000: 0943 dbbd 8018 8e3d 6ab3 4ebd 6ea0 2bbd
00000010: 1120 acbc d285 b6bd e32f 793d 2372 b13d
00000020: dd9b 8f3d f544 89bd 7644 d43c bf0c 223d
00000030: f0f8 fdbc b637 d5bc 5395 83bd d9ec 573a
00000040: 0227 593d 33f7 623d 4827 97bd 58b9 dfbc
00000050: c240 593d c1fb ef3c c72c 493d d199 863d
00000060: b7f9 d33c da72 a03d 62c4 f53c ba97 403c
00000070: b58a 6fbd fdc5 483d bf02 32bd 5c69 6fbd
00000080: 6fde 10bd 9b79 88bd 9f79 0fbc 2194 56bb
00000090: 691f c3bc 55de 9bbc 0c01 afbc f991 a4ba
000000a0: 1a92 81bd d98f 7dbd 6e1e 363d 0b42 36bd
000000b0: 8e7c 233c 9f29 673d e4da 8cbc 3b9d ff3c
000000c0: 651d 83bd 93bc 4a3c 1016 82bd e7d2 21bd
000000d0: 20ee e33c 871d 23bd ebda 44bd 937d 513b
000000e0: f677 b8bd 6012 fb3b ef79 97bd 552e 3a3d
000000f0: f621 e4bc fcac e7bc 9864 1b3c ee6d c436
00000100: 6d1c cfbd 01ee f93b 1534 403c 84c5 143b
00000110: 842b 9c3b 3734 273c d6ee 983a 65c6 143d
00000120: 9de5 7ebd 7500 57bd c406 a0bd a40d c73c
00000130: 7a38 a4bc 9b08 9bba dd77 6b3b 1bdf f13a
00000140: 080b 66bc 62ab 76bc c1eb 79bd 5dbf 9d3d
00000150: 7caa 2dbd 2a67 85bb 0f74 d7ba 1dad ee3b
00000160: 4da5 e23d 52f6 c33d 0549 02bd e1a3 a03c
00000170: e70f 9abc 9780 2cbd 6e84 523c 8830 95bd
00000180: e951 c83d 4384 c33d b798 a53d 94c8 543d
00000190: ba2b b0b8 2a07 cc3d 3b90 c0bd 217d a4bd
000001a0: 03b3 b2bd e6fd a0bd e520 6abc 4f0b 953d
000001b0: bb8c da3c f44a 9fbc 7db1 62bd a570 97bc
000001c0: 3903 8fbc 8409 25bd 8715 c3bb 6fb5 10bb
000001d0: 4684 2bbd cff2 3fbd 92a0 5c3d 5fe7 19bd
000001e0: 8745 92bc b1af da3c e035 b43c 050a 663c
000001f0: 9fb5 b63d dd86 463d af26 743c 3972 c9ba
00000200: d1b1 ba3d 214f 2dbd 3077 2b3d 1755 35bd
00000210: c5c6 053d 57c3 bc3d 1e88 39bd 907c 2fbd
00000220: 2408 e8bb d92d cdbc e413 ee3c fe5d f1bc
00000230: 0e74 ebbc 6790 d13d dd61 ac3d 11a3 183e
00000240: 4aea 883d 4734 8ebd e909 173c d781 36bd
00000250: 6f94 a5bd 1e52 233d 8f87 0c3d afae 513d
00000260: 2186 0f3d ba7f a83d d07c 85bc b3c7 e73d
00000270: 76b3 99bd 0573 88bd e8bc fcbc 8bda 253b
00000280: 46dd 89bc 0500 303d a89b 0e3b f0cc 53bd
00000290: 8baf ddbc 165e 89bd 6bc9 e43c dc42 e33c
000002a0: ddef 59b9 9d6d ba3d 0781 e53d ab2b cfba
000002b0: b409 f6bc 396c 623d a17f 493c e2ea ca3c
000002c0: eb42 48bd 71d5 bc3c 53b8 5bbd 4909 0f3d
000002d0: c63c d53c 2d1a 78bd a8b4 2a3b 4f8b 453d
000002e0: 50a8 643d 2358 113d 1e60 973d 229a 083d
000002f0: 1519 b2bc 450a 9ebd 333d 4abd 5d68 c63a
00000300: 840c cc3c a065 203c 2e5d a13d f3e8 283c
00000310: 0e1c 943d 5a8e 343d b2df 80bb 228b cabd
00000320: 1058 8f3d d518 513d b13e 88bc 523f 95bd
00000330: 9bf6 6b3c 4880 82bd ce29 f2bc 062b 95bd
00000340: 4daf 98bd a79c 87bd b7c2 97bd 74f8 22bb
00000350: 4cd5 743c b87d 5ebc d0e3 513d f80a b4bc
00000360: a282 c938 fe5f 9f3c df7d 9fbd 3320 813d
00000370: faea 0bbd 4b7e a6bc 15ae 963c 83a6 623c
00000380: 6ce8 91bd f401 93bd 0047 a8bd d3de 2fbd
00000390: df03 f8bc 7132 2fbb cd40 313c c3a8 11bd
000003a0: 2642 1dbd 06c3 a33c 5332 19bd 95f2 87bd
000003b0: 271e db3c 9f6e 89bd 9568 84bd bed9 603d
000003c0: a3d6 56bd bb6e bf3b 7101 b3bd 012e 93bd
000003d0: c005 48bc 0fb2 293d d015 613c d1c4 9a3d
000003e0: e1e5 223d 5a5e 3e3d a009 543d 7812 97bd
000003f0: 1567 bebb 54bb 863c 8200 56bd be9e 9bbb
-0.10706145 0.06938267 -0.05046407 -0.041901045 -0.021011384 -0.08912243 0.060836684 0.08664348
0.070121504 -0.06702606 0.025911551 0.039562937 -0.031002492 -0.026027542 -0.06424966 0.0008236892
0.053015716 0.05541153 -0.07380539 -0.027310058 0.053040273 0.02929485 0.04911497 0.06572307
0.02587591 0.07834406 0.03000087 0.011754924 -0.05848189 0.04901694 -0.04345965 -0.058450088
-0.03536838 -0.066638194 -0.008757024 -0.00327421 -0.023818688 -0.019026915 -0.021362804 -0.001255571
-0.06326695 -0.061904762 0.044462614 -0.044496577 0.009978427 0.056436177 -0.017194219 0.031202903
-0.06402091 0.012374061 -0.06351864 -0.039507773 0.027823508 -0.03982308 -0.04806034 0.0031965717
-0.09007256 0.0076621026 -0.07396304 0.045454342 -0.027848225 -0.028280728 0.009484433 5.8540527e-06
-0.10112844 0.007627249 0.011731167 0.0022700736 0.0047659297 0.01020532 0.0011667858 0.036322016
-0.062230695 -0.05249067 -0.078137904 0.024298497 -0.020046461 -0.0011828126 0.0035929598 0.0018453331
-0.014040716 -0.015055509 -0.061015848 0.07702515 -0.042398915 -0.004071136 -0.0016437786 0.0072838203
0.11066685 0.09568466 -0.031807918 0.019609394 -0.018806411 -0.04211482 0.0128489565 -0.07284647
0.09781248 0.09546711 0.08085769 0.0519491 -8.400479e-05 0.09962304 -0.0940251 -0.08031679
-0.0872555 -0.07860927 -0.014290069 0.072775476 0.026678434 -0.01944492 -0.055345047 -0.01848633
-0.017457591 -0.040292278 -0.005953494 -0.00220808 -0.041874193 -0.04686242 0.05386407 -0.03757417
-0.017855419 0.026695104 0.021998346 0.014040475 0.0892136 0.04846846 0.014901801 -0.0015369124
0.09115947 -0.04231179 0.041861713 -0.0442706 0.032660265 0.092169456 -0.045295827 -0.0428434
-0.0070810486 -0.025046276 0.029062219 -0.029463764 -0.028741863 0.10232621 0.084171034 0.14905955
0.06685312 -0.06943565 0.009218671 -0.04455742 -0.08084952 0.039873235 0.034308966 0.051191982
0.035040025 0.08227487 -0.016294867 0.113173865 -0.075049326 -0.06662563 -0.030851796 0.0025307264
-0.016829144 0.04296877 0.0021760259 -0.051709116 -0.027061244 -0.067073986 0.027928075 0.027741842
-0.00020784089 0.09102938 0.11206251 -0.0015805861 -0.030033924 0.05527899 0.0122984955 0.024770204
-0.048891943 0.023050996 -0.053642582 0.034920964 0.026029956 -0.06057184 0.002604762 0.04822856
0.055824578 0.035484444 0.0739138 0.033350118 -0.021740476 -0.077168025 -0.04937477 0.0015137304
0.024908312 0.009789854 0.07879101 0.010309446 0.072319135 0.04408107 -0.0039329166 -0.09889819
0.069992185 0.051049072 -0.016631456 -0.07287468 0.014402057 -0.06372124 -0.02956095 -0.07283597
-0.07455311 -0.06621676 -0.07410186 -0.0024867328 0.014943432 -0.013579778 0.05124265 -0.021977887
9.608759e-05 0.019454952 -0.0778768 0.0630497 -0.034159638 -0.020323893 0.018393556 0.013833645
-0.07124409 -0.07178107 -0.08216667 -0.04293711 -0.030275283 -0.0026732946 0.010818672 -0.035561334
-0.038393162 0.019990455 -0.03740151 -0.06638066 0.026747776 -0.067105524 -0.0646526 0.054895155
-0.052450787 0.0058420575 -0.08740509 -0.07186509 -0.012208402 0.041429576 0.013738111 0.07557071
0.03977001 0.0464767 0.05176699 -0.073765695 -0.005810628 0.016446747 -0.052246578 -0.004749148

conv2_1.2.bias f4 [8]
00000000: 8709 77bd 8441 23bd 021e 8c3d ca36 f6bc
00000010: e385 d83d 5869 8b3e 0a37 3f3d 58a5 61bd
-0.06031182 -0.039857402 0.06841661 -0.030055422 0.10572412 0.27228808 0.04668335 -0.055089325

conv2_1.4.weight f4 [16, 8, 1, 1, 1]
00000000: 2ba4 bc3d 8390 8ebe b465 b33e 6be4 0e3e
00000010: 123a 5f3e 9c63 16be bc71 41be d341 9dbd
00000020: ef3f 77be 31d8 063e 1175 5fbe 6fc3 98be
00000030: 2b76 8c3e aadd d1bd dce9 abbd a232 543e
00000040: 1a71 4b3e ee87 57bd 59d6 35be 19af f13d
00000050: 456f 8d3e 917f 4a3c 254a 51bd 3de9 d8bd
00000060: 0d93 c7bc ebcc 56bd d28d 553d 0d7a 8dbe
00000070: 285d c43c 5a84 bd3d 62b0 7dbe 640a d0bc
00000080: 5a1f b1be d020 62be a62e 16bd 0349 393e
00000090: 0f22 3c3e 5c97 e73d 6230 b0be 88eb 12be
000000a0: 7531 7bbe 9725 7a3e aba7 5a3e 403d d1bb
000000b0: 93eb 743e 3188 983d ee4e 64be 1f74 823e
000000c0: e7c3 853d 88d1 6f3e acec 2ebe baeb e13b
000000d0: bb94 123e f79d 663e f3da 92bd 75b2 8c3d
000000e0: 96bc 57be 2bc6 93bc 41c7 1a3e 1bbf 32be
000000f0: 0833 cf3c 9ea6 94bd d02b a9bd d089 7b3e
00000100: 947d 06be 7ca4 463e 24a0 863e 6912 88be
00000110: 5a73 8a3d 8ba0 b9be d72d 8a3e 0e77 2fbe
00000120: 762e 10be d2d5 8d3d ad14 82be a188 9b3e
00000130: 09f3 2b3e 1c9a 9b3e 689d a23d ae4e 99bd
00000140: a10a f33d 57cd 15be 4d83 4b3e 1126 103c
00000150: 1f3d 563e 508b 71bd 80d9 c7bd 1fe1 7dbe
00000160: c37a 6f3e 899f 46be c1ed f73d 0788 93bd
00000170: 4678 5bbc 3815 84be 3452 463e 7771 85be
00000180: 4617 b5bd ed93 0ebe c8d1 f0bd 746a 49be
00000190: 12b8 d7bd 93df 6b3e c104 943e 6f2c 7bbe
000001a0: 3c67 60be 6e16 6d3e c746 75be 186e f8bd
000001b0: cc9f 85be b94a 3d3e bc84 32bd c9c9 01be
000001c0: 6036 55be 75ef 94bd 6613 523d fd6f cf3d
000001d0: e61b 8bbe feb8 09be e05e 613e 8f20 353e
000001e0: a319 273e a310 883d 65cb 1d3e a9c7 9abe
000001f0: ea5e 01bd f409 2fbe af17 a0bd 44c6 8f3e
0.09211 -0.2784463 0.3503853 0.13954322 0.21799496 -0.14686435 -0.18891042 -0.076785706
-0.24145482 0.13168408 -0.21822001 -0.29836604 0.27433905 -0.10247357 -0.083942145 0.2072244
0.19867364 -0.052619867 -0.17757548 0.11800975 0.27623954 0.012359516 -0.0510961 -0.10591362
-0.024362111 -0.05244152 0.052137204 -0.2763218 0.023970202 0.0925376 -0.24774316 -0.02539558
-0.34594232 -0.2208283 -0.03666558 0.18094258 0.18372367 0.113081664 -0.34411913 -0.1434766
-0.24530585 0.24428402 0.21353023 -0.0063854754 0.2391799 0.074478514 -0.22295734 0.25479218
0.06531506 0.23419774 -0.1708247 0.006894556 0.14314549 0.22521196 -0.071706675 0.068699755
-0.21068034 -0.01803883 0.15115072 -0.17455713 0.025292888 -0.07258342 -0.0826031 0.2456429
-0.13133842 0.19398683 0.26294053 -0.26576546 0.06760283 -0.36255297 0.26988098 -0.1713526
-0.14080223 0.069255486 -0.254064 0.30377677 0.1679193 0.30391014 0.07940179 -0.0748571
0.11867262 -0.14629112 0.19874306 0.008798138 0.20921753 -0.05897075 -0.09758282 -0.24792908
0.23386674 -0.19396795 0.12105895 -0.072036795 -0.013395375 -0.2579744 0.19367296 -0.2606313
-0.0884233 -0.13923617 -0.117587626 -0.19669515 -0.105331555 0.23034506 0.28909877 -0.24528669
-0.21914381 0.23153087 -0.2395278 -0.12130374 -0.26098478 0.18485536 -0.043583617 -0.12674631
-0.20821524 -0.07272235 0.05128803 0.10128782 -0.27169722 -0.13449475 0.22008848 0.17688201
0.16318373 0.06643798 0.1540962 -0.30230454 -0.031584658 -0.1709364 -0.07817017 0.28080952

conv2_1.4.bias f4 [16]
00000000: 525e c2bc b1f5 7a3e b9cb 68bd fc9b 103e
00000010: 231b e63d 35b5 3bbe 3760 92be d668 c2bd
00000020: 3918 923e 9313 5f3e 805d 803d 4fd9 3c3e
00000030: 6e43 243e 3375 27be a7a4 9a3d 42ff 5cbe
-0.023726616 0.24507786 -0.05683491 0.14122003 0.11235645 -0.18330844 -0.2858903 -0.09492652
0.28534105 0.2178481 0.06267834 0.18442272 0.16041347 -0.16353302 0.07550936 -0.21581748

pool2.weight f4 [8, 1, 7, 7, 7]
00000000: ea75 893c 5b76 07bd 305a 943c 7406 3c3c
00000010: 010c c1bc 30eb d23c bdae a0bc 600c 2d3d
00000020: e8d7 1f3d 7051 573c 40fb 003d 6c32 b93c
00000030: 9c9b 5fbc 3c3d a03c c0fc f33a c4de 823c
00000040: 3406 753c 10e5 153c bad4 1a3d 2c1d 053d
00000050: 4eab 1dbd e856 a1bc b1d0 dcbc a018 823b
00000060: aef1 063d 54fd 5b3c 9a31 f2bc e26c c4bc
00000070: e0c5 833b 9172 2ebd cc24 fcbc 2009 98ba
00000080: 9600 2fbd fcfb a53c 620c cebc 2040 f7bb
00000090: d1c8 10bd 8e97 0f3d 5836 a53c 5191 89bc
000000a0: 9868 d63c fa22 8bbc 684d ba3c 0218 31bd
000000b0: 5044 523b 23bf 9dbc 507a 81bc 4f80 d5bc
000000c0: a0e4 d6bb 54d9 453c c050 0eba c1fd a3bc
000000d0: dfe4 d2bc 057d 2cbd dce1 23bd be2a 5cbc
000000e0: 75e7 1cbd 78e2 203c c86c e7bb dca4 4f3c
000000f0: 17cc a3bc 55fe dcbc 78f2 a3bc 7021 05bb
00000100: a01c 0abd cc4f a93c a25d 2bbd 000b 62bb
00000110: b694 1dbd ec3c 6c3c a887 d33c 94d5 28bd
00000120: 0af6 56bc 3046 eebc dc64 fd3c 9fa2 25bd
00000130: e883 243d d4a7 ff3c b00e f33b 5459 cb3c
00000140: 7889 e63c a0d5 f4bb 7eb9 883c fca9 633c
00000150: 9fb3 9abc e8a9 023c 6658 1dbd 3210 263d
00000160: 5026 eebc b50d b3bc 9e39 24bd d84d 083d
00000170: c24e e2bc a026 a9ba 1666 233d 0c5e 1e3d
00000180: 8843 fb3c 387f 6e3c 7025 ac3c 00e7 1dbc
00000190: a8ae 22bd a4f1 813c e8a0 1cbd ecf6 ef3c
000001a0: f0a7 f93c 0060 193d 748b 4ebc a033 a63c
000001b0: 6487 253d 18f4 33bd 3088 fbbb 0068 2e38
000001c0: 04e8 fd3c 5c44 47bc 4c71 473c 70e9 1c3d
000001d0: b6ad 23bd f10f c9bc c42d 2b3d 4397 0bbd
000001e0: 2030 d53b 0cd0 af3c fcb9 d1bc ccd6 49bc
000001f0: ec10 5f3c ae3f fdbc d451 843c 4031 cdba
00000200: 0054 24bd 4a09 fdbc 87ac 2abd 6e3c 2c3d
00000210: 442f 143d 2f6c 34bd 803d d93b a4ce f13c
00000220: e881 0a3d f03d 37bc c475 f13c 68a7 f63b
00000230: f44c e63c 7405 36bc f15c b7bc 04fa b53c
00000240: 2087 933c 588e 2f3d 35b6 0cbd 8076 6b3c
00000250: 5cee 833c 4cba 783c 8c29 d9bc 9a85 64bc
00000260: 58ce a5bb 0097 2db9 3a00 163d f4df 193c
00000270: 54cc 983c 9227 29bd 62a3 6cbc 223b 0fbd
00000280: f420 343d 3460 43bc 344e 9d3c a8ee 85bb
00000290: 48a7 3dbc 907b 26bd 692f 2ebd e04f 323c
000002a0: f03f 263d c077 f43c 5c10 efbc e867 56bc
000002b0: f859 f13b 704f 5ebc 9433 2c3d 34a7 103c
000002c0: 44f9 e5bc 3c5f 283d ce4b 6cbc 0667 203d
000002d0: 37a9 04bd fc3b 1e3d 44e6 4f3c f0e5 0dbd
000002e0: 4819 a93b 4511 e5bc ab14 25bd b09d c13b
000002f0: 0cfb 1f3d c428 103d f846 48bc c4c9 0e3d
00000300: ea8f 033d 3608 9ebc 4842 463c 8838 febb
00000310: ec57 2b3d 3091 613b f173 a8bc ae2b 243d
00000320: f03c 02bd 4b24 97bc c41f 853c 24b6 c83c
00000330: cdc0 9cbc 24b2 c63c 0001 cbba d6b5 e3bc
00000340: 12ac bebc 5afe 1abd e605 c9bc d6e2 313d
00000350: 1856 dc3c d080 35bc 5427 eebc 46a5 09bd
00000360: e8df 9ebb 60d5 b33c 885a 243d 2875 f4bb
00000370: 5e11 1dbd f87f 53bc 40b0 273c 8ecd 6abc
00000380: e263 903c d58f c5bc f4d3 683c e84d b8bb
00000390: 25fd debc b036 373b 34f8 8b3c 2c35 4f3c
000003a0: 1c9e 1abd 4e2f 8d3c a8a2 6cbc 6077 06bc
000003b0: 4e91 273d 9374 00bd 7524 dcbc 581d ed3b
000003c0: 5101 83bc 066a 2fbd bc90 37bc f271 243d
000003d0: 940e d03c 40fc c53c 9321 10bd 7c77 4f3c
000003e0: 0005 c93b 80be 7b3a 9ccd c0bc 8c74 acbc
000003f0: cace 1bbd 900d 25bb 9234 b1bc 005d 9d3b
0.016779859 -0.033071857 0.018109411 0.011476148 -0.023565294 0.025746912 -0.019614572 0.04224813
0.039024264 0.013141975 0.03148961 0.02260705 -0.01364794 0.019560449 0.0018614754 0.015975364
0.014955092 0.009148851 0.037800528 0.032498524 -0.038493447 -0.01969476 -0.02695498 0.0039702207
0.032945327 0.013427097 -0.029564667 -0.0239777 0.0040213913 -0.042589728 -0.030779265 -0.0011599399
-0.04272517 0.020261757 -0.025152389 -0.007545486 -0.035347763 0.035056643 0.020167515 -0.016792925
0.026172921 -0.016984452 0.022741988 -0.043235786 0.0032084174 -0.01925618 -0.015805393 -0.026062159
-0.006558016 0.012075741 -0.0005428903 -0.02001846 -0.0257439 -0.042111415 -0.04001032 -0.013437925
-0.038306672 0.009819619 -0.0070625283 0.012673583 -0.019994779 -0.026976744 -0.020013079 -0.002031412
-0.033718705 0.020667933 -0.041837342 -0.003449142 -0.0384719 0.014418822 0.025821522 -0.04121931
-0.013120184 -0.029086202 0.030931883 -0.04043829 0.040164858 0.031207956 0.0074175224 0.024822868
0.028141722 -0.007471755 0.016690012 0.013895508 -0.018884478 0.007975079 -0.03841438 0.04054279
-0.029071003 -0.021857122 -0.04009401 0.033277363 -0.027625445 -0.0012905188 0.03989228 0.03866391
0.03067185 0.0145566985 0.021013945 -0.009637594 -0.039717346 0.015862294 -0.03823939 0.029292546
0.030475587 0.03744507 -0.01260649 0.020288289 0.04041232 -0.043933958 -0.007676147 4.158169e-05
0.030994423 -0.012162294 0.012173008 0.03830856 -0.039960586 -0.024543734 0.041791692 -0.0340798
0.006505981 0.02146151 -0.02560138 -0.012319278 0.013614874 -0.030914154 0.0161523 -0.0015654936
-0.04011917 -0.030888218 -0.04166844 0.042049818 0.03617789 -0.044048484 0.006629646 0.02951748
0.033815295 -0.011184201 0.0294751 0.0075272806 0.028112866 -0.011109699 -0.022383185 0.022213943
0.018008769 0.04286036 -0.034353454 0.014371514 0.01610487 0.015181135 -0.026509069 -0.013947869
-0.0050599985 -0.00016554818 0.03662131 0.0093917735 0.018652119 -0.041297503 -0.01444325 -0.034968503
0.04397674 -0.011924792 0.01920233 -0.004087288 -0.0115755275 -0.040645182 -0.042525683 0.0108833015
0.04058832 0.029842257 -0.029182605 -0.013086297 0.0073654614 -0.013568744 0.042041376 0.008828927
-0.02807296 0.041106448 -0.01442237 0.03916075 -0.03238794 0.038631424 0.012689177 -0.034643114
0.0051604845 -0.027962336 -0.040302914 0.0059086904 0.039057776 0.035195127 -0.0122239515 0.034860387
0.03211967 -0.019291025 0.012100764 -0.007758204 0.041831896 0.0034418814 -0.020563098 0.04008072
-0.031796396 -0.018449923 0.016250499 0.024500914 -0.019134903 0.024254866 -0.0015487969 -0.027796667
-0.023275409 -0.037840225 -0.024538945 0.04342922 0.026896521 -0.011078075 -0.029071487 -0.033604883
-0.004848469 0.021952331 0.0401254 -0.007460255 -0.03834664 -0.012908928 0.010234892 -0.014331235
0.017625753 -0.024116436 0.01421069 -0.0056245215 -0.027220318 0.002795618 0.017086126 0.0126469545
-0.03774844 0.01723447 -0.014443077 -0.008207172 0.040910058 -0.031361174 -0.026872853 0.007236164
-0.015991839 -0.04282572 -0.011203941 0.04014773 0.025397576 0.024168134 -0.03518827 0.012662765
0.0061346292 0.0009603277 -0.023535542 -0.021051668 -0.038039006 -0.0025185086 -0.021631513 0.004802346

pool2.bias f4 [8]
00000000: ccfb ae3c 48a8 fd3b 00cc fabc 10c9 adbb
00000010: 1419 59bc 564f 05bd e412 12bc 6842 d33b
0.0213603 0.007741008 -0.030614853 -0.0053035095 -0.013250608 -0.032546364 -0.008915637 0.006447125

reduction2_2.weight f4 [16, 8, 1, 1, 1]
00000000: 8830 833e dc39 d73e 10ea 743e 4870 6d3e
00000010: 80df 633c 20ae c7be 80d5 d43d cc29 083e
00000020: 40e7 62bd 46ec ac3e b2fd d6be 10d0 243d
00000030: 28c1 eebd 4208 a0be 6809 f33d ae6f e1be
00000040: bcee 7bbe ea85 f33e 186f f13e 3c0a e23e
00000050: c031 e83e d839 70be c0cc f73c b8de 263e
00000060: 088e d73d f8e8 e8be 3c93 e93e 7059 9c3e
00000070: 74e7 03be 0059 7d3e c202 9bbe 20fa 8fbd
00000080: 4276 ffbe 00cc 863b 70e9 293e 203c 373d
00000090: f013 ebbe b0e5 7b3e 0069 993b 60dd f43c
000000a0: bef5 f4be fe1c d4be e678 e4be 90c4 303e
000000b0: 4046 8a3c 00cf 8c3e aa84 803e d84f 0c3e
000000c0: 503c 8abe 0647 d43e 321c 8cbe 26c8 c73e
000000d0: 68b3 9d3d 90ad 3c3e aca0 733e 96a6 ac3e
000000e0: e474 713e ac54 d1be 245b 84be da79 aa3e
000000f0: 0ec0 873e 909c 62bd eaea f0be e86e bfbd
00000100: b0e5 0e3e 9ead 8fbe 7a12 f23e 40e5 0fbc
00000110: 780a 193e 8086 cc3c 6892 9bbe f8e7 753e
00000120: ea73 ec3e d635 fc3e d2d8 db3e 68b8 eebd
00000130: 4881 5ebe 0ef8 a23e 5c38 f1be 0051 46bd
00000140: e270 f93e 8056 1bbd 288e 7f3e 609a c23c
00000150: b8aa a5bd 6602 af3e 4286 e93e 784f d5bd
00000160: f61d dcbe 4090 8fbe c026 05bd 601d c9bd
00000170: 9cbc e83e e2e8 c5be d0f8 cebe c898 fd3e
00000180: c86b 1a3e 0098 0b3a 40bb 473c 4c4d 8b3e
00000190: 90c9 c9bd c861 6e3e 642d 01be 948c 5bbe
000001a0: 9e62 9e3e 0030 463e 147d 1cbe 6e7c d03e
000001b0: 0090 5bbe b053 3e3e c0c5 c8be 6831 133e
000001c0: 6455 37be ecda 94be b2e2 c1be 7030 b8be
000001d0: 1e35 9cbe 482a 093e 0abe 8cbe 005d 6fbe
000001e0: f668 b83e 3c9f b83e e048 1d3e 00e7 dbbd
000001f0: 1cbb 4bbe 5817 e0bd 00c3 0abc 6800 653e
0.25622964 0.4203633 0.23917413 0.23187363 0.013908267 -0.39000034 0.103922844 0.13297194
-0.05539632 0.33774012 -0.4199043 0.040237486 -0.116579354 -0.312563 0.118670285 -0.44030517
-0.24602789 0.47563106 0.4715507 0.44148433 0.45350456 -0.23459566 0.030249 0.16295898
0.10525137 -0.4549024 0.45620143 0.30536985 -0.12881261 0.24740982 -0.30275542 -0.070301294
-0.4989491 0.004113674 0.16592956 0.044735074 -0.4591365 0.24599338 0.0046817064 0.029890716
-0.47843736 -0.4142837 -0.44623488 0.17262483 0.016879201 0.27501678 0.25101215 0.13702333
-0.2699914 0.41460437 -0.2736526 0.3901989 0.07700235 0.18425584 0.2379176 0.33720845
0.23579746 -0.40884912 -0.25850785 0.3329609 0.26513714 -0.05532509 -0.47054225 -0.093473256
0.13954806 -0.28062147 0.47279721 -0.008782685 0.149454 0.024966478 -0.30385137 0.2401427
0.46182185 0.49259824 0.42938858 -0.116562665 -0.21729004 0.31829876 -0.4711331 -0.04841709
0.48718935 -0.03792429 0.24956572 0.023755252 -0.08089203 0.34181517 0.45610243 -0.10415548
-0.42991608 -0.28039742 -0.032507658 -0.09820056 0.45456398 -0.38654238 -0.40424204 0.49530625
0.15080178 0.0005325079 0.01219064 0.2720741 -0.09852898 0.23279488 -0.12614971 -0.21440345
0.30934614 0.19354248 -0.15282089 0.40719932 -0.2144165 0.18586612 -0.3921337 0.14374316
-0.17903668 -0.29073274 -0.37868267 -0.35974455 -0.30509275 0.13395035 -0.27488738 -0.2337532
0.3601758 0.36058986 0.15359831 -0.10737419 -0.19895595 -0.109419525 -0.008469343 0.22363436

conv2_2.0.weight f4 [8, 8, 1, 1, 1]
00000000: 80a9 b1bb fa76 d2be d3dc 0bbf b707 81be
00000010: 4c4c 773e f814 d83d 5c2a 413e 19b6 0cbf
00000020: 8849 0ebf 2928 0a3f 2251 d43e 2247 70be
00000030: 11f7 163f d33c d9be 2937 f2be 450b a3be
00000040: 22db 27be 5006 c9bd 2d50 81be b138 0c3f
00000050: a878 333e 600e e1be 36db a53e 0010 d7bd
00000060: d4e1 f1be f0b7 74bd 52e4 d73e d8a8 0dbf
00000070: 1dee 073f 66d7 bd3e bcfc 0f3e 946d 563e
00000080: 6885 05be 61f4 06bf 4a4a b1be 540d 613e
00000090: 3077 9f3e 5e38 96be 80ce 69bd 8063 bebb
000000a0: 2865 83bd 2499 adbe 7cb3 3b3e 7863 9fbe
000000b0: 4096 b6bd e055 55bd 8e21 bf3e 08da bb3d
000000c0: e76f 173f 5083 263d 361e d03e 6aa6 fcbe
000000d0: a2f9 bdbe a8d6 8abd e844 0fbf 787d 3b3e
000000e0: 3c0c 733e 284c 4e3e 2c2a 64be 94b8 993e
000000f0: 0a83 07bf 1224 ee3e a03d aabd 00d6 4ebc
-0.0054218173 -0.41106397 -0.54633826 -0.25201198 0.24150199 0.105508745 0.18863815 -0.5496536
-0.5558095 0.5396753 0.4146815 -0.23464635 0.58970743 -0.42429218 -0.4730771 -0.31844535
-0.16392186 -0.09815657 -0.25256482 0.54774004 0.17526495 -0.4395628 0.32393807 -0.10501099
-0.47242606 -0.05974573 0.42166382 -0.5533576 0.5309771 0.37078398 0.14061254 0.20940238
-0.13039172 -0.5271664 -0.3462699 0.2197774 0.3114562 -0.2933988 -0.0570817 -0.005810201
-0.064157784 -0.339059 0.18330187 -0.31130576 -0.08915377 -0.05208385 0.37330288 0.091724455
0.59155124 0.040652573 0.4064805 -0.49345714 -0.37104517 -0.06779224 -0.5596452 0.18309581
0.23735136 0.20146239 -0.22281712 0.30023634 -0.52934325 0.46511894 -0.08312535 -0.012624264

conv2_2.0.bias f4 [8]
00000000: 8d2d 57be b039 f53d 26e9 273e 205d d13d
00000010: ec4b 93be 9854 c8bd 8633 6d3e ddaa 903e
-0.2101347 0.11973894 0.16397533 0.1022284 -0.2876886 -0.0978176 0.23164186 0.28255358

conv2_2.2.weight f4 [8, 8, 3, 3, 3]
00000000: 289e 48bc eccc c2bd eb8e bf3d 1f3e a6bd
00000010: 4199 cd3d 2ceb 95bd f364 c4bd ad85 db3d
00000020: c81e 373c 8481 e7bd 5815 2dbd 1faa a8bd
00000030: cac0 6c3d 2aa4 4d3d c73e bfbd 7a66 4a3d
00000040: d7c0 cdbd 0e34 2f3d 0a28 57bd a605 abbd
00000050: 667d 463d dbfa d2bd e3c1 dabd 6e76 dabd
00000060: 1c6a 4abd 9418 fa3c 3122 c93d 99b9 e0bd
00000070: 7b03 dabd 0437 d73c 38fa 01bd 0029 3dbd
00000080: bc90 b33c 9b1b cdbd f5b1 ba3d a877 633c
00000090: 5831 38bd 1314 de3d 009c dfbc 7ed9 e1bd
000000a0: daf4 b2bd e002 a1bd b0d5 a3bc 0adc 053d
000000b0: 5233 1b3d 30c8 8cbd db78 8bbd a996 c4bd
000000c0: d0d8 34bc a9d6 953d 21aa 7fbd a05b d1bd
000000d0: e0e4 8dbb 501a a0bd cc4c 9a3c b7cd 8abd
000000e0: 1eb9 413d 7980 e23d 5a4a d8bd 13a3 bb3d
000000f0: eef8 90bd b1ab d3bd c703 d13d a0da 8dbc
00000100: 384d 50bc b468 a1bc bf7b a73d 24c0 cc3c
00000110: 8334 9e3d 4a8e 0b3d e85f 7bbc f15c 7abd
00000120: e61a 5ebd 09f1 dc3d 88b1 80bd 758b e6bd
00000130: ee63 5b3d 351e b23d c774 9e3d 7866 c1bd
00000140: 9395 efbd fc64 c9bc 02a1 dbbd 0bee 91bd
00000150: 659c 8ebd b48d eabc e0a1 82bc b2d1 1dbd
00000160: ed41 ea3d 59c8 df3d 7bf2 c7bd 5264 5f3d
00000170: 1e2f 01bd be55 633d 8090 88bd 2098 56bd
00000180: 92bb 033d a1a3 d7bd e8d4 6a3c 9b9f e63d
00000190: b2d1 70bd c378 93bd c287 4f3d ef4e 803d
000001a0: e4c8 88bd 644f a73c 94ec 97bc 1223 26bd
000001b0: d028 2bbc 969a 053d b1df d2bd a82f 043c
000001c0: 48de 94bc 6790 eb3d a820 333c a0db 57bc
000001d0: e553 ba3d 4837 7fbd 82ff 16bd b70c dd3d
000001e0: d072 2bbd 3409 9ebd 47eb a43d a054 48bc
000001f0: f0e5 b6bd e632 13bd d740 983d ce3d dfbd
00000200: 9e2e 693d 8fe8 9f3d db1d 7ebd c9d1 e13d
00000210: fab2 01bd 3d04 b53d b47b dd3c f4fe 64bd
00000220: acbe acbc 126a bdbd ce3e a3bd d260 303d
00000230: a3ca e13d 58c4 2cbc ed45 d63d b791 e43d
00000240: 38ed 29bc f8c7 20bc 6e5a a7bd 8dec b03d
00000250: 5986 963d 17f4 6fbd 5b9e bb3d 5c5b 97bc
00000260: b254 54bd 8b92 a93d 5ac5 573d 70b7 0cbd
00000270: f4fe 893c 5a68 46bd ef97 81bd 024b 54bd
00000280: 3e64 18bd 4976 cc3d 5144 b4bd 7424 48bd
00000290: 47ac f0bd e2f6 4d3d 2de0 78bd 946c c4bc
000002a0: cbec a7bd 7e98 0d3d b2e3 b7bd 888d 9bbd
000002b0: 260d 653d 1e4a ccbd b4ee c2bc cf47 db3d
000002c0: f961 ea3d f30e aa3d 3c1c df3c 38d7 afbd
000002d0: 62c6 7fbd 2944 c9bd 75d2 f03d 9607 5fbd
000002e0: 8088 e6ba 82a7 2a3d 38dd 703c ae59 46bd
000002f0: 7cee ad3c c58f 9cbd 8e3e 7dbd 3880 213c
00000300: 7fc1 d8bd 7861 9bbc 62f8 013d c282 233d
00000310: 7290 203d 1e35 88bd 8d3c bc3d 3b6c 80bd
00000320: 4d51 853d bfa4 a03d 1858 8abc 5b2d 9d3d
00000330: 3f71 b7bd 09ea dc3d d4db f1bc 3ddf 843d
00000340: 7995 ee3d 3424 d0bc d254 90bd 28e6 533c
00000350: f85a 7cbd c3b6 9e3d 5a05 323d cc93 9fbd
00000360: fc82 cdbc 90c8 8fbc aade 98bd faed b7bd
00000370: a5cc bc3d 960c 08bd 63f6 a9bd ffa6 e23d
00000380: f18d 823d 1264 363d 894e 983d 1221 053d
00000390: 4ee3 2a3d dd92 d7bd 4261 90bd dce4 fa3c
000003a0: ae31 313d e4d5 0ebd b034 a8bc 9af7 513d
000003b0: 2779 ee3d 3092 ec3b c09c d5bd 42dc 073d
000003c0: dc03 e5bd 398e bbbd 2ad6 aebd 9f09 9e3d
000003d0: 9d80 bf3d 8f0e babd 3a63 54bd 0ea8 6f3d
000003e0: 6cd0 b73c d142 b83d 1eea 673d 0651 293d
000003f0: 2418 24bd 3825 2e3c e09b 86bc 3361 c83d
-0.012244739 -0.09511742 0.09353431 -0.081173174 0.100389965 -0.07320246 -0.09589567 0.10718856
0.011176772 -0.11304 -0.042256683 -0.08235573 0.057801045 0.050205387 -0.09338146 0.049414136
-0.10046547 0.042774253 -0.05252842 -0.08350687 0.048459433 -0.10301753 -0.10681512 -0.1066712
-0.0494176 0.030529298 0.098209746 -0.109729 -0.10645195 0.02627135 -0.031732768 -0.04618168
0.0219196 -0.10015031 0.09115974 0.013883509 -0.044968933 0.108436726 -0.027296066 -0.110278115
-0.08738108 -0.078618765 -0.019999355 0.03268055 0.03789074 -0.0687412 -0.06810161 -0.09599049
-0.01103802 0.07316334 -0.062418107 -0.10222554 -0.0043302625 -0.07817519 0.018835448 -0.06777518
0.047295682 0.110596605 -0.105610564 0.09161963 -0.070787296 -0.10335482 0.102057986 -0.017316163
-0.012713723 -0.019703247 0.081778996 0.024993964 0.077248596 0.034071244 -0.01534269 -0.061123792
-0.05422487 0.10788161 -0.062838614 -0.11257068 0.053562097 0.08697168 0.07737117 -0.094433725
-0.11698451 -0.024584286 -0.10724069 -0.07125481 -0.06963424 -0.028632022 -0.015946329 -0.03853006
0.114383556 0.10926885 -0.09763046 0.054539032 -0.031539075 0.055501692 -0.06668186 -0.05239117
0.032161303 -0.105292566 0.014332987 0.11260911 -0.05879373 -0.07200768 0.050666578 0.062650554
-0.06678942 0.020423599 -0.018545426 -0.04056079 -0.010446742 0.032618128 -0.10296572 0.008068003
-0.018172398 0.11502152 0.010933079 -0.013174921 0.09098033 -0.06230858 -0.036864765 0.10793441
-0.04185754 -0.07716599 0.08052688 -0.012227207 -0.08930576 -0.035937212 0.07434242 -0.1090046
0.056929223 0.07808029 -0.06204019 0.110263415 -0.031664826 0.08838699 0.027036525 -0.055907205
-0.021087013 -0.09248747 -0.079709634 0.043061085 0.11024978 -0.010544859 0.10462556 0.111606054
-0.010371499 -0.009813301 -0.08171545 0.086388685 0.073498435 -0.05858239 0.09161063 -0.01847618
-0.051838584 0.08279904 0.052678443 -0.034354627 0.016845204 -0.04843936 -0.06327807 -0.051829346
-0.037204973 0.099834986 -0.08802093 -0.04886289 -0.11751609 0.050284274 -0.060760666 -0.023977555
-0.081994615 0.034569256 -0.08978976 -0.07595354 0.055920742 -0.09975074 -0.023795463 0.10707056
0.11444468 0.083036326 0.027235143 -0.085859716 -0.062445052 -0.09827454 0.117588915 -0.054450594
-0.0017588288 0.041663654 0.01470118 -0.04842537 0.021231882 -0.07644609 -0.061827235 0.00985723
-0.105837815 -0.018967375 0.031731017 0.039919622 0.039200254 -0.06650756 0.09191237 -0.06270643
0.065096475 0.07843923 -0.01688771 0.076746665 -0.08957147 0.10786826 -0.029523768 0.06487892
0.116496034 -0.025407888 -0.07047428 0.0129332915 -0.061610192 0.07749703 0.043462135 -0.07791862
-0.025086872 -0.01755169 -0.07464345 -0.08980937 0.0921872 -0.033215128 -0.08298948 0.11067008
0.063747294 0.04452903 0.074368544 0.03250224 0.04172068 -0.10526059 -0.070498005 0.030626707
0.04326027 -0.03487195 -0.020532936 0.051261522 0.11644202 0.0072195753 -0.10430288 0.03316904
-0.11182377 -0.09157986 -0.08536942 0.07716679 0.09350703 -0.09084808 -0.051852442 0.05850988
0.02243825 0.08997119 0.056619756 0.041337036 -0.040062085 0.010628991 -0.016431749 0.09784164

conv2_2.2.bias f4 [8]
00000000: 139f 33bd 54c2 4cbd 0846 d3bc 644d 61bc
00000010: 9c22 69bd 407a 193c 8e9e cbbc 1ebe e4bc
-0.043852877 -0.049990013 -0.02579023 -0.0137513615 -0.05691777 0.009367526 -0.024855878 -0.027922686

conv2_2.4.weight f4 [16, 8, 1, 1, 1]
00000000: 88de 7a3e a044 933c 00e7 083c 2c34 f2be
00000010: 5054 88bd f074 d1bd e87f 85be 5854 27be
00000020: 8cf9 573e 9afe bdbe fcb5 0fbe f8f9 c5bd
00000030: 286d 89bd e6a5 cf3e 70e1 2ebd 8031 7cbd
00000040: f8a0 a13e a0b4 e23d 68ae 4c3e a85c 233e
00000050: 221a d53e 40f7 483c 04e1 4d3e e853 9f3d
00000060: e00c 83be 34a2 6a3e 78d7 853d 0421 a7be
00000070: 8406 b6be 0670 e93e 6c24 d73e 6040 fa3e
00000080: 3e5d febe e8d8 c73d 5c53 24be f085 e93d
00000090: 004c e93b c4c9 5a3e 0090 0139 8e12 f33e
000000a0: 36b6 f43e 9024 ed3e 7cca 6d3e dcd4 113e
000000b0: 342d d1be 4086 553d 403a 133c d092 7a3d
000000c0: 1675 9d3e 9478 353e 5848 babe a2f8 e83e
000000d0: 18b8 41be e897 543e 8882 a0be d8e1 b2be
000000e0: 8a6c a9be f894 663e d021 57bd 7ef9 c9be
000000f0: 269b 95be 30b3 c1bd 480f d1be f883 4abe
00000100: 227b e03e 18dc 9dbe 20c0 433d e051 abbd
00000110: 18ee dc3e 96c5 d9be 20a1 b0bd 1a65 aebe
00000120: 1064 cfbd aea4 a23e 98aa dbbd 128e b93e
00000130: 0e15 943e 2827 a83e 600c 7cbe 3082 c1bd
00000140: 305d f23e 0206 f9be 80ff 553d 04f5 5c3e
00000150: 86cc d8be 4cb2 c0be c82d bebe e0bb 72bd
00000160: 261f d8be 6e72 f8be 904c b8bd be37 ba3e
00000170: 188a 933e d04d 6b3e e804 9abd 7e11 f2be
00000180: 78e4 483e 2672 e93e 72ea fdbe 0cf8 34be
00000190: bc67 10be 3678 96be 68f7 acbd 1c76 7d3e
000001a0: 10ee 2e3e c83c 513e 9480 a93e 308a e5bd
000001b0: ae06 f6be 601b e93c a049 ff3e 2205 e3be
000001c0: 3850 9f3d 8414 7abe 04f7 80be a0b5 4c3e
000001d0: f279 f73e 38cb 053e 3469 783e 107c 35bd
000001e0: b66c eb3e e088 7abe 8211 873e a20b edbe
000001f0: 7053 243e 645f 933e e473 8b3e 1abd adbe
0.24498951 0.017977059 0.008355856 -0.4730543 -0.06656706 -0.10227382 -0.26074147 -0.16340768
0.21091288 -0.37108308 -0.14034265 -0.096668184 -0.06710273 0.40556258 -0.042695463 -0.061570644
0.31568122 0.11069608 0.19988406 0.15953314 0.416215 0.01226598 0.20105368 0.07779676
-0.2559576 0.22913438 0.06535238 -0.32642376 -0.35551846 0.4559328 0.42019975 0.4887724
-0.49680513 0.097581685 -0.16047424 0.114025 0.0071196556 0.2136603 0.00012356043 0.47475094
0.47795266 0.46316957 0.23221773 0.14241356 -0.408548 0.052129984 0.008986056 0.061175168
0.30753392 0.17721778 -0.3638332 0.45502192 -0.18917882 0.20761073 -0.31349587 -0.3493793
-0.3309062 0.22517765 -0.05252248 -0.3944816 -0.2921993 -0.094580054 -0.4083197 -0.19776905
0.43843943 -0.3083198 0.047790647 -0.08365226 0.431504 -0.4253356 -0.08624482 -0.3406151
-0.10126507 0.31766266 -0.107258976 0.36241204 0.28922313 0.32842374 -0.24614096 -0.094486594
0.4733672 -0.48637396 0.052245617 0.21577841 -0.4234354 -0.3763603 -0.37144303 -0.059261203
-0.42211264 -0.48524803 -0.08998978 0.36370653 0.28816295 0.22978902 -0.07520467 -0.4727897
0.19618404 0.455949 -0.4959293 -0.17672747 -0.14102072 -0.2938859 -0.084456265 0.24752086
0.17083001 0.20433342 0.3310591 -0.11207998 -0.4805197 0.028455436 0.4986086 -0.44339854
0.077789724 -0.24421889 -0.25188458 0.1999116 0.48335224 0.13065803 0.24258882 -0.04430777
0.45981377 -0.24466276 0.26380545 -0.46297938 0.16047454 0.28783715 0.27236855 -0.33933336

conv2_2.4.bias f4 [16]
00000000: 084f 07bd cf99 9c3e 6019 9bbc d74f 9abe
00000010: 20c1 d8bc 741d 9f3d e05c d3bd fd3d 9ebe
00000020: 1f7e aebe 9b31 29be 00f1 2cbd 9dbe 9bbe
00000030: 911b 35be 9c20 883d 1a1b 61be 61d1 82be
-0.033034354 0.30586097 -0.018932998 -0.30139038 -0.026459277 0.077692896 -0.10320449 -0.30906668
-0.34080598 -0.16522829 -0.042222023 -0.30418864 -0.17686297 0.06646845 -0.21982995 -0.25550368
