weights/006/cpBest_SSC_PALNet.pth.tar (torch_old, 935369 bytes, 68 tensors)

conv2d_depth.0.weight f4 [6, 1, 3, 3]
-0.05190492 0.14370364 0.15044257 -0.18827228 0.24914274 0.18550768 -0.061620124 0.37031472
0.0029474546 -0.0067773783 0.052549504 -0.031488717 0.15693045 -0.25556707 -0.16673662 -0.060972244
0.07991659 -0.18383709 0.2792136 0.036080033 0.2501782 -0.17814158 -0.010139539 0.100471064
0.16443881 0.09597117 0.13183884 -0.18444173 -0.29265422 -0.26684684 -0.24513786 0.11146481
-0.1286952 -0.09797759 0.2574192 -0.24211709 0.00042921354 0.12872007 0.20433697 -0.074417986
0.008393921 -0.19543566 -0.27106705 -0.27738154 0.07871877 -0.2135343 -0.018380621 0.008570434
0.27994505 0.100986876 0.2802989 0.35125414 -0.097358584 0.32830137
00000000: 419a 54bd 0c27 133e 9e0d 1a3e 73ca 40be
00000010: 461f 7f3e baf5 3d3e 6265 7cbd e499 bd3e
00000020: 152a 413b c514 debb 263e 573d 50fa 00bd
00000030: 60b2 203e b0d9 82be 01bd 2abe 08be 79bd
00000040: 4fab a33d ca3f 3cbe 16f5 8e3e a8c8 133d
00000050: 5b17 803e bf6a 36be 4f20 26bc c6c3 cd3d
00000060: a662 283e 888c c43d c300 073e 4bde 3cbe
00000070: c6d6 95be 26a0 88be 6b05 7bbe aa47 e43d
00000080: adc8 03be 7aa8 c8bd 73cc 833e 8bed 77be
00000090: 1108 e139 32cf 033e b63d 513e 7568 98bd
000000a0: a886 093c 4920 48be 4dc9 8abe f404 8ebe
000000b0: 4e37 a13d bca8 5abe f592 96bc 016b 0c3c
000000c0: f554 8f3e 35d2 ce3d 5683 8f3e 95d7 b33e
000000d0: f063 c7bd 1e17 a83e

conv2d_depth.0.bias f4 [6]
0.3729888 -0.03358978 -0.044029854 -0.12988904 0.27058238 0.37337473
00000000: 63f8 be3e 7095 09bd a658 34bd a201 05be
00000010: c689 8a3e f92a bf3e

res_depth.0.weight f4 [3, 6, 1, 1]
0.032996364 0.3058874 0.024651436 -0.28956544 -0.3156942 0.118968226 0.111756735 -0.09892265
0.048959773 -0.1614601 0.18769173 -0.087510325 -0.09133974 0.092371054 0.08723158 0.35274863
0.20194772 -0.14118448
00000000: 3227 073d 469d 9c3e cff1 c93c ec41 94be
00000010: aca2 a1be 9da5 f33d b7e0 e43d f597 cabd
00000020: 0b8a 483d cc55 25be 4332 403e 9d38 b3bd
00000030: 5410 bbbd 092d bd3d 78a6 b23d 789b b43e
00000040: 62cb 4e3e aa92 10be

res_depth.0.bias f4 [3]
-0.19975156 -0.2613651 0.33098876
00000000: ac8b 4cbe a5d1 85be 5c77 a93e

res_depth.2.weight f4 [3, 3, 3, 3]
0.16617645 0.105170466 0.077113606 0.13849977 0.14566311 -0.14700697 0.041946717 0.092672184
0.04999937 0.022836158 -0.12080537 0.048263308 -0.015610497 -0.1724448 0.09901825 0.08346053
-0.008066814 0.10854651 -0.06067103 -0.16008179 0.054353893 -0.10374882 -0.10205973 -0.16964555
0.10799684 -0.0015458708 0.14811622 -0.11335857 0.12346829 0.06370653 0.10468955 0.08091818
-0.15341203 0.12839745 -0.17174484 -0.010677031 -0.1580748 -0.006453949 -0.15770227 0.11414304
-0.06656819 0.14975809 -0.004392194 0.009254683 -0.0788004 -0.060684603 -0.0548896 -0.1514384
-0.07040485 -0.11606875 -0.15729073 -0.15228434 -0.017592132 0.103072256 -0.09853967 -0.11103349
-0.16891964 -0.006722409 -0.108987726 -0.043697163 0.07612655 -0.008972952 0.046754558 -0.17132008
-0.13136195 -0.15258351 -0.07371447 -0.076096535 -0.09895499 -0.001664861 -0.0644595 0.08154425
-0.02298714 0.16990101 -0.1446857 -0.019272767 0.031779002 0.15705466 -0.1606991 0.08166828
0.04677539
00000000: 292a 2a3e 9d63 d73d bded 9d3d e2d2 0d3e
00000010: b628 153e ff88 16be 52d0 2b3d eaca bd3d
00000020: 24cc 4c3d e512 bb3c ce68 f7bd bfaf 453d
00000030: 2cc3 7fbc 5f95 30be 15ca ca3d 5bed aa3d
00000040: ac2a 04bc a24d de3d 3082 78bd 7bec 23be
00000050: 30a2 5e3d 437a d4bd b104 d1bd 90b7 2dbe
00000060: 722d dd3d d19e caba c7ab 173e 8a28 e8bd
00000070: f1dc fc3d 9278 823d 7a67 d63d 6eb8 a53d
00000080: 0b18 1dbe 9f7a 033e e1dd 2fbe b7ee 2ebc
00000090: 5cde 21be a67b d3bb b47c 21be d3c3 e93d
000000a0: e754 88bd 2f5a 193e 65ec 8fbb f4a0 173c
000000b0: 1b62 a1bd 6b90 78bd ebd3 60bd ab12 1bbe
000000c0: 6b30 90bd 74b5 edbd d210 21be 6df0 1bbe
000000d0: 601d 90bc 8c17 d33d 2bcf c9bd 8765 e3bd
000000e0: 45f9 2cbe a747 dcbb f534 dfbd ccfb 32bd
000000f0: 3de8 9b3d 4a03 13bc b581 3f3d 886e 2fbe
00000100: bf83 06be da3e 1cbe 9df7 96bd 80d8 9bbd
00000110: eaa8 cabd 7737 daba 5803 84bd ac00 a73d
00000120: 874f bcbc 88fa 2d3e 7d28 14be ece1 9dbc
00000130: b32a 023d f0d2 203e 4e8e 24be b341 a73d
00000140: 8d97 3f3d

res_depth.2.bias f4 [3]
0.16297442 -0.1687848 -0.1502782
00000000: c4e2 263e ecd5 2cbe 87e2 19be

res_depth.4.weight f4 [6, 3, 1, 1]
-0.25835565 -0.15516703 -0.17538434 -0.10809419 0.3881289 0.39637154 0.15286556 -0.20544888
0.1908675 0.3797292 0.12514287 0.5137631 0.14928912 -0.42790246 0.044681456 -0.2528505
0.38157034 -0.47311673
00000000: 3147 84be 1be4 1ebe f497 33be 7d60 ddbd
00000010: d5b8 c63e 36f1 ca3e ca88 1c3e 3161 52be
00000020: c572 433e de6b c23e 7425 003e fb85 033f
00000030: 3fdf 183e 0816 dbbe e703 373d 9f75 81be
00000040: 305d c33e 5b3c f2be

res_depth.4.bias f4 [6]
0.013433806 -0.15377843 -0.25535128 0.6375402 0.32718122 0.4508663
00000000: 7719 5c3c 1878 1dbe 67bd 82be d635 233f
00000010: 4c84 a73e f3d7 e63e

pool1.weight f4 [8, 6, 7, 7, 7]
-0.012605175 -0.0007871037 0.00618326 -0.01603812 -0.021100897 -0.020043887 0.027585836 0.013751055
0.0019468461 -0.025286965 -0.026369108 -0.022478977 0.00503619 0.03122252 -0.011926818 0.011853977
0.018787935 0.024730712 0.00075916294 0.034332946 -0.016339755 -0.028460875 0.028961923 0.008569747
-0.010473308 0.014906126 0.006300047 -0.01088008 0.026579523 0.015362595 -0.023047859 -0.027540099
-0.009445387 -0.007592636 0.0024661971 0.022550967 -0.017716497 0.017533412 0.021558965 0.008795567
0.0074553 -0.017628495 0.024172448 -0.008499989 0.022207242 0.028872563 0.0035230415 0.03732765
0.0021039047 0.013587027 0.018095514 0.01474938 -0.018597364 0.017947441 -0.017780358 -0.011969123
0.009935383 0.018835215 0.025902307 -0.0057434924 -0.02440528 0.012578004 0.029934283 0.011835332
-0.010050269 -0.006191204 0.0027669522 0.00746281 0.03475976 0.020410946 0.018488364 -0.002325358
-0.00018523545 -0.004406077 0.013759236 6.568203e-05 0.03283438 -0.012728244 0.0045743613 0.009344228
0.031512864 0.0029836958 -0.00058921287 0.005218458 -0.0017950044 -0.007144074 0.026456919 0.001953422
0.03142471 0.027538598 0.0011376104 0.0059803594 -0.0038933163 0.0315488 0.034390777 0.026196314
0.035172116 -0.014218187 -0.011610572 0.02312827 0.0004144609 -0.033950023 0.018548565 -0.0037985006
0.020394446 0.01283645 0.019934885 -0.03787149 0.0017225256 0.0074211224 -0.024020387 -0.017409638
-0.029823937 -0.027772207 -0.03143717 -0.0332584 0.021877043 -0.021073777 0.028407857 0.006025699
-0.024557045 0.014904345 -0.018796919 0.02776942 0.021463607 -0.0070675174 -0.012838018 -0.013222323
-0.028240139 0.022401331 -0.01542253 0.032540448 0.0031240967 -0.017590724 0.017490735 0.00077845494
-0.009833216 -0.030084444 0.0011660355 0.025536994 -0.009017296 0.03559108 0.02953939 0.024419364
0.02717157 0.0301251 0.019993387 0.0151319 -0.025827033 -0.016679352 0.011014458 -0.010897918
-0.021203915 0.026841685 -0.0074898764 -0.031985883 -0.03711756 -0.02582293 0.010384634 0.013302947
0.01737593 0.02190309 0.023459058 0.011966432 -0.032335263 -0.023097105 0.0041212076 -0.027300788
-0.020525089 0.03065968 -0.01032238 0.027829248 -0.005146323 0.00089045014 0.024877226 -0.014491753
-0.028699765 -0.031413417 0.006237996 -0.001641953 0.006601232 -0.02317488 0.022094393 0.025743077
-0.0049517215 0.0052563217 -0.0035792266 0.010385988 -0.009631628 -0.01899667 0.0065601403 -0.027373724
0.012959913 0.025798175 -0.003931481 -0.004284803 0.030075306 0.025814911 -0.0315006 -0.0054084756
0.00017046553 0.008701039 0.020850172 -0.029895628 -0.012242436 -0.029685063 0.009921543 0.02107544
0.028793482 -0.002329966 0.012360969 -0.00032619163 0.020966994 0.011753921 -0.013499571 0.009392983
-0.026327036 0.019316446 0.031652834 -0.0025855247 -0.0093350215 -0.024897737 -0.019837845 0.025475962
0.025476137 -0.022364294 0.016988328 0.017769607 0.027439415 -0.0065057296 -0.0037244705 0.024047535
0.0018137754 -0.0015779816 -0.023984572 -0.019118339 0.0029245443 0.026101695 -0.025796374 -0.002079081
-0.0012885213 0.0074266214 -0.02295949 0.022864496 -0.0013614638 0.025999969 0.008153271 -0.013539808
0.02094491 -0.010380794 0.004734655 -0.023187889 0.0039805057 -0.008309399 -0.01683841 0.0038048855
00000000: f085 4ebc a355 4eba f29c ca3b 6062 83bc
00000010: cadb acbc 1433 a4bc b1fb e13c 1b4c 613c
00000020: 512d ff3a 9c26 cfbc 0704 d8bc d525 b8bc
00000030: a006 a53b 5fc6 ff3c b368 43bc 2f37 423c
00000040: 28e9 993c 1098 ca3c 9002 473a b4a0 0c3d
00000050: f3da 85bc c826 e9bc 8e41 ed3c 2068 0c3c
00000060: 3d98 2bbc d338 743c a070 ce3b 5d42 32bc
00000070: 4dbd d93c 65b3 7b3c ddce bcbc c69b e1bc
00000080: d3c0 1abc a6cb f8bb ec9f 213b cebc b83c
00000090: 3022 91bc 3ba2 8f3c 6d9c b03c 481b 103c
000000a0: 974b f43b a269 90bc 4c05 c63c 8a43 0bbc
000000b0: f6eb b53c 2786 ec3c d4e2 663b e1e4 183d
000000c0: aae1 093b 1f9c 5e3c 0b3d 943c 62a7 713c
000000d0: 8059 98bc 8306 933c 1da8 91bc 241a 44bc
000000e0: 04c8 223c 4f4c 9a3c 1331 d43c e833 bcbb
000000f0: 95ed c7bc f913 4e3c be38 f53c fbe8 413c
00000100: e2a9 24bc 95df cabb c155 353b 968a f43b
00000110: 4060 0e3d db34 a73c e974 973c 0965 18bb
00000120: c33b 42b9 da60 90bb 6b6e 613c c5be 8938
00000130: 587d 063d 208a 50bc 86e4 953b 8818 193c
00000140: a213 013d 1c8a 433b 6875 1aba 99ff aa3b
00000150: 5a46 ebba d618 eabb 2ebc d83c fc04 003b
00000160: 32b7 003d a098 e13c df1b 953a e4f6 c33b
00000170: 0227 7fbb 5139 013d 58dd 0c3d a799 d63c
00000180: a310 103d 66f3 68bc 453a 3ebc 7f77 bd3c
00000190: 004c d939 2e0f 0bbd 29f3 973c 44f0 78bb
000001a0: 4112 a73c f94f 523c 7c4e a33c 231f 1bbd
000001b0: 5ec6 e13a e32c f33b 67c6 c4bc a89e 8ebc
000001c0: 5451 f4bc 8a82 e3bc 43c4 00bd f639 08bd
000001d0: 7c37 b33c eaa2 acbc 98b7 e83c 3a73 c53b
000001e0: db2b c9bc 5b31 743c fffb 99bc b27c e33c
000001f0: 72d4 af3c a296 e7bb 8d56 52bc 71a2 58bc
00000200: dd57 e7bc ff82 b73c c7ae 7cbc 2249 053d
00000210: a5bd 4c3b 6c1a 90bc bb48 8f3c 3a11 4c3a
00000220: 7f1b 21bc a773 f6bc a9d5 983a f532 d13c
00000230: 48bd 13bc f4c7 113d 97fc f13c 1e0b c83c
00000240: ea96 de3c eac8 f63c 2cc9 a33c caeb 773c
00000250: 3793 d3bc 23a3 88bc fc75 343c 2e8d 32bc
00000260: d5b3 adbc 18e3 db3c a36d f5bb a103 03bd
00000270: 9508 18bd 9c8a d3bc 5024 2a3c 9bf4 593c
00000280: f757 8e3c 1c6e b33c 362d c03c db0e 443c
00000290: fb71 04bd 2436 bdbc 320b 873b e7a5 dfbc
000002a0: 3b24 a8bc 022a fb3c 331f 29bc 2afa e33c
000002b0: 7ca2 a8bb 196d 693a 53cb cb3c d16e 6dbc
000002c0: c51b ebbc 5bab 00bd 1a68 cc3b cd36 d7ba
000002d0: 264f d83b 3fd9 bdbc 4dff b43c 25e3 d23c
000002e0: 0d42 a2bb 393d ac3b 7591 6abb fe29 2a3c
000002f0: facd 1dbc e89e 9bbc 72f6 d63b dc3e e0bc
00000300: d155 543c b256 d33c a7d3 80bb 8867 8cbb
00000310: 7d60 f63c cb79 d33c c606 01bd 9539 b1bb
00000320: febe 3239 cd8e 0e3c fbcd aa3c ade7 f4bc
00000330: 8094 48bc 172e f3bc f88d 223c 67a6 ac3c
00000340: 4fe0 eb3c 58b2 18bb a985 4a3c b304 abb9
00000350: f9c2 ab3c 8593 403c 4e2d 5dbc 07e5 193c
00000360: ccab d7bc 863d 9e3c 67a6 013d e871 29bb
00000370: ebf1 18bc 57f6 cbbc fa82 a2bc f7b2 d03c
00000380: 55b3 d03c 5335 b7bc 1b2b 8b3c 9191 913c
00000390: a0c8 e03c 042e d5bb 3f16 74bb 56ff c43c
000003a0: 34bc ed3a 47d4 ceba 4b7b c4bc 109e 9cbc
000003b0: b6a9 3f3b 39d3 d53c eb52 d3bc 3141 08bb
000003c0: 9ae3 a8ba 045b f33b 8a15 bcbc 534e bb3c
000003d0: 2573 b2ba e3fd d43c 4c95 053c 12d6 5dbc
000003e0: a994 ab3c 3514 2abc 2a25 9b3b 87f4 bdbc
000003f0: e76e 823b 2524 08bc b5f0 89bc 635b 793b

pool1.bias f4 [8]
0.0132297175 0.024329584 0.013692712 -0.06910438 0.034671366 -0.011082169 -0.024860268 0.21449836
00000000: 75c1 583c d64e c73c 6657 603c 9986 8dbd
00000010: 9003 0e3d fc91 35bc c3a7 cbbc 75a5 5b3e

reduction2_1.weight f4 [16, 8, 1, 1, 1]
-0.23298532 -0.032822616 0.15187223 0.17415784 -0.15056123 -0.18489498 0.20290868 -0.22378881
-0.11924011 -0.20464349 -0.2775235 0.19330452 0.48436618 0.020255284 0.14378521 -0.4521822
-0.4254284 -0.416421 -0.3940049 0.29544446 -0.13474722 -0.41305846 0.1415495 -0.23199645
-0.14473788 0.4403096 0.09825047 -0.16953345 -0.3294894 0.24817176 0.4466396 0.27884156
-0.0054691974 -0.30313233 0.2342619 -0.059386298 -0.111704916 0.1920242 0.4354777 -0.08715191
-0.3251905 0.2717199 0.11124661 0.26991874 0.050845392 -0.279122 0.117524855 0.33371657
-0.44203475 0.2983481 0.38882354 0.43441653 0.17128256 0.07493557 0.2790174 -0.39713615
0.18926774 0.41563478 -0.39926696 -0.30284134 0.3319418 -0.09536401 0.2784105 -0.41494253
0.0830402 -0.07931601 0.3225016 0.051326588 -0.09742022 0.13582295 0.38310367 -0.06443706
-0.038772866 0.18384984 -0.059665382 -0.20724054 -0.34750548 -0.3351776 0.40913567 -0.27674565
0.29736066 -0.28450266 -0.2721543 -0.111473896 -0.4408089 0.0522983 0.40267923 -0.19271317
0.1145504 -0.38665447 0.11558634 -0.08089525 0.31414998 -0.29684603 -0.3292078 0.13823016
0.30991787 0.0626615 -0.2848529 -0.16968194 -0.24069533 0.3807083 -0.27527934 0.29312834
0.052785166 0.35079557 -0.41429344 -0.20690492 -0.4125605 0.3218784 0.36056212 0.40424696
0.27679336 -0.34737393 0.0033119372 -0.13217203 -0.39087227 -0.39040783 0.06344198 0.094540045
-0.1578372 0.25659806 -0.076427974 -0.17147672 0.41242567 -0.39242613 0.30410928 -0.36265257
00000000: b493 6ebe 0271 06bd 6584 1b3e 6f56 323e
00000010: b92c 1abe 1c55 3dbe 4bc7 4f3e e528 65be
00000020: 2934 f4bd 108e 51be 8f17 8ebe 9ff1 453e
00000030: d8fe f73e 69ee a53c 6e3c 133e 6d84 e7be
00000040: c0d1 d9be 2235 d5be 03bb c9be 7f44 973e
00000050: 2dfb 09be 667c d3be 5af2 103e 7a90 6dbe
00000060: 2b36 14be 4370 e13e 8b37 c93d 2d9a 2dbe
00000070: d6b2 a8be bd20 7e3e f2ad e43e 52c4 8e3e
00000080: f436 b3bb 2934 9bbe 5ae2 6f3e 0c3f 73bd
00000090: 8cc5 e4bd fea1 443e eff6 de3e b37c b2bd
000000a0: 5f7f a6be df1e 8b3e 43d5 e33d ca32 8a3e
000000b0: 4243 503d 14e9 8ebe dfb0 f03d e6dc aa3e
000000c0: 6152 e2be 15c1 983e e113 c73e d86b de3e
000000d0: b264 2f3e d277 993d 5edb 8e3e 6e55 cbbe
000000e0: 67cf 413e 15ce d43e b86c ccbe 050e 9bbe
000000f0: 47f4 a93e 354e c3bd d28b 8e3e 5973 d4be
00000100: fb10 aa3d 6f70 a2bd ee1e a53e d43b 523d
00000110: 4184 c7bd 2c15 0b3e 2a26 c43e 94f7 83bd
00000120: 4cd0 1ebd 2243 3c3e b063 74bd dd36 54be
00000130: 3dec b1be 669c abbe 3b7a d13e 9bb1 8dbe
00000140: a83f 983e 55aa 91be cf57 8bbe 6d4c e4bd
00000150: b4b1 e1be be36 563d f92b ce3e 9a56 45be
00000160: 6699 ea3d 93f7 c5be 88b8 ec3d 69ac a5bd
00000170: 44d8 a03e 34fc 97be ed8d a8be 358c 0d3e
00000180: 8ead 9e3e ac54 803d 3dd8 91be 1ac1 2dbe
00000190: d678 76be 33ec c23e 6af1 8cbe eb14 963e
000001a0: 4235 583d 7a9b b33e 451e d4be e2de 53be
000001b0: 213b d3be 3fcd a43e 999b b83e 75f9 ce3e
000001c0: dcb7 8d3e ffda b1be 160d 593b 1b58 07be
000001d0: 6920 c8be 89e3 c7be deed 813d 369e c13d
000001e0: 13a0 21be d260 833e 4586 9cbd 9897 2fbe
000001f0: 7529 d33e 14ec c8be 36b4 9b3e 99ad b9be

conv2_1.0.weight f4 [8, 8, 1, 1, 1]
0.48154163 0.3295308 0.23078583 0.1767792 -0.22926882 0.29180282 -0.0006721931 -0.4440176
-0.059212524 -0.09164575 0.40988383 -0.41705465 0.58200604 0.1755773 0.5395898 0.26615557
0.39748785 -0.07928874 -0.074578054 0.20783925 0.36255252 -0.4998312 0.5414084 -0.47087204
-0.53299993 0.36445305 0.06805895 0.13729085 -0.19972007 0.24745642 -0.22508833 -0.14606293
0.58653486 -0.08165163 0.34659725 -0.121839166 0.28696075 0.11035794 -0.29535246 -0.32616347
0.43956545 0.5448931 -0.108003646 0.014275278 0.5268227 0.10283343 0.38037375 -0.50980115
-0.34973603 0.13930213 0.14388478 -0.46621516 0.52639496 0.19339587 -0.2792157 -0.26424465
-0.29037017 0.5508666 -0.07389977 0.06402384 -0.008828134 -0.21448424 -0.037770953 0.077363394
00000000: a08c f63e 43b8 a83e 1f53 6c3e 9b05 353e
00000010: 72c5 6abe 2e67 953e 1e36 30ba 4656 e3be
00000020: d588 72bd c4b0 bbbd 4bdc d13e 3088 d5be
00000030: 59fe 143f 89ca 333e 8f22 0a3f 8b45 883e
00000040: 8783 cb3e 2362 a2bd 61bc 98bd d0d3 543e
00000050: 7ca0 b93e e0e9 ffbe be99 0a3f 2416 f1be
00000060: af72 08bf 9799 ba3e 7e62 8b3d f995 0c3e
00000070: 6b83 4cbe 3765 7d3e 8e7d 66be 8591 15be
00000080: 2627 163f f838 a7bd 3275 b13e d086 f9bd
00000090: 85ec 923e 5803 e23d 7038 97be e6fe a6be
000000a0: b90e e13e 1d7e 0b3f 0431 ddbd dbe2 693c
000000b0: dadd 063f 559a d23d 59c0 c23e 5482 02bf
000000c0: 9a10 b3be 38a5 0e3e 8856 133e c1b3 eebe
000000d0: d2c1 063f 9109 463e 5cf5 8ebe 134b 87be
000000e0: 66ab 94be 9805 0d3f c358 97bd ee1e 833d
000000f0: e1a3 10bc c2a1 5bbe b7b5 1abd b370 9e3d

conv2_1.0.bias f4 [8]
-0.2118954 0.0822987 -0.025997749 -0.18510838 0.04602063 -0.28625286 0.033539094 -0.083264664
00000000: 1cfb 58be 398c a83d 3bf9 d4bc 0d8d 3dbe
00000010: 2180 3c3d bc8f 92be 4a60 093d aa86 aabd

conv2_1.2.weight f4 [8, 8, 3, 3, 3]
-0.096690916 -0.03997238 -0.07861359 -0.07174941 0.09991038 -0.068305045 -0.011815411 -0.08085236
0.08086763 0.009451431 0.032555427 -0.07428438 0.07622447 0.07235781 -0.07769089 -0.0070587397
0.015041866 0.03412152 0.009866831 -0.09607545 0.016727598 0.051299457 0.015852071 -0.09955046
0.06708318 -0.009203355 0.060550615 0.027148291 0.013653125 0.037151538 0.032119855 -0.041741896
0.08990573 0.053663112 -0.063354835 -0.088733226 -0.047567725 0.07138823 0.11847426 0.04435892
-0.050758556 0.062191974 0.097799346 -0.016288172 0.0552668 0.050131354 0.106627956 -0.09098625
-0.06250036 -0.02927111 0.016367497 0.04773921 0.092744194 0.028821358 -0.012603642 0.004453263
-0.009695644 -0.035803545 -0.00985775 -0.076820225 0.064511605 -0.106437445 -0.060356896 -0.042835128
-0.014439125 0.018111235 -0.011773755 -0.0026793159 -0.08265349 -0.032850657 0.02392919 0.051610753
-0.06966204 -0.1037258 -0.028223576 0.077148326 -0.0036466115 0.070016325 -0.046529427 0.08217798
-0.09286675 0.0031499555 0.054141242 -0.045543585 0.09569934 0.034656424 -0.08973971 0.013013379
-0.039851606 -0.070391655 -0.07927431 -0.063421965 -0.016040111 -0.020623857 -0.072871454 0.09844502
-0.051034387 0.085976616 0.06635521 0.027874814 0.09094502 -0.06730779 -0.03128604 -0.06647088
0.10003658 0.021750119 -0.08948273 -0.053439148 0.008588577 -0.057485357 0.016947748 -0.06756966
0.035393734 0.088559926 0.05060946 0.04339921 -0.06307007 0.0038866033 -0.030994726 0.10272007
0.041871723 0.09659589 0.10334609 -0.0157523 0.11331789 -0.009786481 -0.05262065 -0.02361602
-0.055319335 0.08776882 -0.011282495 -0.026382783 -0.1059458 -0.06613295 -0.014077219 0.07231777
-0.078270555 -0.091976315 -0.046030376 -0.099105954 -0.03653617 0.025343327 0.042898834 -0.0060709603
-0.061458986 -0.00060000474 -0.033878427 0.0533837 0.065572076 0.012737898 -0.08398692 -0.06557054
-0.08246645 -0.11688389 -0.1007819 0.044417065 -0.028604912 0.017113911 0.00454611 0.03970247
-0.08268216 0.07112315 0.09886823 0.019807447 -0.032689866 0.041055858 -0.0011419845 0.031065702
-0.046305727 -0.08738055 -0.015293008 -0.04254094 0.02588971 0.09257162 0.08459798 0.09713595
-0.0066924915 0.09871699 -0.06936261 0.08475883 -0.08583684 0.04138937 0.056859776 -0.09886418
-0.04923959 0.026802221 0.03123596 0.013539294 -0.06349549 -0.05228516 -0.055902857 -0.012457515
-0.06745389 -0.028948063 -0.009601699 -0.044481777 0.10053731 0.06919035 0.030134123 0.096516654
0.040152963 -0.10512463 0.007871236 -0.081136145 -0.0741208 -0.013802588 0.01861396 -0.10136316
0.09353523 0.05074803 0.06408769 -0.031875964 -0.024778644 -0.06343223 0.08218227 -0.0038074525
-0.07418491 0.03985594 -0.062926635 0.09647645 -0.056718092 0.049316388 0.06854236 0.07015648
-0.08551642 -0.053615466 0.056583915 0.084547825 -0.0672933 -0.0767578 0.09716902 -0.0021604197
0.03981517 0.021261776 -0.10299825 -0.07934661 -0.005745663 -0.053247962 0.072217256 -0.01629662
-0.082139544 -0.065195106 0.008720444 0.1123838 0.1330614 0.045110863 0.037156988 0.01580784
0.0047861817 -0.0300424 0.0875551 0.07196972 0.10293714 0.011484586 0.025284793 -0.08162958
00000000: e305 c6bd 14ba 23bd 2900 a1bd 5bf1 92bd
00000010: d09d cc3d 84e3 8bbd 6d95 41bc ec95 a5bd
00000020: ee9d a53d 2dda 1a3c d758 053d 6922 98bd
00000030: 931b 9c3d 5530 943d 671c 9fbd 004d e7bb
00000040: 2972 763c 02c3 0b3d 7da8 213c 35c3 c4bd
00000050: 5108 893c 611f 523d 34dc 813c 1de1 cbbd
00000060: e862 893d abc9 16bc ec03 783d 1866 de3c
00000070: 5bb1 5f3c 362c 183d 1c90 033d 8df9 2abd
00000080: 7f20 b83d dacd 5b3d 2ec0 81bd c4b9 b5bd
00000090: 60d6 42bd fe33 923d a2a2 f23d b3b1 353d
000000a0: 34e8 4fbd 03bd 7e3d 064b c83d c66e 85bc
000000b0: 715f 623d 8956 4d3d c25f da3d 0057 babd
000000c0: 3000 80bd f8c9 efbc 2115 863c 318a 433d
000000d0: abf0 bd3d c51a ec3c 827f 4ebc adec 913b
000000e0: 7ada 1ebc bda6 12bd 6682 21bc ec53 9dbd
000000f0: a91e 843d e0fb d9bd cb38 77bd e373 2fbd
00000100: 1492 6cbc 035e 943c b5e6 40bc 7697 2fbb
00000110: 3c46 a9bd 698e 06bd 2607 c43c cc65 533d
00000120: f9aa 8ebd 316e d4bd 2135 e7bc f1ff 9d3d
00000130: fdfb 6ebb b864 8f3d a495 3ebd ee4c a83d
00000140: ec30 bebd 7c6f 4e3b 35c3 5d3d e98b 3abd
00000150: 04fe c33d e5f3 0d3d 74c9 b7bd 1136 553c
00000160: 703b 23bd 8029 90bd 925a a2bd 60e3 81bd
00000170: 8d66 83bc 5df3 a8bc a13d 95bd 8b9d c93d
00000180: 6f09 51bd 8214 b03d 3ee5 873d b959 e43c
00000190: 6241 ba3d abd8 89bd ca25 00bd e221 88bd
000001a0: fadf cc3d 4e2d b23c b942 b7bd 02e3 5abd
000001b0: 1ab7 0c3c c475 6bbd 01d6 8a3c f661 8abd
000001c0: 05f9 103d e85e b53d dd4b 4f3d 5fc3 313d
000001d0: e22a 81bd 62b6 7e3b a7e8 fdbc e65e d23d
000001e0: af81 2b3d 11d4 c53d 1da7 d33d f80a 81bc
000001f0: 3613 e83d 7a57 20bc c088 57bd 6276 c1bc
00000200: 8796 62bd 24c0 b33d 37da 38bc b520 d8bc
00000210: 1dfa d8bd b670 87bd 23a4 66bc 571b 943d
00000220: 504c a0bd 145e bcbd 598a 3cbd 10f8 cabd
00000230: f3a6 15bd cf9c cf3c b0b6 2f3d e8ee c6bb
00000240: 6bbc 7bbd a349 1dba 1bc4 0abd dea8 5a3d
00000250: a74a 863d 9eb2 503c 5601 acbd d949 86bd
00000260: 2ce4 a8bd d260 efbd be66 cebd abee 353d
00000270: d954 eabc 7932 8c3c 89f7 943b 0f9f 223d
00000280: 4455 a9bd 04a9 913d 6d7b ca3d 3a43 a23c
00000290: cfe5 05bd 302a 283d a4ae 95ba 807d fe3c
000002a0: 13ab 3dbd 93f4 b2bd 868f 7abc 693f 2ebd
000002b0: a816 d43c 3196 bd3d b541 ad3d 37ef c63d
000002c0: b04c dbbb 222c ca3d fc0d 8ebd 0a96 ad3d
000002d0: 3acb afbd e687 293d cce5 683d 4e79 cabd
000002e0: 74af 49bd 5590 db3c 8ee2 ff3c ead3 5d3c
000002f0: ec09 82bd f728 56bd 65fa 64bd 9b1a 4cbc
00000300: 4425 8abd 7d24 edbc 7250 1dbc 8632 36bd
00000310: 81e6 cd3d acb3 8d3d d6db f63c 86aa c53d
00000320: 6f77 243d 954b d7bd 5bf6 003c b52a a6bd
00000330: a5cc 97bd 4024 62bc 4e7c 983c 7d97 cfbd
00000340: 668f bf3d 2bdd 4f3d 6840 833d 5f90 02bd
00000350: 95fc cabc c2e8 81bd 2e4f a83d 7486 79bb
00000360: 42ee 97bd fb3f 233d aedf 80bd 7295 c53d
00000370: 3b51 68bd fbff 493d f05f 8c3d 33ae 8f3d
00000380: 3c23 afbd e49b 5bbd 89c4 673d 6927 ad3d
00000390: 12d1 89bd 3233 9dbd 8d00 c73d d495 0dbb
000003a0: 3b15 233d 2d2d ae3c bff0 d2bd 7a80 a2bd
000003b0: 1d46 bcbb 891a 5abd a4e6 933d 7d80 85bc
000003c0: c738 a8bd 0385 85bd 31e0 0e3c 7a29 e63d
000003d0: 3f41 083e 2bc6 383d ed31 183d 717f 813c
000003e0: 67d5 9c3b 7b1b f6bc 1750 b33d dc64 933d
000003f0: b5d0 d23d d829 3c3c 0e22 cf3c 692d a7bd

conv2_1.2.bias f4 [8]
0.10933629 -0.03041552 0.039709825 -0.03666164 -0.014871872 -0.0533435 -0.023040459 -0.031390727
00000000: b4eb df3d f829 f9bc c5a6 223d 842a 16bd
00000010: 27a9 73bc b77e 5abd 58bf bcbc 9093 00bd

conv2_1.4.weight f4 [16, 8, 1, 1, 1]
0.23768282 0.117450595 -0.43732363 0.3014231 -0.062468708 -0.11835863 -0.32216555 -0.28048497
0.20268278 0.18116006 0.30537665 0.42781824 -0.1639493 0.26036516 0.44696003 0.52570784
0.35379076 -0.10813497 0.1368745 0.34023967 0.29667962 -0.24672121 0.09920583 0.30012372
0.27914205 0.36303964 0.04044618 0.17024815 -0.056268927 0.44745642 -0.09752005 -0.330255
0.10055347 -0.09938189 -0.3166 0.38154036 -0.09860418 0.089214735 0.085900635 -0.32100728
0.25502113 0.14192083 -0.019722763 0.07960146 0.32474217 0.10146017 0.020951321 0.3357423
0.40237936 0.34771183 0.17489113 0.25383943 0.2541933 0.03489943 0.0775057 -0.21174684
0.35902402 0.33392984 -0.047414117 -0.14346175 0.35811675 -0.40340948 -0.41179487 0.04533766
-0.1085525 0.10077563 -0.33430895 0.36848152 -0.43112952 -0.041487604 -0.41208896 0.15290022
0.3500518 -0.30970585 -0.031448558 0.13310282 -0.38377395 0.2802937 0.02678515 -0.35720485
-0.037099037 0.434006 -0.229682 -0.16879825 -0.29893723 -0.00808903 -0.24291849 0.4041125
0.14477338 0.12113453 -0.34000707 -0.2134737 0.163647 0.15278946 0.40515444 0.16988058
0.17388068 -0.23954864 0.19252914 -0.098848246 -0.29711333 0.40346935 -0.23197733 -0.039655503
-0.067739405 0.17588913 -0.3814472 -0.33376458 0.3156945 0.43272328 0.27139056 -0.39954853
-0.21570447 0.41430545 -0.23069918 -0.102083415 0.28800407 0.053970568 -0.21091111 -0.440493
0.20162947 0.23240215 -0.34966102 -0.052419946 -0.029763507 -0.027555713 0.15220633 0.30857924
00000000: 2063 733e f089 f03d e2e8 dfbe 2154 9a3e
00000010: 30df 7fbd 0266 f2bd e2f2 a4be ba9b 8fbe
00000020: 138c 4f3e 0682 393e 545a 9c3e fe0a db3e
00000030: 53e2 27be 954e 853e f2d7 e43e ca94 063f
00000040: 1024 b53e de75 ddbd d428 0c3e e533 ae3e
00000050: 64e6 973e 7ca4 7cbe 6d2c cb3d d1a9 993e
00000060: b5eb 8e3e 55e0 b93e e5aa 253d 8855 2e3e
00000070: 3f7a 66bd 0219 e53e 98b8 c7bd 2f17 a9be
00000080: faee cd3d bb88 cbbd 6519 a2be 4259 c33e
00000090: fdf0 c9bd 37b6 b63d acec af3d 115b a4be
000000a0: 2192 823e b253 113e a291 a1bc 1706 a33d
000000b0: 9b44 a63e 59ca cf3d 1ba2 ab3c 6ae6 ab3e
000000c0: ab04 ce3e 4907 b23e a916 333e 3ef7 813e
000000d0: a025 823e b4f2 0e3d 4fbb 9e3d 2ad4 58be
000000e0: ffd1 b73e daf8 aa3e 4e35 42bd a3e7 12be
000000f0: 145b b73e b08b cebe c7d6 d2be fbb3 393d
00000100: c650 debd 7463 ce3d 8b2a abbe 9ca9 bc3e
00000110: 02bd dcbe e8ee 29bd 53fd d2be e091 1c3e
00000120: fd39 b33e c491 9ebe 34d0 00bd 1b4c 083e
00000130: 057e c4be a882 8f3e 886c db3c 8ee3 b6be
00000140: 29f5 17bd 0936 de3e c231 6bbe 73d9 2cbe
00000150: 4d0e 99be da87 04bc a0bf 78be d5e7 ce3e
00000160: 793f 143e 6115 f83d 6815 aebe da98 5abe
00000170: 1493 273e d774 1c3e 6770 cf3e 2df5 2d3e
00000180: c70d 323e 3d4c 75be 5c26 453e f370 cabd
00000190: 3d1f 98be 8993 ce3e 778b 6dbe cf6d 22bd
000001a0: f5ba 8abd 481c 343e 0c4d c3be 31e3 aabe
000001b0: b6a2 a13e e88d dd3e b4f3 8a3e a091 ccbe
000001c0: a2e1 5cbe d81f d43e 683c 6cbe 1c11 d1bd
000001d0: 4575 933e 3e10 5d3d 15f9 57be 4c88 e1be
000001e0: f577 4e3e d4fa 6d3e c506 b3be 4cb6 56bd
000001f0: 99d2 f3bc 85bc e1bc fadb 1b3e 19fe 9d3e

conv2_1.4.bias f4 [16]
-0.31672403 0.07027001 0.26408184 -0.2395193 0.11422065 -0.4357394 0.13976464 -0.20894402
0.14627743 0.2105082 0.32922402 -0.05604854 0.420716 0.08269878 -0.022286149 -0.24552241
00000000: a729 a2be b9e9 8f3d bc35 873e 8c44 75be
00000010: 84ec e93d 3c19 dfbe 761e 0f3e 6cf5 55be
00000020: c0c9 153e 768f 573e 0d90 a83e 2793 65bd
00000030: 1668 d73e fa5d a93d 7191 b6bc 3a6a 7bbe

pool2.weight f4 [8, 1, 7, 7, 7]
0.0006495024 -0.03398988 -0.029509606 0.0071350303 -0.046247333 -0.020793738 -0.029844012 -0.0056208544
0.007870447 0.013926164 0.01411155 0.0118150525 -0.044910453 0.016199125 0.005014434 -0.039268408
0.013260543 -0.024820998 0.00019380385 -0.047791604 -0.037228588 0.006322252 0.008376672 0.019812657
-0.01787029 -0.04215067 0.027994707 -0.033608273 -0.0032522967 0.006580031 -0.034953117 -0.003319117
-0.01548985 0.00087506504 -0.042358793 -0.02875507 -0.022516906 -0.033427477 0.025406301 0.034966614
-0.0008801593 0.021336995 0.021275776 -0.030738346 -0.019878482 -0.0023275337 0.004309236 0.013180325
-0.03725462 -0.04113641 0.0006908118 -0.014346326 -0.0014416346 -0.003868859 -0.024803985 -0.047824286
-0.039568603 -0.041130602 -0.050606642 -0.0042648376 -0.00999643 -0.024231624 -0.04206322 -0.029039584
-0.016833263 -0.019664994 0.008549327 -0.05558167 -0.03591713 -0.049953017 -0.04160642 -0.036868557
0.0025152774 -0.008970966 0.0011291015 0.023735695 -0.0052088983 -0.011631528 -0.022359818 -0.016283622
0.034772385 -0.03189738 -0.029921073 -0.015920328 0.02898443 -0.011187611 0.005958969 0.000979942
0.013504311 -0.00046382606 -0.0024959357 0.011768229 0.0012885331 -0.0056838114 -0.011504822 -0.0064354013
0.003332224 -0.007808059 0.01637671 -0.030745978 0.018690843 0.0018949409 -0.022999717 0.02382015
-0.05135421 -0.051516704 -0.009812326 0.00042729336 -0.03449392 -0.03125284 -0.023065066 -0.03815956
-0.05116334 -0.005904263 -0.026239341 -0.020293934 -0.05170515 -0.003767776 -0.009168969 0.0094369305
0.0069673033 0.024484266 0.012111592 -0.010174869 -0.02173655 -0.048356257 0.006961129 -0.016243739
-0.022518763 -0.023776937 0.004743335 -0.00050734164 0.008433211 0.010811884 -0.03255082 0.035210975
0.013129626 -0.00019858422 -0.022903178 0.017738808 0.013249073 0.028567964 -0.0047038924 -0.023012388
0.016680768 0.03241829 -0.022987027 0.012484276 -0.0071496223 0.0027904187 0.017328877 -0.045034755
-0.042444065 -0.038312934 -0.045991436 0.00093613786 0.012972851 -0.0045211837 -0.032264303 -0.0017567778
-0.023870245 -0.050300747 0.0030048979 -0.053231828 -0.018086586 -0.041998804 -0.03344468 0.013109977
-0.0382497 0.010854204 -0.020493269 -0.031943858 0.021648135 0.011555021 -0.043299224 -0.028701732
0.02863217 0.00651073 0.026974704 0.0011372447 -0.018474242 0.01386864 0.014517384 0.0164171
0.020405993 -0.02623073 0.007442989 0.02668357 -0.019918121 0.01470919 0.031752754 0.030556606
0.009606304 0.00092948455 -0.007859602 0.03289166 -0.0034269977 0.0017347896 -0.021954793 -0.039665688
0.011527441 0.01573901 0.021561423 -0.0076824958 -0.02596381 -0.039681934 0.003707709 -0.031749986
-0.009662683 -0.005331186 -0.007902366 0.008313224 -0.0032399655 -0.049921382 -0.02382342 -0.049612068
-0.056246597 -0.02594287 0.0151953995 -0.0017050962 0.020515656 -0.0044539976 0.012770867 -0.002409828
-0.022754615 0.005539578 -0.019930294 -0.008298338 0.019845374 -0.013885985 0.009790919 -0.021914274
-0.02810433 0.028564353 0.024409853 -0.015222065 0.026686922 -0.0014072508 0.033579554 -0.017722212
-0.03122423 -0.022991624 -0.028779171 0.01748399 0.015080032 -0.024330186 -0.011132424 -0.052117027
-0.052270904 -0.0058141435 0.0029908353 -0.045137778 -0.0050123455 0.020990478 0.0124430135 -0.007897626
00000000: 5e43 2a3a f938 0bbd 21be f1bc f9cc e93b
00000010: d86d 3dbd a157 aabc 6e7b f4bc 252f b8bb
00000020: 0cf3 003c 912a 643c 2134 673c ec93 413c
00000030: 06f4 37bd 07b4 843c 1f50 a43b e9d7 20bd
00000040: c042 593c 6855 cbbc d337 4b39 21c1 43bd
00000050: 017d 18bd e52a cf3b 4f3e 093c 274e a23c
00000060: b764 92bc 2ea6 2cbd 2855 e53c d4a8 09bd
00000070: 7c24 55bb 4d9d d73b 002b 0fbd 8b85 59bb
00000080: 24c9 7dbc 9f64 653a 6a80 2dbd c18f ebbc
00000090: 6075 b8bc 40eb 08bd e020 d03c 2739 0f3d
000000a0: 7eba 66ba ecca ae3c 894a ae3c fcce fbbc
000000b0: 33d8 a2bc 8989 18bb 7e34 8d3b 4af2 573c
000000c0: 4d98 18bd a77e 28bd 9817 353a da0c 6bbc
000000d0: 3bf5 bcba af8c 7dbb ba31 cbbc 66e3 43bd
000000e0: b012 22bd 9078 28bd e948 4fbd 0dc0 8bbb
000000f0: 11c8 23bc 6681 c6bc 7c4a 2cbd 6ce4 edbc
00000100: e9e5 89bc 7b18 a1bc 7a12 0c3c 9ba9 63bd
00000110: d71d 13bd 899b 4cbd 7e6b 2abd 7c03 17bd
00000120: 5ad7 243b f5fa 12bc 5cfe 933a 5c71 c23c
00000130: 68af aabb 2a92 3ebc f02b b7bc 3b65 85bc
00000140: 7d6d 0e3d d4a6 02bd 0a1d f5bc 596b 82bc
00000150: c170 ed3c 3e4c 37bc 7443 c33b 6671 803a
00000160: 3041 5d3c ae2d f3b9 da92 23bb 88cf 403c
00000170: ffe3 a83a 443f babb b97e 3cbc 0fe0 d2bb
00000180: 7161 5a3b bfda ffbb 7328 863c fdde fbbc
00000190: 8a1d 993c aa5f f83a e769 bcbc 7a22 c33c
000001a0: cb58 52bd 2e03 53bd e1c3 20bc 5806 e039
000001b0: 7f49 0dbd fa02 00bd f3f2 bcbc 334d 1cbd
000001c0: a790 51bd 8c78 c1bb e3f3 d6bc 773f a6bc
000001d0: c8c8 53bd cbec 76bb 7139 16bc 5b9d 1a3c
000001e0: fa4d e43b 3a93 c83c b36f 463c 7eb4 26bc
000001f0: d910 b2bc 3611 46bd 2f1a e43b 9711 85bc
00000200: 4579 b8bc dac7 c2bc fa6d 9b3b 1fff 04ba
00000210: 732b 0a3c 5424 313c 0254 05bd 6239 103d
00000220: a51d 573c 0c3b 50b9 729f bbbc fa50 913c
00000230: a412 593c 5d07 ea3c 1c23 9abb 7a84 bcbc
00000240: 1ba6 883c 0ac9 043d 4a4f bcbc d98a 4c3c
00000250: 6147 eabb 75df 363b 4af5 8d3c 5d76 38bd
00000260: d4d9 2dbd 06ee 1cbd 8461 3cbd 2667 753a
00000270: 158c 543c 7026 94bb 9327 04bd ae43 e6ba
00000280: 888b c3bc 2808 4ebd d2ed 443b 9e09 5abd
00000290: 522a 94bc f006 2cbd 4afd 08bd 3bcb 563c
000002a0: b8ab 1cbd d5d5 313c 80e1 a7bc 90d7 02bd
000002b0: 6e57 b13c 4551 3d3c 875a 31bd e51f ebbc
000002c0: 038e ea3c f657 d53b 0efa dc3c 9a0f 953a
000002d0: 4b57 97bc 4b39 633c 52da 6d3c 277d 863c
000002e0: 782a a73c d4e1 d6bc 51e4 f33b 8197 da3c
000002f0: 542b a3bc d1fe 703c 2d0f 023d d951 fa3c
00000300: c263 1d3c a7a8 733a 8fc5 00bc 68b9 063d
00000310: 7b97 60bb e161 e33a 8ada b3bc 7d78 22bd
00000320: 98dd 3c3c 19ef 803c 95a1 b03c 72bd fbbb
00000330: 0eb2 d4bc 8689 22bd 09fd 723b 460c 02bd
00000340: 3b50 1ebc 3bb1 aebb ed78 01bc 3034 083c
00000350: 9a55 54bb 5d7a 4cbd 5529 c3bc 0636 4bbd
00000360: d562 66bd 2486 d4bc 20f6 783c 897d dfba
00000370: 7310 a83c d7f2 91bb e63c 513c 34ee 1dbb
00000380: e367 babc 5985 b53b db44 a3bc c1f5 07bc
00000390: c492 a23c 0b82 63bc 176a 203c 9085 b3bc
000003a0: 0d3b e6bc caff e93c 2cf7 c73c f865 79bc
000003b0: 889e da3c 8073 b8ba b78a 093d 2c2e 91bc
000003c0: f5c9 ffbc ee58 bcbc 4cc2 ebbc 963a 8f3c
000003d0: 3d12 773c 1950 c7bc c564 36bc aa78 55bd
000003e0: 041a 56bd 9284 bebb e401 443b 64e2 38bd
000003f0: 9a3e a4bb 39f4 ab3c c8dd 4b3c 0b65 01bc

pool2.bias f4 [8]
0.019458825 0.112644486 0.03205488 -0.02452386 0.041037932 -0.041203257 -0.04556457 0.0025905017
00000000: 1d68 9f3c 27b2 e63d fa4b 033d 43e6 c8bc
00000010: 6417 283d bfc4 28bd eaa1 3abd 68c5 293b

reduction2_2.weight f4 [16, 8, 1, 1, 1]
-0.16114746 -0.32060373 -0.21596846 -0.044693958 -0.24115294 0.33941922 0.15167259 0.05549532
0.33231407 0.4230954 0.24904853 0.10884615 0.2858421 -0.16142681 -0.37129822 0.2076606
-0.028093414 -0.38091692 0.03997084 -0.3297723 -0.13833262 0.2389084 0.2015972 0.20254275
-0.0001141109 0.052154556 0.09033814 -0.3270042 0.35767362 -0.1786466 -0.32719612 0.3710227
-0.41690946 -0.14887358 -0.019553259 0.29643607 -0.0059890887 -0.41350886 -0.38055396 -0.32191175
-0.45076346 -0.2937571 -0.44376305 0.15874787 -0.14707689 0.4175322 0.15501958 -0.05032631
0.10570204 0.03176829 0.25713968 -0.3497578 -0.2543051 0.44348523 0.37465146 -0.4378441
-0.10855086 0.3335109 0.36671293 -0.43758896 -0.38996452 0.11795739 0.30715173 -0.16374488
-0.30896744 0.26060566 0.13589872 -0.27336743 -0.22156972 0.07513993 0.3380269 -0.0734654
0.42400244 0.42881852 0.36893284 0.38918763 0.41017252 -0.35110575 0.24918725 0.0058633895
0.25773963 -0.26091868 0.008752754 0.39351016 0.13793404 -0.022812372 -0.38299415 -0.41277936
-0.18186663 0.026385648 0.1539158 0.033337925 0.19386572 -0.112342596 0.24703166 0.30498168
-0.101801544 0.12728564 0.024625305 -0.012056755 -0.10228761 -0.33358043 0.388063 0.3725784
0.31655937 0.27563748 0.19141337 0.0219965 -0.07368108 -0.15674056 0.017524336 0.21322814
0.1924115 -0.43627834 0.011648694 0.33373812 -0.20051658 -0.2281569 -0.43641108 -0.351299
-0.36595693 0.32424638 0.2063443 -0.026758991 0.07039261 0.032593414 0.15076211 -0.2650356
00000000: d703 25be 2c26 a4be d626 5dbe 0311 37bd
00000010: ccf0 76be 5bc8 ad3e 0f50 1b3e 104f 633d
00000020: 1225 aa3e f69f d83e 9406 7f3e bbea de3d
00000030: e559 923e 124d 25be cd1a bebe fba4 543e
00000040: 2924 e6bc 8b07 c3be 77b8 233d ead7 a8be
00000050: 11a7 0dbe 67a4 743e 7f6f 4e3e 5e67 4f3e
00000060: d34e efb8 04a0 553d 3403 b93d 186d a7be
00000070: ff20 b73e 22ef 36be 4086 a7be b0f6 bd3e
00000080: 2875 d5be 5172 18be 282e a0bc 78c6 973e
00000090: 1e40 c4bb 6fb7 d3be f8d7 c2be 9ed1 a4be
000000a0: 78ca e6be 5567 96be e934 e3be cd8e 223e
000000b0: 539b 16be c8c6 d53e 74bd 1e3e f622 4ebd
000000c0: 507a d83d 771f 023d d0a7 833e 7413 b3be
000000d0: 4734 82be 7f10 e33e 51d2 bf3e 1a2d e0be
000000e0: ea4f debd f1c1 aa3e ccc1 bb3e a90b e0be
000000f0: 6ea9 c7be a593 f13d fe42 9d3e bdac 27be
00000100: fb30 9ebe 1b6e 853e 0929 0b3e d1f6 8bbe
00000110: 2ce3 62be f7e2 993d dd11 ad3e 0775 96bd
00000120: d916 d93e 1a8e db3e c4e4 bc3e 9a43 c73e
00000130: 2202 d23e 22c4 b3be f12a 7f3e ad21 c03b
00000140: 73f6 833e 2297 85be b667 0f3c 2a7a c93e
00000150: 953e 0d3e 03e1 babc cf17 c4be d157 d3be
00000160: 3f3b 3abe b726 d83c 1a9c 1d3e 598d 083d
00000170: bc84 463e e013 e6bd def5 7c3e 8f26 9c3e
00000180: 547d d0bd 2b57 023e 02bb c93c b289 45bc
00000190: 2b7c d1bd 0ecb aabe 32b0 c63e 99c2 be3e
000001a0: 1214 a23e 5b20 8d3e de01 443e 0132 b43c
000001b0: 1be6 96bd 9980 20be 328f 8f3c 7a58 5a3e
000001c0: 8507 453e e05f dfbe 2ada 3e3c b9df aa3e
000001d0: 3854 4dbe f6a1 69be 4671 dfbe 76dd b3be
000001e0: b55e bbbe 9f03 a63e ec4b 533e ac35 dbbc
000001f0: 002a 903d ac80 053d 6261 1a3e bfb2 87be

conv2_2.0.weight f4 [8, 8, 1, 1, 1]
0.4162988 -0.13982205 -0.10740323 -0.2323943 -0.20510006 0.04169374 -0.3798285 -0.41470334
0.14861591 -0.35644937 -0.015729208 -0.1258246 0.07032222 -0.26275516 -0.44917464 -0.4607802
0.042941403 0.2916142 -0.32979602 0.496606 0.0532135 0.3624725 -0.40543595 -0.44527957
0.13642336 0.26426277 0.5247727 -0.07354414 -0.44142333 -0.384089 0.247345 -0.22593641
0.48459566 -0.48489267 -0.4444103 -0.069567665 0.45448205 0.1153316 -0.4983079 -0.45418507
-0.20649348 0.16928448 0.16989407 -0.4197317 0.31425205 0.21778648 0.14128359 0.06636045
0.2791578 0.46294996 -0.25055578 -0.39432305 -0.09280023 -0.51827216 0.41377243 0.18743397
0.35189667 -0.3374048 0.19761366 0.4138812 0.31308386 -0.050418258 -0.26779047 -0.23734735
00000000: 1e25 d53e 832d 0fbe 3af6 dbbd c5f8 6dbe
00000010: c005 52be 0ec7 2a3d e278 c2be ff53 d4be
00000020: c52e 183e 8880 b6be 8ada 80bc 2ad8 00be
00000030: 1905 903d d887 86be 38fa e5be 62eb ebbe
00000040: 53e3 2f3d 754e 953e 06db a8be 2443 fe3e
00000050: 66f6 593d ff95 b93e 4d95 cfbe affb e3be
00000060: 91b2 0b3e 734d 873e 8157 063f 4f9e 96bd
00000070: 3d02 e2be 50a7 c4be 0248 7d3e e05b 67be
00000080: ec1c f83e da43 f8be bf89 e3be 7e79 8ebd
00000090: dfb1 e83e f932 ec3d 3722 ffbe f28a e8be
000000a0: 0773 53be e958 2d3e b6f8 2d3e 13e7 d6be
000000b0: a5e5 a03e 6b03 5f3e a5ac 103e fde7 873d
000000c0: c5ed 8e3e c707 ed3e d948 80be b6e4 c9be
000000d0: 0c0e bebd 7cad 04bf fbd9 d33e b1ee 3f3e
000000e0: cd2b b43e 52c0 acbe 3c5b 4a3e 3de8 d33e
000000f0: 874c a03e 6083 4ebd d51b 89be 2f0b 73be

conv2_2.0.bias f4 [8]
0.23229323 -0.24833731 0.25117925 -0.21082537 0.35484725 -0.19944885 0.14852382 -0.062002745
00000000: 47de 6d3e 234c 7ebe 919a 803e 9be2 57be
00000010: 8aae b53e 523c 4cbe a116 183e 97f6 7dbd

conv2_2.2.weight f4 [8, 8, 3, 3, 3]
0.110458426 -0.019937484 -0.053826682 0.097619124 -0.059765443 -0.06499256 0.07755448 0.022497108
-0.06264662 0.048358627 -0.0736839 0.023594912 0.077273384 -0.0083323205 -0.09011271 -0.036059953
-0.012033326 -0.04040361 0.053091113 -0.037404235 0.11231248 -0.09031916 0.053953007 0.017096834
0.045107428 -0.061981898 -0.021954777 0.008195339 0.011767733 0.07355296 -0.071659535 -0.065444745
0.064125724 -0.09037084 0.104534864 0.04316826 0.07301438 -0.046274416 0.08144216 0.10537853
0.08643137 0.040411443 0.039962374 -0.08257846 -0.017972037 0.005355277 0.03942347 0.03295809
-0.05595776 -0.08591957 -0.079640545 0.07124094 0.08434378 0.09809437 0.08007336 -0.090512305
-0.035527706 0.06319714 -0.06306485 0.06695607 0.0800632 0.08514633 0.02744185 -0.093383394
0.022641513 0.042016704 -0.09639026 0.052733306 -0.02418865 0.04082014 -0.009352963 -0.029405525
0.10748664 -0.05689784 0.015931787 -0.061591007 -0.03347935 -0.027267097 0.04303763 0.009088955
0.08254062 0.0073519996 -0.005759778 -0.0026537655 0.07988318 0.06644156 -0.02115945 -0.10101146
0.06028109 -0.06612087 0.0027065768 -0.032039136 0.095208086 0.016387329 0.027758235 0.050103415
0.09740705 0.008023136 0.03250975 0.06440315 0.057744723 -0.073830776 0.056148734 -0.09670534
0.08519552 -0.030149592 0.06755965 -0.033847965 0.07590169 0.06903792 0.08737506 -0.08087122
-0.012410764 0.034926016 -0.10267575 -0.09275209 0.03389098 0.11690504 0.036541946 0.019728346
-0.022519391 -0.06589635 0.03229468 0.003407237 -0.08435078 -0.10060907 -0.020982543 0.07968856
0.030676039 -0.09408938 -0.016547963 0.1014942 -0.028289275 0.09783346 0.026133047 -0.091411434
0.050280273 0.05698958 -0.086523965 0.049056657 0.013846481 0.007664316 -0.035570417 0.101686165
-0.058591817 -0.0055587334 -0.022396738 0.055125453 -0.08629975 -0.09916969 0.07910736 0.012412326
-0.098182656 -0.059731483 -0.093783416 0.06656117 -0.054239877 -0.09601177 -0.0107633695 -0.10184058
0.08123327 -0.08078656 -0.0294623 -0.02757251 -0.047323145 0.08511662 0.110606395 0.05792714
0.04971942 0.001143058 -0.10105435 -0.03890413 -0.094982475 -0.040209603 0.012426789 -0.07721415
0.08005913 0.06651353 0.025424778 -0.018042084 -0.08831396 0.09180668 0.054584336 0.058413636
-0.031576313 0.032354895 0.005551418 -0.07482121 0.0080945175 -0.05675248 0.09810318 -0.10082545
-0.06704475 -0.024676243 -0.007471622 -0.04808737 -0.08497054 -0.022137662 -0.082478575 -0.00850995
0.082160406 0.03688284 0.076279245 0.059660304 -0.05721839 0.09977976 0.019741137 0.05656419
-0.023725653 -0.029685026 0.098544896 0.05333335 0.016162455 0.08520373 -0.045995492 -0.05865931
0.056360714 0.081534624 -0.086147234 0.024998946 0.033266652 0.07131068 0.08083181 0.06588578
-0.09949242 0.052082926 -0.06843282 0.036161173 -0.033504363 0.09742638 0.06634795 0.08280751
-0.079178765 -0.058423188 0.09285015 -0.005243197 0.04804795 -0.100416385 0.09912535 0.045644667
0.051591422 0.048252285 0.033850398 0.0108967265 0.05886927 0.004611596 -0.013364655 -0.01588935
-0.0120303985 0.0009783125 -0.022649618 0.076759815 0.08375117 0.06411204 0.010263903 -0.0100430595
00000000: 0738 e23d ef53 a3bc 5e79 5cbd 89ec c73d
00000010: 9ccc 74bd d21a 85bd e2d4 9e3d db4b b83c
00000020: df4c 80bd b213 463d 96e7 96bd 1e4a c13c
00000030: 8241 9e3d 4984 08bc 038d b8bd 9ab3 13bd
00000040: 6d27 45bc 417e 25bd 1176 593d 2f35 19bd
00000050: 1604 e63d 40f9 b8bd d4fd 5c3d a90e 8c3c
00000060: 91c2 383d bbe0 7dbd 81da b3bc be45 063c
00000070: 73cd 403c efa2 963d 3cc2 92bd e507 86bd
00000080: 5954 833d 5914 b9bd 6016 d63d 34d1 303d
00000090: 9088 953d 3e8a 3dbd 26cb a63d b3d0 d73d
000000a0: ee02 b13d 7886 253d 96af 233d e51e a9bd
000000b0: 183a 93bc 527b af3b 817a 213d 10ff 063d
000000c0: f733 65bd 99f6 afbd 951a a3bd c5e6 913d
000000d0: 6fbc ac3d b3e5 c83d 80fd a33d 845e b9bd
000000e0: 8085 11bd 816d 813d 2528 81bd 4420 893d
000000f0: 2df8 a33d 3361 ae3d bbcd e03c cb3f bfbd
00000100: b27a b93c b519 2c3d 4268 c5bd e1fe 573d
00000110: 4727 c6bc 0533 273d 2c3d 19bc dbe3 f0bc
00000120: f521 dc3d b60d 69bd 6183 823c da46 7cbd
00000130: a521 09bd 3f5f dfbc 3a48 303d d7e9 143c
00000140: 0e0b a93d 0be9 f03b 85bc bcbb ccea 2dbb
00000150: cb99 a33d 8312 883d 9556 adbc 19df cebd
00000160: 4ee9 763d 616a 87bd d360 313b 783b 03bd
00000170: 75fc c23d b83e 863c 3d65 e33c 3d39 4d3d
00000180: 597d c73d 7973 033c f228 053d cce5 833d
00000190: bb85 6c3d 9734 97bd 37fc 653d 730d c6bd
000001a0: fd7a ae3d 47fc f6bc b75c 8a3d 2aa4 0abd
000001b0: 5872 9b3d c163 8d3d b2f1 b23d cf9f a5bd
000001c0: 8456 4bbc 950e 0f3d aa47 d2bd cff4 bdbd
000001d0: 45d1 0a3d e96b ef3d 02ad 153d 579d a13c
000001e0: 967a b8bc aaf4 86bd 6d47 043d f34b 5f3b
000001f0: 1ac0 acbd 210c cebd 95e3 abbc c133 a33d
00000200: 514c fb3c efb1 c0bd 988f 87bc 31dc cf3d
00000210: e9be e7bc e95c c83d f914 d63c eb35 bbbd
00000220: b0f2 4d3d e86d 693d 7a33 b1bd a2ef 483d
00000230: 5adc 623c f124 fb3b 49b2 11bd d640 d03d
00000240: f9fd 6fbd 0926 b6bb 5d79 b7bc 3acb 613d
00000250: ecbd b0bd 7a19 cbbd 0a03 a23d 125d 4b3c
00000260: fd13 c9bd 00a9 74bd 8511 c0bd 3951 883d
00000270: a22a 5ebd d2a1 c4bd d858 30bc cb91 d0bd
00000280: a15d a63d 6d73 a5bd ec5a f1bc bfdf e1bc
00000290: ead5 41bd 9f51 ae3d 9b85 e23d 0245 6d3d
000002a0: 97a6 4b3d a9d2 953a 95f5 cebd f059 1fbd
000002b0: 2c86 c2bd d3b2 24bd bb99 4b3c 7422 9ebd
000002c0: 0bf6 a33d 3f38 883d a047 d03c fecc 93bc
000002d0: f3dd b4bd 2405 bc3d d393 5f3d 2343 6f3d
000002e0: 2a56 01bd 9186 043d abe8 b53b dd3b 99bd
000002f0: de9e 043c 4a75 68bd 52ea c83d 937d cebd
00000300: c24e 89bd d525 cabc 82d4 f4bb 43f7 44bd
00000310: 0905 aebd 0b5a b5bc 87ea a8bd 516d 0bbc
00000320: b743 a83d 7612 173d 4b38 9c3d 5d5e 743d
00000330: d55d 6abd 5559 cc3d 2ab8 a13c daaf 673d
00000340: 4d5c c2bc 032e f3bc e8d1 c93d 1274 5a3d
00000350: 2067 843c 4b7f ae3d c565 3cbd bf44 70bd
00000360: 7eda 663d a0fb a63d f66d b0bd 97ca cc3c
00000370: 9d42 083d 550b 923d 268b a53d 20ef 863d
00000380: afc2 cbbd e854 553d 8226 8cbd bd1d 143d
00000390: df3b 09bd 7b87 c73d 6fe1 873d fc96 a93d
000003a0: 7a28 a2bd 274d 6fbd 3828 be3d 20cf abbb
000003b0: edcd 443d 1ba7 cdbd 3b02 cb3d e7f5 3a3d
000003c0: 8751 533d 30a4 453d b7a6 0a3d 2f88 323c
000003d0: e720 713d df1c 973b 6df7 5abc 622a 82bc
000003e0: 261b 45bc b83a 803a b18b b9bc 4034 9d3d
000003f0: bc85 ab3d 2c4d 833d ee29 283c a58b 24bc

conv2_2.2.bias f4 [8]
-0.03489877 0.043685637 0.076745264 -0.062888384 0.01138713 0.040356275 -0.023199001 0.054305788
00000000: 03f2 0ebd b6ef 323d 9f2c 9d3d a0cb 80bd
00000010: 1691 3a3c 9f4c 253d d50b bebc bf6f 5e3d

conv2_2.4.weight f4 [16, 8, 1, 1, 1]
-0.28175408 -0.41868088 -0.020060189 -0.3348296 -0.28265828 -0.034732826 -0.36899906 0.3714055
0.35742414 -0.21123655 -0.43719107 0.025155837 0.10449749 -0.09276593 -0.41305313 0.16623865
0.3537669 0.30935714 0.28967196 -0.21007884 -0.21695238 -0.22355568 -0.3017109 -0.38254997
0.1624908 0.39597508 0.41192147 0.42415607 0.26656199 0.086691804 -0.12630248 0.07183537
-0.24915743 0.21399207 -0.112086535 -0.03874118 0.082823835 0.44334576 0.15553735 -0.4359813
0.25262836 0.33560753 0.26341188 -0.40642095 0.28968206 -0.4030606 0.1035529 0.37325543
0.021282988 -0.33004603 -0.0058420408 0.16087286 0.22509141 -0.3046377 -0.43238935 0.0786956
-0.04632434 -0.08698923 -0.37402013 -0.042901333 -0.3747632 0.26479882 0.31767085 0.07056898
-0.2889576 0.097521 0.29729795 -0.060928397 0.3046627 -0.18973386 0.40313634 -0.30238461
0.39341438 0.4453551 0.25841296 0.17112789 -0.1577239 -0.04268083 -0.32838684 0.1054145
-0.23508735 0.108684674 0.19965312 -0.16398439 -0.26784378 -0.1606609 -0.023955438 0.38694066
0.15410456 -0.007837428 -0.34246203 0.07114102 -0.25495675 0.09868388 0.056398444 0.4034024
-0.09679924 -0.37439469 0.3256119 -0.23671909 -0.32818627 -0.21369132 -0.10875122 0.119029894
0.29394197 -0.075123616 0.39364743 -0.11903156 0.06743839 0.29758614 0.39092815 -0.26807487
-0.31551072 0.27631697 0.43930304 -0.05224774 -0.26647395 0.045725025 -0.3651916 0.009244614
-0.39519686 0.41497844 0.051377445 0.36655104 0.040183257 -0.25415403 -0.13475178 0.42691487
00000000: 1242 90be 575d d6be 4455 a4bc c96e abbe
00000010: 96b8 90be 0244 0ebd 72ed bcbe dd28 be3e
00000020: 4c00 b73e 654e 58be 82d7 dfbe 9d13 ce3c
00000030: c802 d63d 10fc bdbd b37b d3be 773a 2a3e
00000040: ef20 b53e 0f64 9e3e e24f 943e e81e 57be
00000050: c428 5ebe c8eb 64be da79 9abe 97dd c3be
00000060: fd63 263e 3fbd ca3e 5fe7 d23e fc2a d93e
00000070: d07a 883e 798b b13d 7055 01be 6c1e 933d
00000080: 2023 7fbe bd20 5b3e a08d e5bd 12af 1ebd
00000090: 8b9f a93d 37fe e23e 2f45 1f3e f138 dfbe
000000a0: 8158 813e c0d4 ab3e ecdd 863e 6816 d0be
000000b0: 3551 943e f55d cebe 8b13 d43d 561b bf3e
000000c0: a959 ae3c cbfb a8be 976e bfbb dbbb 243e
000000d0: 5d7e 663e 79f9 9bbe 2362 ddbe 292b a13d
000000e0: 97be 3dbd 6927 b2bd 917f bfbe 4fb9 2fbd
000000f0: f6e0 bfbe b693 873e c1a5 a23e 7886 903d
00000100: 40f2 93be 17b9 c73d 7037 983e 0e90 79bd
00000110: c0fc 9b3e 9849 42be e367 ce3e 28d2 9abe
00000120: 9c6d c93e 9505 e43e b44e 843e 263c 2f3e
00000130: 6082 21be 18d2 2ebd 5222 a8be 8fe3 d73d
00000140: bdba 70be 1296 de3d de71 4c3e 86eb 27be
00000150: d222 89be 4a84 24be 323e c4bc 161d c63e
00000160: 96cd 1d3e 8e68 00bc 2f57 afbe 62b2 913d
00000170: b189 82be c61a ca3d 0e02 673d c28a ce3e
00000180: ae3e c6bd a9b0 bfbe 9ab6 a63e 7d66 72be
00000190: 0808 a8be e6d1 5abe f6b8 debd f2c5 f33d
000001a0: 907f 963e 69da 99bd 288c c93e d2c6 f3bd
000001b0: 231d 8a3d 365d 983e bc27 c83e 1c41 89be
000001c0: 9f8a a1be 6b79 8d3e 54ec e03e ba01 56bd
000001d0: 466f 88be 2a4a 3b3d 65fa babe b976 173c
000001e0: 3e57 cabe 0e78 d43e 2871 523d 94ac bb3e
000001f0: 3397 243d 7a20 82be 5ffc 09be 9694 da3e

conv2_2.4.bias f4 [16]
-0.25116763 0.16557102 0.30697334 -0.10278402 -0.29283202 0.15702508 -0.31072983 -0.2094603
-0.10701123 0.30897766 -0.16318959 0.33853853 0.3578007 0.13101617 0.031762853 0.2010254
00000000: 0b99 80be 738b 293e 9c2b 9d3e 6e80 d2bd
00000010: 14ee 95be 2fcb 203e fb17 9fbe c37c 56be
00000020: b428 dbbd 5232 9e3e 2c1b 27be ec54 ad3e
00000030: a731 b73e 1a29 063e c419 023d 9ad9 4d3e
