weights/001/cpBest_SSC_PalNet.pth.tar (torch_old, 881824 bytes, 68 tensors)

conv2d_depth.0.weight f4 [6, 1, 3, 3]
-0.023327079 0.15019315 0.16291119 -0.14886889 0.23896928 0.18943796 -0.029632684 0.36228156
0.028335577 -0.006219717 0.048077244 -0.028848553 0.14367153 -0.23398902 -0.15268975 -0.055856355
0.07315263 -0.16834445 0.316632 0.0903209 0.28124386 -0.10557512 0.04456667 0.13700955
0.20264009 0.13974819 0.16324612 -0.16887785 -0.26802617 -0.24433322 -0.22144924 0.10509996
-0.117916375 -0.0896853 0.23834534 -0.2220341 -0.0011272434 0.11374362 0.1833499 -0.06954428
0.0023430751 -0.1824127 -0.24743855 -0.25417146 0.0699405 -0.053885628 0.118195675 0.14571035
0.39064112 0.2109313 0.37549254 0.44749752 0.034839198 0.41352877
00000000: 6e18 bfbc 3ccc 193e 31d2 263e 1671 18be
00000010: 5db4 743e 06fc 413e 3ec0 f2bc f87c b93e
00000020: 0320 e83c c5ce cbbb a5ec 443d cd53 ecbc
00000030: a11e 133e d19a 6fbe b45a 1cbe a2c9 64bd
00000040: 0cd1 953d 7d62 2cbe 971d a23e 2afa b83d
00000050: 32ff 8f3e c537 d8bd 8a8b 363d 3b4c 0c3e
00000060: e280 4f3e 261a 0f3e fe29 273e 51ee 2cbe
00000070: ba3a 89be 7d32 7abe 97c3 62be a63e d73d
00000080: 247e f1bd edac b7bd cd10 743e e85c 63be
00000090: 03c0 93ba 6af2 e83d 14c0 3b3e 3b6d 8ebd
000000a0: 478e 193b 65ca 3abe 8860 7dbe c322 82be
000000b0: f73c 8f3d 2db7 5cbd 9310 f23d 1835 153e
000000c0: 1d02 c83e 60fe 573e 8f40 c03e 651e e53e
000000d0: 8cb3 0e3d 0bba d33e

conv2d_depth.0.bias f4 [6]
0.34402403 -0.030764138 0.01988948 -0.1183774 0.24929664 0.428808
00000000: eb23 b03e 1305 fcbc 43ef a23c da6f f2bd
00000010: 9e47 7f3e b98c db3e

res_depth.0.weight f4 [3, 6, 1, 1]
0.018488912 0.2800923 0.006919393 -0.2651647 -0.28909087 0.0833356 0.10199123 -0.09058918
0.044601854 -0.14783834 0.1718521 -0.08032031 -0.08696378 0.08458131 0.07675498 0.32300234
0.18489486 -0.1314239
00000000: 0f76 973c 4268 8f3e 13bc e23b abc3 87be
00000010: b803 94be dbab aa3d c7e0 d03d d286 b9bd
00000020: 6fb0 363d ef62 17be fff9 2f3e fa7e a4bd
00000030: 111a b2bd f738 ad3d b731 9d3d 9060 a53e
00000040: 1455 3d3e fd93 06be

res_depth.0.bias f4 [3]
-0.18899724 -0.23940283 0.30172908
00000000: 7e88 41be 0426 75be 3c7c 9a3e

res_depth.2.weight f4 [3, 3, 3, 3]
0.14891504 0.09301229 0.067511074 0.12369293 0.13023707 -0.13752109 0.035542395 0.08200266
0.043179408 0.020912683 -0.11059265 0.04419189 -0.014252001 -0.15785043 0.09068975 0.07646243
-0.00734132 0.09942411 -0.05539093 -0.14626639 0.049943544 -0.09465691 -0.09311054 -0.15512061
0.09917375 -0.0011103046 0.1357508 -0.103786424 0.11308425 0.058351357 0.09587936 0.074113324
-0.14048153 0.11757134 -0.15726975 -0.009774736 -0.14473768 -0.005910063 -0.14439419 0.10452349
-0.060949255 0.1371353 -0.00402158 0.008473663 -0.07214309 -0.055567663 -0.050258726 -0.13866706
-0.064471625 -0.10628557 -0.14402026 -0.1394432 -0.01610215 0.094405144 -0.09023777 -0.10166685
-0.15468775 -0.0061550606 -0.0997953 -0.04001392 0.06970711 -0.00821615 0.04281041 -0.15688889
-0.120267145 -0.13971804 -0.06750182 -0.06967874 -0.090619534 -0.0015244888 -0.05901919 0.074663125
-0.02104825 0.15558389 -0.13249227 -0.017647382 0.029097738 0.14380711 -0.14713584 0.07477512
0.042829204
00000000: 2f7d 183e 3a7d be3d 3f43 8a3d b852 fd3d
00000010: de5c 053e 54d2 0cbe e794 113d 03f1 a73d
00000020: e4dc 303d 1351 ab3c 667e e2bd 8e02 353d
00000030: 3a81 69bc 8ba3 21be 8cbb b93d 5698 9c3d
00000040: 758f f0bb de9e cb3d 9ae1 62bd dbc6 15be
00000050: 9a91 4c3d 7bdb c1bd bdb0 bebd f0d7 1ebe
00000060: 9b1b cb3d a487 91ba 4202 0b3e fa8d d4bd
00000070: b798 e73d d501 6f3d 665c c43d bac8 973d
00000080: 64da 0fbe 3ec9 f03d 520b 21be 3726 20bc
00000090: 1d36 14be 34a9 c1bb 12dc 13be 6910 d63d
000000a0: eda5 79bd 326d 0c3e 75c7 83bb 1ed5 0a3c
000000b0: c2bf 93bd eb9a 63bd 18dc 4dbd bdfe 0dbe
000000c0: b309 84bd 40ac d9bd 0c7a 13be 33ca 0ebe
000000d0: a8e8 83bc 7c57 c13d 94ce b8bd b636 d0bd
000000e0: 7766 1ebe 64b0 c9bb 7a61 ccbd a3e5 23bd
000000f0: 9ac2 8e3d 089d 06bc f859 2f3d 7ba7 20be
00000100: 9f4e f6bd 3f12 0fbe 653e 8abd bab3 8ebd
00000110: bc96 b9bd 5bd1 c7ba 1bbe 71bd fbe8 983d
00000120: 616d acbc 6251 1f3e 0eac 07be 3e91 90bc
00000130: 615e ee3c 2c42 133e c7aa 16be b323 993d
00000140: ad6d 2f3d

res_depth.2.bias f4 [3]
0.13922791 -0.15452965 -0.13761477
00000000: c391 0e3e 053d 1ebe e3ea 0cbe

res_depth.4.weight f4 [6, 3, 1, 1]
-0.22884393 -0.14207433 -0.16059695 -0.0989785 0.35543466 0.36297938 0.14887673 -0.18812689
0.17476435 0.3544604 0.114579305 0.470381 0.13927016 -0.39181054 0.04091397 -0.20695806
0.34938905 -0.43323687
00000000: 1056 6abe ef7b 11be 8773 24be 3db5 cabd
00000010: 88fb b53e 6fd8 b93e 2473 183e 56a4 40be
00000020: 6df5 323e d57b b53e 8ea8 ea3d c7d5 f03e
00000030: d69c 0e3e 649b c8be 6895 273d d0ec 53be
00000040: 1fe3 b23e 39d1 ddbe

res_depth.4.bias f4 [6]
0.014819949 -0.14081553 -0.17341006 0.58487433 0.298395 0.49964893
00000000: 5fcf 723c f231 10be 6892 31be 53ba 153f
00000010: 3bc7 983e fcd1 ff3e

pool1.weight f4 [8, 6, 4, 4, 4]
-0.044667024 -0.07048584 0.06684174 -0.043365076 -0.027800178 0.019320486 0.020932171 -0.06817972
-0.005283705 -0.046374075 -0.008356596 0.046186943 0.025311414 0.035894442 0.006690136 -0.004355082
0.013102079 -0.02366828 -0.058067016 0.043875523 -0.06685489 0.040700372 0.018948851 -0.08460859
0.06268707 0.01882316 0.061519574 -0.0044553485 -0.028484214 0.015007983 0.019352859 -0.05496372
0.055820365 -0.040962286 0.06792472 -0.022468083 0.032711115 -0.04611937 0.039462887 0.05771572
-0.05743425 0.071232595 0.08439759 -0.009984729 0.035789665 -0.03119044 -0.028183647 0.020077996
0.022915384 -0.019055067 -0.02053373 0.019505957 0.0123765785 -0.032748245 0.0017420807 -0.0693995
0.0003441946 0.025971983 -0.0105100665 -0.056621306 -0.038780577 -0.015128656 -0.042116318 -0.06821522
0.047326457 0.06365934 -0.014690791 0.037852824 -0.03723926 0.004056035 -0.0522305 -0.030085195
0.024100458 -0.026940562 0.008703965 -0.034434427 0.00062919187 0.015984155 -0.01336137 -0.010086472
-0.022674482 -0.051164404 0.0037896454 0.06316917 -0.045429595 -0.030410292 -0.025180992 -0.030122995
0.04871659 0.0028743804 0.002162025 0.01194844 -0.040792786 0.047194123 0.03517365 -0.061003
-0.0404638 0.027521318 -0.04614945 0.061911974 -0.010728492 0.011792146 0.018647376 0.009405173
0.06216022 -0.05026626 -0.029358106 -0.010196975 -0.046842404 0.007833895 0.04779087 0.048932858
-0.04705826 -0.06417641 -0.050703004 -0.047245376 0.06591734 0.0008761711 -0.023181183 0.051391996
0.027932798 0.02717825 0.0018971534 -0.04038799 0.0033093789 0.053791452 -0.035798445 -0.060621556
0.049460255 -0.07036463 -0.025415186 -0.01647335 -0.023860063 -0.027246865 0.055255912 -0.057729352
-0.02246867 0.011373633 -0.030516572 0.023943445 0.032617986 -0.011832925 -0.06959251 -0.010747161
-0.056165818 0.013559293 -0.014422145 -0.04695727 -0.013854513 -0.056337956 0.01386631 -0.052888513
-0.04144279 0.03496252 0.01920073 0.0444852 -0.015300946 -0.029851368 0.056559958 -0.06633459
-0.029836252 -0.027777012 0.039736386 -0.0089020645 0.03368938 0.055188593 0.03912275 0.042295035
0.036603164 -0.0055454 -0.033536743 0.00621887 0.052251656 -0.012697999 0.08187137 -0.048014756
-0.08324265 -0.07104577 -0.021728395 -0.03661812 -0.062263124 -0.031040348 -0.037255794 -0.1013894
-0.038517848 0.04354432 -0.011644246 -0.025562633 0.025538081 0.016611997 -0.028318653 -0.010183142
-0.02983473 -0.06115606 0.012180865 -0.034814294 0.027208736 -0.06770344 0.045213975 0.010238485
-0.032275207 0.023263961 -0.049064238 -0.028318843 -0.009390913 0.01981776 -0.054836567 -0.058840267
-0.028024912 -0.02451973 0.04664534 0.0065981667 -0.034729183 0.008406214 0.00308536 -0.04649278
0.0339726 -0.029929336 0.067777306 -0.014852687 0.06341067 -0.01663021 0.04685566 0.029874243
0.018597793 0.064667426 0.027718497 0.023261216 -0.014943758 0.06317347 0.025495544 -0.041053448
0.022303188 0.017299203 -0.024747116 0.035627544 -0.042960253 -0.02976826 -0.0027697769 0.052320372
-0.066660725 -0.06956022 0.068342976 0.047950152 -0.04805981 -0.036376253 0.030830957 0.008908228
-0.055415753 0.0093428595 0.057944357 0.013939557 -0.046556484 0.046423785 0.06110581 -0.009680704
00000000: c5f4 36bd e15a 90bd 52e4 883d 949f 31bd
00000010: 33bd e3bc ff45 9e3c f279 ab3c cfa1 8bbd
00000020: ee22 adbb bef2 3dbd 1bea 08bc 852e 3d3d
00000030: e259 cf3c 0d06 133d ee38 db3b 13b5 8ebb
00000040: 1aaa 563c fbe3 c1bc aed7 6dbd d2b6 333d
00000050: 37eb 88bd 6fb5 263d 9f3a 9b3c 4547 adbd
00000060: 1462 803d 0733 9a3c f3fb 7b3d 2cfe 91bb
00000070: ba57 e9bc 0be4 753c e389 9e3c a321 61bd
00000080: e5a3 643d 12c8 27bd 1e1c 8b3d fc0e b8bc
00000090: 17fc 053d aae7 3cbd d6a3 213d 5267 6c3d
000000a0: 2d40 6bbd 65e2 913d a5d8 ac3d fd96 23bc
000000b0: 2f98 123d 1883 ffbc 64e1 e6bc 9c7a a43c
000000c0: 0bb9 bb3c 5f19 9cbc 5a36 a8bc f5ca 9f3c
000000d0: 22c7 4a3c 0623 06bd 8756 e43a 5321 8ebd
000000e0: 0475 b439 32c3 d43c 6a32 2cbc beeb 67bd
000000f0: 62d8 1ebd 2fde 77bc 2982 2cbd 6cb4 8bbd
00000100: 63d9 413d d45f 823d a5b1 70bc 900b 1b3d
00000110: 3288 18bd 7de8 843b a6ef 55bd 3a75 f6bc
00000120: 536e c53c 74b2 dcbc 139b 0e3c 1d0b 0dbd
00000130: 5af0 243a 34f1 823c a6e9 5abc bb41 25bc
00000140: d6bf b9bc c491 51bd b35b 783b d65e 813d
00000150: 6214 3abd 011f f9bc 5e48 cebc 80c4 f6bc
00000160: 0c8b 473d 1a60 3c3b c3b0 0d3b 64c3 433c
00000170: 5616 27bd a04e 413d 3f12 103d 48de 79bd
00000180: 5fbd 25bd 6374 e13c 3507 3dbd 6997 7d3d
00000190: 8fc6 2fbc d833 413c 62c2 983c 2818 1a3c
000001a0: b79b 7e3d fee3 4dbd 6980 f0bc 3711 27bc
000001b0: d2dd 3fbd bd59 003c 5cc0 433d d26d 483d
000001c0: 29c0 40bd ec6e 83bd f4ad 4fbd 5e84 41bd
000001d0: acff 863d d9ae 653a 77e6 bdbc 6a80 523d
000001e0: 53d3 e43c eca4 de3c e8a9 f83a e16d 25bd
000001f0: 2ae2 583b 6d54 5c3d 64a1 12bd 4f4e 78bd
00000200: d696 4a3d 551b 90bd 8233 d0bc 1ef3 86bc
00000210: 2e76 c3bc d134 dfbc 0654 623d 9d75 6cbd
00000220: 3710 b8bc 7958 3a3c e4fd f9bc 0b25 c43c
00000230: 709a 053d e2de 41bc 8586 8ebd dc14 30bc
00000240: 210e 66bd cc27 5e3c dc4a 6cbc 4456 40bd
00000250: 0afe 62bc a1c2 66bd 852f 633c a0a1 58bd
00000260: eabf 29bd dc34 0f3d d94a 9d3c 1d36 363d
00000270: d2b0 7abc db8a f4bc 6aab 673d 6eda 87bd
00000280: 286b f4bc 9e8c e3bc 9fc2 223d f7d9 11bc
00000290: e0fd 093d 6f0d 623d 2d3f 203d 8f3d 2d3d
000002a0: 33ed 153d 30b6 b5bb d35d 09bd aac7 cb3b
000002b0: d505 563d 450b 50bc 2dac a73d 1fab 44bd
000002c0: 1f7b aabd 7280 91bd bfff b1bc e2fc 15bd
000002d0: 9e07 7fbd 5448 febc 8899 18bd 3fa5 cfbd
000002e0: e4c4 1dbd 875b 323d 82c7 3ebc ba68 d1bc
000002f0: 3d35 d13c e215 883c 85fc e7bc 31d7 26bc
00000300: f767 f4bc c77e 7abd 4092 473c 6f99 0ebd
00000310: dbe4 de3c 1aa8 8abd 4a32 393d 52bf 273c
00000320: 0233 04bd 1094 be3c 95f7 48bd ebfc e7bc
00000330: 58dc 19bc db58 a23c 4f9c 60bd 7e02 71bd
00000340: 8094 e5bc 9add c8bc 2f0f 3f3d 6f35 d83b
00000350: 3040 0ebd 38ba 093c c033 4a3b 376f 3ebd
00000360: da26 0b3d 5e2e f5bc d4ce 8a3d af58 73bc
00000370: 74dd 813d 143c 88bc b8eb 3f3d d4ba f43c
00000380: 665a 983c 5b70 843d e711 e33c 4e8e be3c
00000390: aad6 74bc 1861 813d 08dc d03c a927 28bd
000003a0: 2db5 b63c 0fb7 8d3c 77ba cabc 30ee 113d
000003b0: 17f7 2fbd 91dc f3bc 2585 35bb e34d 563d
000003c0: 6b85 88bd 9775 8ebd 67f7 8b3d 6167 443d
000003d0: 5dda 44bd 44ff 14bd 3491 fc3c d1f3 113c
000003e0: a1fb 62bd cb12 193c 1057 6d3d bd62 643c
000003f0: 03b2 3ebd de26 3e3d 164a 7a3d d19b 1ebc

pool1.bias f4 [8]
-0.008967481 0.023298172 -0.1347564 0.07069508 -0.06315793 -0.029421996 -0.27607563 0.05395437
00000000: 57ec 12bc cfdb be3c 95fd 09be 95c8 903d
00000010: f258 81bd 6606 f1bc c959 8dbe 42ff 5c3d

reduction2_1.weight f4 [16, 8, 1, 1, 1]
0.346214 -0.2955332 0.1095803 0.26513797 -0.26585454 0.36608407 0.3520914 -0.27041554
0.20686714 0.26330772 0.10044163 0.11454427 0.044817865 0.2345334 -0.19771631 -0.040700335
-0.21634929 -0.3054888 -0.20770283 0.119620875 -0.105387025 -0.02979306 0.30115837 0.091715336
0.3607946 -0.31764814 -0.11520631 -0.048262984 -0.21406229 -0.16285315 0.3903022 -0.36529136
-0.29112303 0.04016876 -0.37231162 0.099579155 -0.38086253 0.18440516 -0.105143555 0.16433738
0.13041443 0.15482816 -0.17389879 -0.27015036 0.36954555 -0.15530704 -0.3088965 -0.20304081
0.3831818 0.16205697 0.33035532 -0.16810459 -0.19559038 -0.026725497 -0.39860874 0.35691977
0.39289814 -0.4041455 0.13551818 0.27578807 -0.13826153 0.16905566 0.32875517 0.33487597
-0.08280778 0.34551015 0.11795349 0.021817908 0.007684284 -0.2355572 -0.19359453 -0.3546609
0.10962966 0.392689 0.23664472 -0.21893433 0.055570133 -0.44631982 -0.098451115 0.36688915
0.12971045 0.30024782 0.27380538 -0.38693538 0.06314104 -0.09720781 0.036107842 -0.17932072
-0.23731595 0.1899477 -0.010277365 -0.34948403 0.37263638 0.32480592 0.37164015 -0.36628392
0.05562096 -0.34261748 0.1789842 -0.13398974 0.16066436 -0.35335213 -0.2609344 0.19883038
-0.2173688 0.34155455 -0.14183393 0.062007066 -0.24892575 0.17281914 -0.17944613 0.08345288
-0.34419975 0.37212515 -0.33552852 -0.02550297 -0.14454673 0.24791752 0.40673664 0.36609268
0.22011063 0.24083947 -0.061406285 0.09631642 0.1360032 0.13470984 -0.39520386 0.09403154
00000000: f642 b13e 2150 97be a36b e03d 2ac0 873e
00000010: 161e 88be 5f6f bb3e 5345 b43e e873 8abe
00000020: fbd4 533e 45d0 863e 57b4 cd3d 3096 ea3d
00000030: f092 373d 8629 703e 2576 4abe 65b5 26bd
00000040: ab8a 5dbe 0769 9cbe 0db0 54be cafb f43d
00000050: 27d5 d7bd 9310 f4bc 6e31 9a3e 40d5 bb3d
00000060: 12ba b83e c7a2 a2be 49f1 ebbd 68af 45bd
00000070: 2533 5bbe fac2 26be b1d5 c73e 7807 bbbe
00000080: 140e 95be ff87 243d a19f bebe 28f0 cb3d
00000090: 6a00 c3be b5d4 3c3e 8155 d7bd 0f48 283e
000000a0: 5c8b 053e 468b 1e3e 8612 32be 2651 8abe
000000b0: 1335 bd3e cf08 1fbe af27 9ebe eee9 4fbe
000000c0: 6830 c43e 43f2 253e 5524 a93e 9c23 2cbe
000000d0: d848 48be 6eef dabc 7216 ccbe 30be b63e
000000e0: f229 c93e 29ec cebe 47c5 0a3e 1834 8d3e
000000f0: 6e94 0dbe ed1c 2d3e 9952 a83e dd74 ab3e
00000100: 2097 a9bd b5e6 b03e 9991 f13d 78bb b23c
00000110: 72cc fb3b e835 71be a53d 46be 1d96 b5be
00000120: 8485 e03d 880e c93e fe52 723e 5230 60be
00000130: 829d 633d 0884 e4be bda0 c9bd e5d8 bb3e
00000140: d1d2 043e 15ba 993e 3830 8c3e 651c c6be
00000150: 1750 813d e314 c7bd d1e5 133d da9f 37be
00000160: f402 73be a681 423e 6562 28bc 92ef b2be
00000170: 32ca be3e f64c a63e 9e47 be3e 9189 bbbe
00000180: ced2 633d 8f6b afbe a247 373e 9b34 09be
00000190: 3385 243e 92ea b4be 3299 85be 319a 4b3e
000001a0: ed95 5ebe 3de0 ae3e ea3c 11be 1ffb 7d3d
000001b0: 64e6 7ebe 80f7 303e bac0 37be 58e9 aa3d
000001c0: f33a b0be 3087 be3e 65ca abbe 9beb d0bc
000001d0: 0f04 14be 17de 7d3e c93f d03e 8070 bb3e
000001e0: ae64 613e 9f9e 763e 2885 7bbd 8b41 c53d
000001f0: 6c44 0b3e 60f1 093e 2958 cabe 9c93 c03d

conv2_1.0.weight f4 [8, 8, 1, 1, 1]
-0.3154749 0.19856381 -0.45212793 -0.45573536 -0.35872117 -0.2649128 0.15969096 -0.16603689
0.48439333 0.104645126 0.08652786 0.64991677 -0.05880581 0.3924628 0.51921374 0.04500646
-0.18043397 -0.39137614 -0.45577702 -0.28387666 0.08266695 -0.32454336 -0.17956443 -0.14496556
0.05485096 -0.08750844 0.40558118 -0.45696446 -0.121391796 0.033277307 0.46727416 0.08184609
-0.3066583 0.20604533 0.52457863 0.1875609 0.5131552 0.32983896 -0.4683023 -0.4325275
0.19968392 -0.31414333 -0.22508451 -0.36036602 -0.0062768376 0.39495802 0.43780985 -0.31924364
-0.15694489 0.5224582 -0.048696287 -0.054656126 -0.016091967 0.5623948 -0.4118292 0.45885137
-0.105562225 0.43117815 0.3095936 -0.27320153 0.45607206 -0.47113824 0.023593916 -0.08381217
00000000: ed85 a1be 5054 4b3e 507d e7be 2556 e9be
00000010: 4daa b7be a7a2 87be 0786 233e 9305 2abe
00000020: 6702 f83e 2f50 d63d 8535 b13d f260 263f
00000030: 5cde 70bd e2f0 c83e 31eb 043f b258 383d
00000040: afc3 38be 7462 c8be 9b5b e9be 4858 91be
00000050: 4a4d a93d 8c2a a6be bddf 37be da71 14be
00000060: 66ab 603d a037 b3bd 56a8 cf3e 3ff7 e9be
00000070: 439c f8bd c94d 083d 8f3e ef3e ec9e a73d
00000080: 5102 9dbe 8cfd 523e c94a 063f f70f 403e
00000090: 245e 033f a7e0 a83e 52c5 efbe 3f74 ddbe
000000a0: f179 4c3e 65d7 a0be 8e7c 66be e581 b8be
000000b0: eead cdbb f037 ca3e 9d28 e03e e773 a3be
000000c0: 29b6 20be d2bf 053f c275 47bd 1adf 5fbd
000000d0: 4dd3 83bc 1bf9 0f3f 47db d2be 91ee ea3e
000000e0: 0231 d8bd 62c3 dc3e 0d83 9e3e 12e1 8bbe
000000f0: 4782 e93e 0839 f1be 0748 c13c b7a5 abbd

conv2_1.0.bias f4 [8]
0.4422884 -0.2268861 0.2126306 -0.2837853 -0.051376786 -0.07674522 -0.041412596 0.16834041
00000000: a073 e23e d454 68be d6bb 593e 4f4c 91be
00000010: 7770 52bd 992c 9dbd 41a0 29bd 6e61 2c3e

conv2_1.2.weight f4 [8, 8, 3, 3, 3]
-0.06377766 -0.13986534 -0.075149976 0.030588482 -0.012936415 -0.071072 -0.021024851 -0.07012586
-0.06486172 -0.041571215 -0.13385405 -0.011224024 0.012524651 -0.07813561 0.032349844 0.041884672
0.0056526572 -0.020789085 -0.10466287 -0.023794532 -0.023670524 0.013834973 -0.061913937 -0.006319328
-0.052749768 0.040122725 -0.037244365 -0.007885332 0.047907624 0.067772575 -0.11091661 -0.05376678
0.022430392 0.029992957 0.078147955 -0.012063024 -0.05304272 -0.0419882 0.09246385 -0.045140885
0.034498207 -0.055781078 -0.05220152 0.061163317 0.034064066 0.063387655 0.0071510198 0.055054642
-0.10422703 -0.07064354 -0.07503003 -0.04793084 0.039916094 0.03674918 -0.07285983 -0.04253197
0.009474431 0.0023352143 0.07742691 -0.07691168 -0.0912667 -0.04548792 -0.06682415 -0.06090922
-0.08376346 -0.0037506549 -0.080570556 0.028075283 -0.06579933 -0.0466177 -0.09889745 -0.0053119035
-0.061376784 -0.0026436092 -0.10412526 0.02676116 0.069650374 -0.0004889547 -0.0058209472 0.047997773
-0.00096980046 0.06624714 -0.042728625 -0.0030506507 -0.08714019 -0.054037593 -0.08074054 -0.016677925
0.06691426 -0.010476172 0.08541296 0.080190994 -0.08662162 0.07009324 -0.063047476 0.08790914
-0.085113265 -0.037608508 0.0060627745 0.0065300893 -0.06121134 -0.053183105 0.08906706 0.009831365
0.04751849 0.02452455 0.04570951 -0.076435626 0.034252875 0.10333406 -0.08415429 0.032465085
0.09514164 0.005699985 0.06515735 -0.0503047 -0.059293404 -0.040628195 -0.02072619 0.08151559
-0.06458043 0.006816402 0.0693817 0.012282689 -0.044015393 -0.05065823 0.04958536 0.035694707
0.00710821 0.02266861 -0.07274286 -0.03746948 0.057927895 0.027443938 -0.0150367785 0.03530778
-0.014396712 -0.060329482 0.007934442 0.08562499 0.10802653 0.08647985 0.01845694 0.091022216
0.008262809 -0.06554859 -0.008608522 -0.05716549 0.016373912 -0.041532096 -0.014442182 0.016378012
0.019443855 -0.02563121 0.055349503 0.0011070996 -0.06735605 -0.04189158 0.079157434 -0.036119785
0.09710709 0.086116835 -0.11089419 -0.037955303 -0.11869913 -0.014292923 -0.02666287 -0.10862961
-0.019666035 0.003776718 -0.12167854 0.007608622 0.013176222 0.051650614 0.0041735913 -0.005993509
-0.09610314 -0.03812061 -0.0998706 -0.0053531723 0.000107197666 -0.086028636 0.054777253 -0.07695678
0.050082054 -0.12761608 -0.013148318 -0.106484696 0.031138133 0.051911477 -0.035257418 -0.017420558
0.058108587 -0.052293297 -0.05191191 -0.03179515 -0.091151856 0.064365946 0.04490928 -0.051815964
-0.08351935 0.078304194 -0.098018005 0.01415949 -0.023440918 -0.04513161 0.062172472 -0.031772472
0.031678442 -0.025533494 0.035752345 0.06907584 0.005362807 -0.0724873 0.073951945 -0.049032643
-0.030596027 0.07334506 -0.029866375 0.09061377 -0.047558423 -0.0003435663 0.021215448 -0.058618493
-0.038727153 0.047861755 -0.0043972335 0.098511964 -0.030318547 0.083907105 -0.089725584 -0.061651397
0.06988145 -0.09699058 0.0021212082 -0.08695786 0.073008455 0.021196999 0.08788048 -0.03461511
0.060209453 -0.052186385 -0.018283814 -0.078940436 -0.04027667 -0.0048304964 -0.0386264 -0.07314317
0.08993794 0.022110373 -0.06914758 -0.065707386 -0.0508013 -0.07995602 -0.06494904 0.04791819
00000000: dd9d 82bd dc38 0fbe 3be8 99bd b294 fa3c
00000010: 42f3 53bc 328e 91bd 4f3c acbc 269e 8fbd
00000020: 39d6 84bd 9446 2abd 0911 09be f8e4 37bc
00000030: 3234 4d3c 9005 a0bd 4581 043d 438f 2b3d
00000040: ed39 b93b df4d aabc 7d59 d6bd c0ec c2bc
00000050: b0e8 c1bc 15ac 623c 7899 7dbd 5e12 cfbb
00000060: 2410 58bd ba57 243d 8c8d 18bd 7b31 01bc
00000070: c93a 443d 59cc 8a3d 3f28 e3bd 8e3a 5cbd
00000080: f1bf b73c cab3 f53c 090c a03d fda3 45bc
00000090: 5343 59bd d2fb 2bbd b05d bd3d a6e5 38bd
000000a0: fe4d 0d3d b37a 64bd 43d1 55bd 6386 7a3d
000000b0: c386 0b3d 63d1 813d 1a53 ea3b fa80 613d
000000c0: fb74 d5bd 8fad 90bd 58a9 99bd 2153 44bd
000000d0: 0f7f 233d 4f86 163d 8937 95bd 0136 2ebd
000000e0: a53a 1b3c 650a 193b 0092 9e3d df83 9dbd
000000f0: 09ea babd 8b51 3abd 1adb 88bd f27b 79bd
00000100: 2d8c abbd 8ccd 75bb 2d02 a5bd 23fe e53c
00000110: cdc1 86bd 34f2 3ebd bf8a cabd 7a0f aebb
00000120: 3966 7bbd 6740 2dbb a03f d5bd 383a db3c
00000130: dba4 8e3d 322d 00ba a5bd bebb 5099 443d
00000140: 353a 7eba 95ac 873d 3604 2fbd 6ded 47bb
00000150: 8e76 b2bd 8656 5dbd 4c5b a5bd 25a0 88bc
00000160: 580a 893d 40a4 2bbc fdec ae3d 2d3b a43d
00000170: ad66 b1bd 0b8d 8f3d 091f 81bd b509 b43d
00000180: dd4f aebd 610b 1abd 3daa c63b 5cfa d53b
00000190: beb8 7abd 87d6 59bd ca68 b63d bc13 213c
000001a0: c0a2 423d b6e7 c83c e539 3b3d 488a 9cbd
000001b0: be4c 0c3d cfa0 d33d 1659 acbd 1cfa 043d
000001c0: 9fd9 c23d f1c6 ba3b 3771 853d 4d0c 4ebd
000001d0: a4dd 72bd c069 26bd f9c9 a9bc a5f1 a63d
000001e0: bf42 84bd 205c df3b fe17 8e3d 553d 493c
000001f0: 7c49 34bd 017f 4fbd 051a 4b3d 9d34 123d
00000200: fdeb e83b 85b3 b93c 35fa 94bd 9979 19bd
00000210: cd45 6d3d 1cd2 e03c d25c 76bc e49e 103d
00000220: 30e0 6bbc 0c1c 77bd 76ff 013c 285c af3d
00000230: 033d dd3d 591c b13d 0233 973c db69 ba3d
00000240: bc60 073c 573e 86bd c20a 0dbc 5c26 6abd
00000250: 9522 863c 8f1d 2abd e79e 6cbc 2e2b 863c
00000260: b848 9f3c 8bf8 d1bc 29b6 623d 191c 913a
00000270: f8f1 89bd 8196 2bbd 4b1d a23d 57f2 13bd
00000280: 15e0 c63d 065e b03d 7e1c e3bd 0577 1bbd
00000290: 8818 f3bd dd2c 6abc 176c dabc 3379 debd
000002a0: aa1a a1bc d082 773b 9932 f9bd bf51 f93b
000002b0: 15e1 573c 988f 533d 9fc2 883b 3365 c4bb
000002c0: b9d1 c4bd 5b24 1cbd f588 ccbd aa69 afbb
000002d0: 4fcf e038 c82f b0bd 1d5e 603d 849b 9dbd
000002e0: d722 4d3d caad 02be 0b6c 57bc a614 dabd
000002f0: 6615 ff3c 21a1 543d 156a 10bd 8fb5 8ebc
00000300: 4503 6e3d 7f31 56bd 95a1 54bd a23b 02bd
00000310: d3ad babd 4bd2 833d cbf2 373d fa3c 54bd
00000320: 310c abbd f35d a03d aabd c8bd 35fd 673c
00000330: 2b07 c0bc ecdb 38bd 90a8 7e3d da23 02bd
00000340: 41c1 013d 9e2b d1bc 0d71 123d a277 8d3d
00000350: 7cba af3b 3974 94bd 1e74 973d 74d6 48bd
00000360: 85a4 fabc ef35 963d 54aa f4bc b693 b93d
00000370: 9fcc 42bd b020 b4b9 05cc ad3c f219 70bd
00000380: 5da0 1ebd b00a 443d ab16 90bb a4c0 c93d
00000390: 9a5e f8bc 7dd7 ab3d 0cc2 b7bd 2d86 7cbd
000003a0: 011e 8f3d ffa2 c6bd f803 0b3b f616 b2bd
000003b0: 7585 953d 54a5 ad3c aefa b33d 93c8 0dbd
000003c0: 309e 763d 64c1 55bd f0c7 95bc 86ab a1bd
000003d0: 26f9 24bd 2449 9ebb b736 1ebd 16cc 95bd
000003e0: 6231 b83d d020 b53c 3f9d 8dbd 9891 86bd
000003f0: 0615 50bd fbbf a3bd 0104 85bd dd45 443d

conv2_1.2.bias f4 [8]
0.041811954 -0.016513314 0.08419766 0.040800136 0.09283553 0.19042504 -0.0048015895 0.0089237625
00000000: 0343 2b3d ee46 87bc d36f ac3d 0b1e 273d
00000010: 8e20 be3d c8fe 423e a756 9dbb f934 123c

conv2_1.4.weight f4 [16, 8, 1, 1, 1]
0.309101 0.21930331 -0.12023581 -0.16686529 -0.40909398 0.3170926 -0.09776418 0.056347154
0.26650724 -0.12429027 0.42304233 0.21109703 -0.04092612 -0.69434285 0.27138132 0.1401661
0.004447126 0.34713802 -0.04453386 0.18907404 -0.34745106 0.1357308 -0.23062885 -0.105331555
0.065864466 -0.05905058 0.149802 0.086320065 -0.20675664 0.21766159 -0.24219269 -0.21368106
0.22986433 -0.18050148 -0.33877274 0.24755165 -0.17887673 0.1957249 0.065649584 -0.15680486
-0.020834988 -0.35627985 0.17987697 0.11675526 -0.10989483 0.22142863 -0.3343817 0.2509729
0.2868997 0.40708396 0.30887496 0.105986856 -0.28321698 -0.165258 0.06801135 0.020828573
0.023289923 0.25577787 0.097742364 -0.3816467 -0.1326406 -0.23951554 -0.35338706 0.018827707
-0.020974759 -0.20269033 -0.38626128 -0.1356164 -0.35016096 -0.14219686 0.22041315 0.2124868
0.07598374 -0.2897096 -0.3698407 -0.33013043 -0.11653762 0.02766133 -0.13824087 -0.13866307
0.0971703 -0.036453687 0.05098171 -0.055904377 -0.38532564 0.37595776 0.3736806 0.20570928
0.14209296 0.3161438 0.2515126 0.229422 -0.027073285 -0.09711392 -0.33153337 0.0027304643
-0.29663324 0.030016635 -0.3555837 0.3942043 -0.17216897 0.32730147 0.017433435 -0.1293834
0.19037837 -0.022998577 -0.2026649 -0.27252582 -0.11503873 0.2497294 -0.37633976 0.27657166
0.26397005 0.3758019 -0.33865765 0.033072438 0.055086855 -0.52270496 0.1530386 0.37446147
-0.13577977 0.089732654 0.037257176 -0.3376579 -0.20515782 0.20680748 0.32100278 -0.2344817
00000000: 7c42 9e3e 0c91 603e 313e f6bd bcde 2abe
00000010: c474 d1be f659 a23e 9638 c8bd 46cc 663d
00000020: a373 883e e68b febd 0199 d83e d229 583e
00000030: 26a2 27bd 74c0 31bf 7ef2 8a3e b487 0f3e
00000040: 32b9 913b 13bc b13e 2369 36bd a09c 413e
00000050: 1be5 b1be 04fd 0a3e f829 6cbe 12b8 d7bd
00000060: f3e3 863d 05df 71bd b265 193e 93c8 b03d
00000070: 03b8 53be aee2 5e3e 5c01 78be 35cf 5abe
00000080: 8e61 6b3e 61d5 38be 9f73 adbe 2e7e 7d3e
00000090: 762b 37be 1c6c 483e 4a73 863d 7491 20be
000000a0: 23ae aabc 506a b6be ab31 383e 621d ef3d
000000b0: 8a10 e1bd 30be 623e 1434 abbe 857f 803e
000000c0: 84e4 923e 4f6d d03e dc24 9e3e a30f d93d
000000d0: d101 91be 6539 29be 8949 8b3d afa0 aa3c
000000e0: 82ca be3c 51f5 823e 262d c83d 3267 c3be
000000f0: f0d2 07be 9043 75be 26ef b4be 903c 9a3c
00000100: 42d3 abbc 0e8e 4fbe 0ac4 c5be 07df 0abe
00000110: 4c48 b3be 0e9c 11be fcb3 613e 2496 593e
00000120: 5d9d 9b3d d154 94be c35b bdbe db06 a9be
00000130: 47ab eebd 039a e23c 048f 0dbe b1fd 0dbe
00000140: 3901 c73d 7650 15bd 33d2 503d fdfb 64bd
00000150: 6749 c5be 897d c03e 1053 bf3e 74a5 523e
00000160: d180 113e 9add a13e 42c6 803e 9aed 6a3e
00000170: cbc8 ddbc aae3 c6bd bebe a9be 97f1 323b
00000180: 50e0 97be 72e5 f53c 110f b6be 25d5 c93e
00000190: 104d 30be 0f94 a73e 90d0 8e3c 157d 04be
000001a0: 8cf2 423e 8367 bcbc 6387 4fbe 8188 8bbe
000001b0: 6d99 ebbd 10b9 7f3e 9baf c0be cd9a 8d3e
000001c0: 1527 873e 1b69 c03e 8964 adbe f776 073d
000001d0: c1a2 613d fecf 05bf 27b6 1c3e 6ab9 bf3e
000001e0: da09 0bbe c1c5 b73d fb9a 183d 7fe1 acbe
000001f0: e414 52be 57c5 533e 7a5a a43e f91b 70be

conv2_1.4.bias f4 [16]
-0.11118488 0.56040436 -0.20758991 0.22590668 0.14432935 -0.27245364 -0.28766912 0.1482332
0.15453814 -0.039486196 0.104345195 0.19537584 0.11704891 -0.32520097 0.3629498 -0.37840894
00000000: e6b4 e3bd a976 0f3f 7392 54be 1554 673e
00000010: 13cb 133e 0b7f 8bbe 5e49 93be 72ca 173e
00000020: 3f3f 1e3e 47bc 21bd efb2 d53d 9b10 483e
00000030: 57b7 ef3d be80 a6be 8ed4 b93e d1be c1be

pool2.weight f4 [8, 1, 7, 7, 7]
-0.013324213 -0.048394866 0.021551076 -0.02510673 -0.02317929 0.017452525 -0.016725393 0.006933928
0.0041867583 -0.025024388 -0.026808562 -0.030058434 0.013337823 0.020290358 0.022854254 -0.017530683
-0.038928322 -0.034335893 0.02084361 0.003674767 0.017320832 0.0114394305 0.025303582 0.012091334
-0.0017167571 -0.000867701 -0.017289663 -0.040417604 0.02726087 0.008985923 -0.006940791 -0.029754445
-0.03881756 0.012416031 -0.0035406451 -0.03276057 0.03471432 0.02697693 -0.0304887 0.024638254
-0.009445974 0.022617998 -0.031251658 -0.00013311997 -0.022986386 0.039481487 0.02366738 -0.008348725
-0.031324908 0.003055331 0.022673612 -0.024374248 -0.038538642 0.003157421 -0.01172693 -0.018435726
-0.04461106 0.019775689 -0.03437937 0.01629417 -0.03308786 -0.0019690387 0.017059196 -0.020394377
-0.029806197 0.029121824 0.007513838 -0.017177302 -0.036967468 -0.009231554 0.025750337 0.01037128
-0.021107556 0.022349816 -0.02229642 -0.008409414 -0.032130554 -0.002463266 0.018546743 0.03179464
0.026751606 -0.03371842 -0.03364603 0.025359297 -0.016228372 -0.0022036226 0.0036456888 -0.0036719292
0.030145759 -0.02767193 0.030868048 -0.017099803 -0.019310432 0.03583584 -0.01514864 0.013296573
0.0038789394 0.038339913 -0.046997752 0.0052745724 -0.032606915 0.014546653 -0.022358913 -0.017411565
-0.039016053 0.016699681 -0.019063534 -0.03534618 -0.010748462 0.017276512 -0.009162885 -0.031294186
-0.0012071065 0.022861572 0.00701817 0.005028264 -0.03480144 -0.0380091 0.0045340783 0.0012580856
-0.0013804127 -0.033218216 -0.031701546 -0.0026254978 -0.023539566 0.013327518 0.0048239124 -0.002060051
4.844947e-05 0.023951301 0.031150768 -0.00014060133 0.026580099 0.034121677 0.022012345 -0.008151471
0.0085879015 0.0012926275 0.0052819564 -0.026780969 0.00021094392 -0.0068797306 -0.025083287 -5.3242933e-05
0.01739703 -0.020700548 -0.004781129 -0.037392136 -0.031289678 -0.03284771 -0.046295833 -0.030054668
0.013797534 -0.0034383475 0.01854213 -0.019169072 -0.030091636 -0.030477632 -0.023036627 -0.012181614
-0.0054258704 -0.022603849 0.008094192 -0.029638324 0.027990798 0.009083058 0.01473543 0.015372573
0.026789919 0.018342959 -0.002880923 0.022987911 0.028548885 -0.018421452 0.0077039804 -0.016875463
0.022294333 0.033170648 0.0121440105 -0.004947558 -0.00056316814 -0.018443946 0.027736159 -0.013907562
-0.008984379 0.031095712 0.021581138 0.027283333 0.010533686 -0.015606899 0.041617643 -0.0179629
-0.021060362 0.042844635 -0.003521965 -0.0065348386 -0.024782797 -0.03964718 -0.0011352971 -0.004275995
0.018379062 -0.043227628 -0.014917323 -0.002318222 -0.017685672 -0.016329419 -0.03522279 -0.028507391
-0.012358128 0.015931627 -0.03855957 -0.025100145 0.008297952 0.024511695 0.02495877 0.026690837
-0.0061669378 0.012407343 0.013173132 0.0073957914 -0.026422387 0.021883963 -0.023734637 -0.030434053
-0.01872215 -0.028249737 0.002075255 0.002554127 -0.008923901 -0.008387264 -0.00969585 0.002341946
-0.023016863 -0.020276707 0.028820755 -0.014015691 0.009838544 0.03105119 -0.0023124905 0.02449544
-0.017403638 0.01724474 -0.019420719 -0.00943217 0.021912938 -0.031622693 -0.025141738 0.0086744195
-0.037691228 -0.013892656 -0.046389423 0.00800071 -0.020112408 -0.0067331297 0.009307771 0.0016192881
00000000: cd4d 5abc b239 46bd e28b b03c a1ac cdbc
00000010: 7fe2 bdbc 99f8 8e3c b103 89bc 0136 e33b
00000020: 1331 893b f2ff ccbc a19d dbbc 1b3d f6bc
00000030: e286 5a3c f737 a63c d838 bb3c 829c 8fbc
00000040: 4e73 1fbd cba3 0cbd 38c0 aa3c 5cd4 703b
00000050: 6be4 8d3c 736c 3b3c 7549 cf3c bb1a 463c
00000060: cf04 e1ba 6e76 63ba 0da3 8dbc ee8c 25bd
00000070: 3052 df3c b139 133c 936f e3bb 98bf f3bc
00000080: 29ff 1ebd 9c6c 4b3c 2b0a 68bb f32f 06bd
00000090: 9a30 0e3d b9fe dc3c 70c3 f9bc 2ad6 c93c
000000a0: 49c3 1abc 6149 b93c bd01 00bd 1f96 0bb9
000000b0: f24d bcbc 57b7 213d 18e2 c13c 17c9 08bc
000000c0: 8c4e 00bd f33b 483b 03be b93c 81ac c7bc
000000d0: b2da 1dbd bcec 4e3b 4f22 40bc 8506 97bc
000000e0: 16ba 36bd a000 a23c 62d1 0cbd 5a7b 853c
000000f0: 2387 07bd fd0a 01bb babf 8b3c 1c12 a7bc
00000100: 202c f4bc e490 ee3c a436 f63b 6ab7 8cbc
00000110: 336b 17bd f23f 17bc 5ff2 d23c 4dec 293c
00000120: c1e9 acbc f616 b73c fba6 b6bc a4c7 09bc
00000130: 549b 03bd bf6e 21bb 57ef 973c 193b 023d
00000140: 2f26 db3c 531c 0abd 6bd0 09bd 4dbe cf3c
00000150: 5df1 84bc a76a 10bb 82ec 6e3b c0a4 70bb
00000160: 3df4 f63c 3eb0 e2bc fdde fc3c e314 8cbc
00000170: e930 9ebc 9ac8 123d 0032 78bc dfd9 593c
00000180: ce35 7e3b 500a 1d3d b780 40bd 52d6 ac3b
00000190: d48e 05bd 1655 6e3c 0a2a b7bc b3a2 8ebc
000001a0: 4ccf 1fbd c5cd 883c 212b 9cbc 28c7 10bd
000001b0: 511a 30bc 7987 8d3c ed1f 16bc 552e 00bd
000001c0: c637 9eba 3148 bb3c adf8 e53b 23c4 a43b
000001d0: f48b 0ebd 6eaf 1bbd 9b92 943b 59e6 a43a
000001e0: f7ee b4ba d30f 08bd 7bd9 01bd 8b10 2cbb
000001f0: 0cd6 c0bc a95b 5a3c e911 9e3b ec01 07bb
00000200: 3936 4b38 8535 c43c e52f ff3c 626e 13b9
00000210: 82be d93c 2cc3 0b3d 3c53 b43c bf8d 05bc
00000220: 45b4 0c3c 626d a93a 4314 ad3b c363 dbbc
00000230: d430 5d39 5d6f e1bb 777b cdbc 2a51 5fb8
00000240: 3784 8e3c 3294 a9bc 04ab 9cbb 7f28 19bd
00000250: 9b29 00bd 528b 06bd b3a0 3dbd 3535 f6bc
00000260: 0d0f 623c e655 61bb aae5 973c 7508 9dbc
00000270: bc82 f6bc 3aac f9bc 4fb7 bcbc 6495 47bc
00000280: 80cb b1bb b52b b9bc 809d 043c 12cc f2bc
00000290: f54c e53c 1bd1 143c df6c 713c 3fdd 7b3c
000002a0: 8876 db3c f943 963c decd 3cbb 2551 bc3c
000002b0: 5adf e93c 96e8 96bc ac71 fc3b 693e 8abc
000002c0: 9ba2 b63c f2dd 073d acf7 463c 201f a2bb
000002d0: 93a1 13ba c217 97bc f136 e33c 8bdc 63bc
000002e0: 3733 13bc 6fbc fe3c edca b03c 4c81 df3c
000002f0: 7b95 2c3c 14b4 7fbc 4377 2a3d ef26 93bc
00000300: c886 acbc db7d 2f3d c4d0 66bb 3322 d6bb
00000310: 4b05 cbbc 1565 22bd 40ce 94ba a51d 8cbb
00000320: b08f 963c 740f 31bd ca67 74bc 50ed 17bb
00000330: 8be1 90bc 46c5 85bc c645 10bd 5588 e9bc
00000340: bf79 4abc 0b83 823c a4f0 1dbd d29e cdbc
00000350: 22f4 073c c0cc c83c 5676 cc3c bea6 da3c
00000360: 0614 cabb 2b48 4b3c 1fd4 573c 6558 f23b
00000370: c373 d8bc ff45 b33c 246f c2bc d650 f9bc
00000380: 325f 99bc fe6b e7bc 0001 083b 2463 273b
00000390: 8e35 12bc bc6a 09bc 58db 1ebc 557b 193b
000003a0: dc8d bcbc 561b a6bc 8119 ec3c 12a2 65bc
000003b0: d831 213c 115f fe3c 278d 17bb a9aa c83c
000003c0: 1392 8ebc d744 8d3c 3318 9fbc 6389 1abc
000003d0: c382 b33c cc86 01bd 0cf6 cdbc 271f 0e3c
000003e0: 1e62 1abd 069e 63bc d602 3ebd 6915 033c
000003f0: c7c2 a4bc 96a1 dcbb 9f7f 183c 4b3e d43a

pool2.bias f4 [8]
-0.013794194 0.020144684 -0.028339026 -0.00785205 -0.012457118 -0.028185127 -0.010698568 -0.0066567226
00000000: 0b01 62bc 7706 a53c 3f27 e8bc e2a5 00bc
00000010: f118 4cbc 7fe4 e6bc 0c49 2fbc a320 dabb

reduction2_2.weight f4 [16, 8, 1, 1, 1]
-0.39256418 -0.00014487766 0.28893325 0.35838324 0.28575543 -0.1422792 0.20035435 -0.16062173
0.1042965 -0.18697475 -0.4069855 -0.20937394 -0.041943222 0.3514882 0.31082678 0.29771176
-0.2742728 0.38504347 -0.03722812 -0.34249294 -0.23181856 -0.20757085 0.3184987 -0.138012
0.2847571 0.23621652 -0.04486217 0.14566663 0.018568993 -0.3685324 0.031261414 0.15659949
-0.3323824 0.35802823 0.35049567 -0.08031736 -0.08560065 -0.26864612 -0.37429604 -0.093848534
-0.3477511 0.003821864 0.22374943 -0.21414559 -0.3717856 -0.07209235 -0.40921596 0.123515666
0.12136751 0.22603008 -0.07695312 0.4054995 -0.07925307 0.28667116 0.37731004 -0.32354894
-0.34635493 0.24800761 -0.397362 0.13730033 -0.22903566 -0.12841615 -0.2590944 -0.35545346
0.1005614 -0.3427699 -0.0070454576 -0.23412418 -0.05510392 -0.34570467 -0.26462552 -0.24950983
-0.26640168 0.31121185 0.3527218 0.030379904 0.076565206 0.08905012 0.035427906 0.012501132
0.055974487 -0.17161654 0.083481535 0.0030455017 0.10862482 0.27095413 -0.03882204 -0.123185076
-0.0593686 -0.16348764 -0.3589152 -0.24793619 0.06365694 0.35093227 -0.11385288 0.3160944
-0.17241476 -0.38223672 0.084506765 -0.07948401 -0.33481345 0.2641362 0.30667278 -0.16202645
-0.13993688 0.31230396 -0.0687566 -0.23642783 -0.12725584 0.16915843 -0.3895408 0.28557003
-0.26053315 -0.30284518 0.008245799 -0.11166416 0.24627335 -0.25028354 0.21578422 0.2983181
0.36400166 -0.12036986 0.13555649 0.29044098 0.29516512 0.13016668 -0.23299287 -0.35736355
00000000: 2cfe c8be 4dea 17b9 0fef 933e 027e b73e
00000010: 894e 923e a3b1 11be b129 4d3e 067a 24be
00000020: 6799 d53d 4f76 3fbe 6760 d0be 1f66 56be
00000030: a8cc 2bbd 43f6 b33e b024 9f3e ad6d 983e
00000040: 7c6d 8cbe 6b24 c53e 837c 18bd 3c5b afbe
00000050: d861 6dbe 748d 54be 4312 a33e 0553 0dbe
00000060: afcb 913e bee2 713e 65c1 37bd a229 153e
00000070: 001e 983c 47b0 bcbe f80b 003d 9e5b 203e
00000080: 072e aabe 7a4f b73e 2b74 b33e 6e7d a4bd
00000090: 654f afbd fc8b 89be bba3 bfbe a933 c0bd
000000a0: 6f0c b2be 3d78 7a3b 921e 653e fb48 5bbe
000000b0: af5a bebe 27a5 93bd c184 d1be c8f5 fc3d
000000c0: 878f f83d 6e74 673e 9999 9dbd a19d cf3e
000000d0: 6f4f a2bd 90c6 923e c82e c13e 35a8 a5be
000000e0: 6f55 b1be b5f5 7d3e 0873 cbbe 7598 0c3e
000000f0: 5388 6abe 867f 03be 05a8 84be fffd b5be
00000100: 23f3 cd3d 897f afbe 95dd e6bb 40be 6fbe
00000110: a6b4 61bd 3400 b1be ff7c 87be 817f 7fbe
00000120: cd65 88be 2957 9f3e f497 b43e 47df f83c
00000130: 38ce 9c3d e95f b63d da1c 113d 8cd1 4c3c
00000140: 8145 653d 3fbc 2fbe 5ef8 aa3d 0a97 473b
00000150: b176 de3d 80ba 8a3e dc03 1fbd 7548 fcbd
00000160: 7d2c 73bd 4e69 27be bcc3 b7be fce2 7dbe
00000170: 925e 823d 65ad b33e b32b e9bd 20d7 a13e
00000180: 7f8d 30be 88b4 c3be e211 ad3d 83c8 a2bd
00000190: ab6c abbe dc3c 873e 3704 9d3e 43ea 25be
000001a0: 9d4b 0fbe 4ee6 9f3e 43d0 8cbd 231a 72be
000001b0: 5b4f 02be de37 2d3e e471 c7be 3c36 923e
000001c0: 9a64 85be 860e 9bbe 6319 073c 2eb0 e4bd
000001d0: 152f 7c3e 2a25 80be 8af6 5c3e 26bd 983e
000001e0: 6d5e ba3e 7984 f6bd 52cf 0a3e aeb4 943e
000001f0: e21f 973e 6a4a 053e af95 6ebe 5bf8 b6be

conv2_2.0.weight f4 [8, 8, 1, 1, 1]
0.32820657 -0.004710944 -0.47314292 -0.15301102 -0.07711185 0.4398916 -0.12283665 -0.17056084
-0.5013881 -0.27551475 -0.3670527 -0.38213193 0.47647038 -0.4379787 -0.47962046 0.15054539
0.027711205 0.25386187 0.4653948 -0.12023971 0.3000614 0.3545212 0.19296363 -0.074716486
0.30037773 0.31805807 -0.023773167 -0.06894995 0.42208517 0.17698158 -0.15441383 -0.41309175
-0.34324825 -0.23576646 0.285041 0.433846 -0.24893937 0.41553873 0.13389456 -0.41292235
0.11524133 0.23276083 -0.19186667 0.48081583 0.28816772 0.041226413 0.32315361 0.381118
-0.10143291 0.041970793 -0.1505196 -0.1722758 -0.45040485 0.35225454 -0.37254703 -0.4506132
-0.40931872 -0.29623595 0.09477324 0.012756037 0.032993965 0.23622324 0.50305957 -0.00056136533
00000000: b10a a83e 435e 9abb ca3f f2be ecae 1cbe
00000010: d1ec 9dbd 7939 e13e c891 fbbd 80a7 2ebe
00000020: f85a 00bf 4510 8dbe 55ee bbbe cca6 c3be
00000030: edf3 f33e bf3e e0be d090 f5be 9228 1a3e
00000040: 9c02 e33c 2ffa 813e 3a48 ee3e 3d40 f6bd
00000050: a6a1 993e cd83 b53e 4298 453e f504 99bd
00000060: 1ccb 993e 82d8 a23e f2bf c2bc a235 8dbd
00000070: 8c1b d83e a93a 353e a91e 1ebe c380 d3be
00000080: 3cbe afbe c36c 71be e5f0 913e 1021 de3e
00000090: f6e9 7ebe 7ec1 d43e a81b 093e 8f6a d3be
000000a0: a503 ec3d db58 6e3e b278 44be 7e2d f63e
000000b0: b88a 933e 07dd 283d 6474 a53e e621 c33e
000000c0: 0fbc cfbd 91e9 2b3d cf21 1abe 1169 30be
000000d0: 779b e6be b55a b43e 7cbe bebe c6b6 e6be
000000e0: 3992 d1be 3dac 97be 7918 c23d b2fe 503c
000000f0: ae24 073d 81e4 713e 83c8 003f 9728 13ba

conv2_2.0.bias f4 [8]
-0.17390318 0.21324298 0.23078439 0.09403423 -0.22826053 -0.038708963 0.29502028 0.29529515
00000000: ad13 32be 5e5c 5a3e be52 6c3e 0595 c03d
00000010: 21bd 69be 4a8d 1ebd e60c 973e ed30 973e

conv2_2.2.weight f4 [8, 8, 3, 3, 3]
0.089346 -0.050379258 -0.08564209 0.059163965 0.07312272 0.087086394 -0.012702829 0.050706804
0.053442996 -0.068076886 0.04650288 -0.039603528 -0.050499078 0.0009710437 -0.07197464 -0.07378732
-0.07641407 0.011990633 0.033284377 0.05977989 -0.010923891 -0.014801324 0.054621365 0.09178919
-0.054707747 0.03606313 -0.0149443615 0.0024256068 0.029425535 0.08621016 -0.06006482 0.0039571747
0.08123015 -0.06840687 -0.06608107 -0.09606311 0.040076647 0.0797802 -0.062563464 -0.07142122
0.012430042 -0.03541713 0.018974978 0.021630278 -0.00857551 -0.01324317 0.083943844 -0.022260327
-0.034384172 0.04991611 0.018436546 0.08531769 0.06463101 0.011077172 -0.0020900164 0.12033731
-0.0420461 0.029407 -0.063164786 0.050625715 -0.05755775 0.006540379 -0.07363731 0.08728129
0.03601219 0.051044602 -0.02603596 0.09724727 0.10243117 -0.051402524 -0.07995964 -0.026740514
-0.050797712 0.11929116 0.07959748 0.057397716 0.060948085 -0.067451835 0.043940593 -0.034928545
-0.08262146 -0.06366169 0.07116246 0.043763787 -0.05796503 0.0544772 0.030632766 -0.013486213
0.062221907 0.031293925 0.09613622 -0.025167845 0.023885751 -0.08190694 0.09421148 -0.07234936
0.015466603 -0.015031052 0.019322908 0.05249197 0.018737558 0.072451465 -0.07646935 0.044019774
0.04943246 0.0032875158 -0.05192271 0.089777 0.09005914 0.0002884683 0.019152366 0.05363666
-0.04161649 -0.02687261 -0.048119128 -0.020340236 0.051582225 0.024039298 0.07083046 -0.045832682
0.03837314 0.0071148993 -0.027602075 -0.033343703 0.008169841 -0.015808297 0.08278519 0.016140644
-0.024196025 0.07524846 0.050325353 -0.04372976 -0.031739358 0.037720833 0.03496104 -0.013440782
0.055103723 0.009958797 -0.011601221 0.06641461 0.047706366 0.06907976 -0.035733327 0.045679238
0.02472426 -0.07442537 0.08648194 0.040008754 0.08085453 -0.076079234 -0.08574726 -0.06484367
-0.067101434 0.04037794 0.056543518 -0.059009805 0.09708594 0.01664094 0.081454754 -0.08737179
0.037875377 -0.014214389 0.041343514 0.09110838 0.056258637 0.048922967 -0.061250146 0.066470206
0.008588997 0.012689643 0.065547824 0.040042873 0.11031412 0.05842788 0.08334262 -0.07605083
-0.06667748 0.10577297 0.04573016 -0.06977428 0.08794631 0.021446317 0.022881089 -0.04953862
0.01970469 0.06410394 -0.022376014 0.008250314 0.0058641443 -0.024120858 0.13037252 0.030275553
-0.014254928 0.0023081382 -0.0041608247 -0.043070138 0.04119511 -0.0003262808 0.04425924 0.088095315
0.11476969 -0.075945206 -0.06936367 0.10441133 0.038727857 0.08233575 -0.003948861 0.05542983
-0.023898082 0.0095214695 0.024164412 0.08402552 0.04085557 -0.06338803 0.045032483 0.05610207
-0.016217927 0.08511726 -0.047576662 -0.05661384 0.06172365 0.019803146 -0.032585252 0.08366964
-0.03429632 0.014830098 0.05509923 0.037864342 -0.029438198 -0.011287273 0.026076334 0.026831351
-0.074493565 0.00065144675 -0.0906001 -0.054259747 0.03972689 -0.076973274 0.03314291 -0.0030131333
-0.05894974 0.02891312 0.070604116 0.011374899 -0.08657579 -0.09525529 0.03163253 0.082913905
0.0893698 -0.024526881 -0.05366894 -0.023895176 -0.078805976 -0.0006147104 -0.048620235 -0.002094739
00000000: 09fb b63d 7b5a 4ebd 1f65 afbd ea55 723d
00000010: 5dc1 953d 5a5a b23d 871f 50bc f0b1 4f3d
00000020: 0be7 5a3d e56b 8bbd ce79 3e3d 4f37 22bd
00000030: 1fd8 4ebd a48d 7e3a 7167 93bd ce1d 97bd
00000040: fb7e 9cbd 5c74 443c 3355 083d c2db 743d
00000050: 1ffa 32bc 4181 72bc a7ba 5f3d f9fb bb3d
00000060: 3b15 60bd efb6 133d 32d9 74bc eef6 1e3b
00000070: d20d f13c f48e b03d 8706 76bd 30ab 813b
00000080: fe5b a63d e718 8cbd 8355 87bd bcbc c4bd
00000090: 6927 243d cd63 a33d 4621 80bd 4a45 92bd
000000a0: 60a7 4b3c 8d11 11bd 6a71 9b3c fb31 b13c
000000b0: 4c80 0cbc e2f9 58bc c0ea ab3d 4a5b b6bc
000000c0: 6bd6 0cbd d674 4c3d 3d08 973c 0bbb ae3d
000000d0: 435d 843d 077d 353c a8f8 08bb 6873 f63d
000000e0: 8838 2cbd f3e6 f03c 8a5c 81bd e95c 4f3d
000000f0: adc1 6bbd ad50 d63b 28cf 96bd 88c0 b23d
00000100: 8581 133d 2514 513d 5e49 d5bc 9429 c73d
00000110: 6fc7 d13d 748b 52bd e1c1 a3bd ec0e dbbc
00000120: 4311 50bd ec4e f43d 0104 a33d de19 6b3d
00000130: b3a4 793d 3024 8abd 0dfb 333d 3c11 0fbd
00000140: 7135 a9bd 0f61 82bd a0bd 913d a841 333d
00000150: bd6c 6dbd 7c23 5f3d 91f1 fa3c 47f5 5cbc
00000160: 66dc 7e3d 0f2e 003d 11e3 c43d cc2c cebc
00000170: 0dac c33c d3be a7bd f3f1 c03d e72b 94bd
00000180: a367 7d3c cd44 76bc 134b 9e3c d201 573d
00000190: 827f 993c 6f61 943d f69b 9cbd 144e 343d
000001a0: b179 4a3d 5d73 573b e8ac 54bd 01dd b73d
000001b0: ed70 b83d 8f3d 9739 6ce5 9c3c 1db2 5b3d
000001c0: 0d76 2abd f323 dcbc 9018 45bd 91a0 a6bc
000001d0: e247 533d 10ee c43c 8f0f 913d 0dbb 3bbd
000001e0: 272d 1d3d 1a24 e93b bf1d e2bc 6893 08bd
000001f0: ccda 053c 6780 81bc 488b a93d 6239 843c
00000200: be36 c6bc dd1b 9a3d f521 4e3d fa1d 33bd
00000210: 2101 02bd 2981 1a3d 4f33 0f3d ba36 5cbc
00000220: 71b4 613d 392a 233c 0c13 3ebc 6204 883d
00000230: c067 433d b079 8d3d 1c5d 12bd 271a 3b3d
00000240: 888a ca3c 546c 98bd 711d b13d 38e0 233d
00000250: 0f97 a53d 6ecf 9bbd 429c afbd c2cc 84bd
00000260: 7a6c 89bd 5763 253d 2d9a 673d 44b4 71bd
00000270: fed4 c63d 9552 883c c0d1 a63d fbef b2bd
00000280: 3623 1b3d 78e3 68bc d157 293d 0897 ba3d
00000290: 756f 663d 7363 483d 6fe1 7abd 8821 883d
000002a0: ddb8 0c3c 38e8 4f3c f03d 863d ff03 243d
000002b0: 5fec e13d 1352 6f3d 89af aa3d 8ac0 9bbd
000002c0: 348e 88bd 809f d83d 8c4f 3b3d d1e5 8ebd
000002d0: 321d b43d 30b0 af3c 1f71 bb3c 02e9 4abd
000002e0: bb6b a13c ed48 833d e74d b7bc 532c 073c
000002f0: 0228 c03b 1b99 c5bc 6080 053e 7004 f83c
00000300: 808d 69bc 2244 173b 8757 88bb 506a 30bd
00000310: 34bc 283d ab10 abb9 2d49 353d 516b b43d
00000320: 5f0c eb3d 2989 9bbd 8a0e 8ebd 9bd5 d53d
00000330: 1aa1 1e3d a59f a83d 7265 81bb 640a 633d
00000340: e9c5 c3bc f0ff 1b3c 72f4 c53c 9215 ac3d
00000350: 2c58 273d 95d1 81bd fb73 383d 49cb 653d
00000360: 75db 84bc f551 ae3d bfdf 42bd eae3 67bd
00000370: f0d1 7c3d 353a a23c 1d78 05bd fd5a ab3d
00000380: 4c7a 0cbd f0f9 723c bbaf 613d a417 1b3d
00000390: 6028 f1bc 41ee 38bc 099e d53c 6ccd db3c
000003a0: 1590 98bd dac5 2a3a 8c8c b9bd 783f 5ebd
000003b0: aab8 223d 2aa4 9dbd dcc0 073d fd77 45bb
000003c0: 4875 71bd 35db ec3c e498 903d c95d 3a3c
000003d0: a64e b1bd 3515 c3bd 1d91 013d c4ce a93d
000003e0: 8407 b73d 99ec c8bc f6d3 5bbd d1bf c3bc
000003f0: 0765 a1bd 8424 21ba 0326 47bd e347 09bb

conv2_2.2.bias f4 [8]
0.013730821 -0.007790348 -0.024942154 7.0346556e-05 -0.043808416 0.019311447 -0.029161604 -0.005494084
00000000: 3df7 603c 2d46 ffbb 7d53 ccbc 0587 9338
00000010: 7470 33bd 0a33 9e3c 51e4 eebc b807 b4bb

conv2_2.4.weight f4 [16, 8, 1, 1, 1]
0.14835022 0.13575676 0.061209146 -0.1872258 0.19459452 -0.040670447 -0.16026005 -0.0052949362
-0.06288547 0.06839513 0.22641492 0.15017094 -0.34182435 0.043475743 -0.18994024 -0.061989155
0.18891105 -0.04380661 0.28649312 0.16301915 0.31238016 0.0545612 0.109588504 0.14349994
0.27987972 -0.053766564 0.3623 0.25969654 -0.074007146 -0.027347872 0.3173416 0.08815212
0.0074977605 0.09115561 0.3131305 -0.033106316 0.38405693 0.1040985 0.1903912 0.2196314
0.43727595 -0.40012884 -0.08880786 -0.29830632 0.22594935 -0.24407932 -0.33381474 0.08088133
-0.31120506 -0.0799728 0.36730316 0.10261169 0.24540415 -0.24608934 -0.1831195 0.13336493
-0.13034755 0.2893491 0.2656222 -0.33415052 0.39213768 -0.00050481927 -0.4053768 0.37199646
-0.2778129 0.07604619 0.08848081 -0.40088013 0.11917344 -0.37649512 0.05536642 0.1865298
0.18213435 0.07586048 -0.22974212 -0.26881802 0.028921213 -0.25927365 -0.33440894 0.021998223
0.11494997 -0.18147516 -0.3087372 -0.14669985 0.20770365 -0.28639573 0.181218 0.3541796
0.39439178 -0.07792244 0.2962382 -0.16638696 -0.23667341 -0.21759592 0.01191227 -0.38877958
-0.3364379 -0.29372716 0.10958608 -0.22135085 0.09114958 -0.18912144 -0.11275237 0.39468423
-0.20779511 0.057652906 -0.38461357 0.10473455 0.03712327 0.14174189 0.05937684 0.18341705
0.28388494 0.0755634 0.37398162 -0.04173614 -0.29502627 0.20993496 0.025140477 -0.39832944
-0.3817914 -0.07198044 -0.06019063 0.1820118 0.057129677 0.1001684 -0.07215302 -0.08052762
00000000: 1fe9 173e d203 0b3e 71b6 7a3d 1fb8 3fbe
00000010: c943 473e 0e96 26bd 361b 24be 2581 adbb
00000020: 19ca 80bd bf12 8c3d 50d9 673e 69c6 193e
00000030: 9a03 afbe 9f13 323d b27f 42be 57e8 7dbd
00000040: e671 413e 8f6e 33bd 3aaf 923e 7eee 263e
00000050: 4bf0 9f3e 917b 5f3d f06f e03d a6f1 123e
00000060: 654c 8f3e 543a 5cbd 637f b93e f2f6 843e
00000070: 0f91 97bd a508 e0bc 997a a23e 1989 b43d
00000080: c6af f53b cbaf ba3d a452 a03e 7d9a 07bd
00000090: 1ca3 c43e 9831 d53d e9f5 423e 0ee7 603e
000000a0: a2e2 df3e b0dd ccbe e5e0 b5bd 9bbb 98be
000000b0: 445f 673e eeef 79be c4e9 aabe 1ca5 a53d
000000c0: 4556 9fbe c8c8 a3bd 290f bc3e 1426 d23d
000000d0: 3a4b 7b3e d8fe 7bbe ae83 3bbe d190 083e
000000e0: d479 05be 9125 943e a2ff 873e c715 abbe
000000f0: 45c6 c83e d955 04ba 8c8d cfbe 5276 be3e
00000100: 7e3d 8ebe 1bbe 9b3d 6d35 b53d 2940 cdbe
00000110: 3411 f43d f8c3 c0be e6c7 623d ab01 3f3e
00000120: 6d81 3a3e bd5c 9b3d 8541 6bbe 84a2 89be
00000130: 2eec ec3c 84bf 84be a637 abbe 9e35 b43c
00000140: e46a eb3d a0d4 39be cd12 9ebe 7c38 16be
00000150: 44b0 543e 76a2 92be 3691 393e 0757 b53e
00000160: b8ed c93e cd95 9fbd 89ac 973e 5861 2abe
00000170: 845a 72be 77d1 5ebe af2b 433c 1e0e c7be
00000180: 9741 acbe 6863 96be ab6e e03d cca9 62be
00000190: a2ac ba3d 0da9 41be b7ea e6bd 0d14 ca3e
000001a0: 3ec8 54be 7425 6c3d 12ec c4be 117f d63d
000001b0: 920e 183d c924 113e 2135 733d aed1 3b3e
000001c0: 5e59 913e fcc0 9a3d 857a bf3e 84f3 2abd
000001d0: af0d 97be 31f9 563e 67f3 cd3c d6f1 cbbe
000001e0: 2a7a c3be 7b6a 93bd 738a 76bd 4d61 3a3e
000001f0: cf00 6a3d 1725 cd3d f6c4 93bd aaeb a4bd

conv2_2.4.bias f4 [16]
-0.024299439 0.22964792 -0.01811368 -0.17025009 -0.050069727 0.14101563 -0.055427108 -0.25347045
-0.27954677 -0.13648862 0.0011780832 -0.24948233 -0.15306892 0.124743044 -0.18506339 -0.24917974
00000000: 9e0f c7bc d328 6b3e 2463 94bc 0a56 2ebe
00000010: ea15 4dbd 6766 103e 8907 63bd e1c6 81be
00000020: c120 8fbe acc3 0bbe ea69 9a3a 4c78 7fbe
00000030: 19be 1cbe 4879 ff3d 4281 3dbe f928 7fbe
