weights/007/cpBest_SSC_PALNet.pth.tar (torch_old, 935361 bytes, 68 tensors)

conv2d_depth.0.weight f4 [6, 1, 3, 3]
000000 a6 a2 6c bd 16 8e 0d 3e 24 33 14 3e 5e 37 46 be
       -0.0577723 0.13823733 0.14472634 -0.19357058
000010 0e 1e 7b 3e d3 1c 39 3e 11 d9 87 bd c7 95 bb 3e
       0.24523184 0.18077402 -0.06633199 0.3663771
000020 f1 bf f4 ba 48 58 de bb bc b3 57 3d fb 37 01 bd
       -0.0018672926 -0.0067854263 0.052661642 -0.031547528
000030 c7 04 21 3e 0d 1a 83 be 9d 18 2b be 42 39 7a bd
       0.15724479 -0.25605813 -0.16708608 -0.06108976
000040 80 ff a3 3d d7 9f 3c be 81 81 8f 3e d3 be 14 3d
       0.08007717 -0.18420349 0.2802849 0.036314797
000050 9c 83 80 3e c6 3d 36 be a7 13 25 bc a1 6d ce 3d
       0.2510041 -0.17797002 -0.010075486 0.10079504
000060 e9 59 29 3e dd 7a c5 3d 1d b8 07 3e 79 3e 3d be
       0.16538204 0.09642575 0.13253827 -0.18480863
000070 fe 23 96 be 93 e3 88 be 1c 79 7b be c5 d7 e4 3d
       -0.29324335 -0.26736125 -0.24557918 0.11173967
000080 20 0c 04 be fb 14 c9 bd 82 17 84 3e 6a 72 78 be
       -0.1289525 -0.09818455 0.25799185 -0.24262396
000090 ac 75 ea b8 46 85 03 3e 1d 29 51 3e 50 73 99 bd
       -0.000111799076 0.12843809 0.2042584 -0.07492697
0000a0 65 97 02 3c f7 cd 48 be a9 20 8b be 1f 61 8e be
       0.007970666 -0.1960982 -0.27173355 -0.27808473
0000b0 cd 2c a1 3d c5 3d 65 be 51 ff e7 bc 6a db a9 ba
       0.07869873 -0.22386844 -0.028319987 -0.0012959067
0000c0 05 77 8b 3e d6 4c bf 3d 03 6b 8b 3e 50 1f b0 3e
       0.27239242 0.09340827 0.2723008 0.3439889
0000d0 7e 47 d7 bd 15 47 a4 3e
       -0.10511683 0.3208548

conv2d_depth.0.bias f4 [6]
000000 59 23 be 3e 6e db 09 bd fb b1 3a bd d3 43 05 be
       0.37136343 -0.03365653 -0.04557989 -0.13014154
000010 d2 a7 8a 3e e6 3d bd 3e
       0.27081162 0.36961287

res_depth.0.weight f4 [3, 6, 1, 1]
000000 09 a8 0d 3d 7c ed 9c 3e 43 10 d6 3c e4 8e 94 be
       0.03458408 0.30649936 0.026130801 -0.29015267
000010 5c f4 a1 be d5 a5 f7 3d ed 60 e5 3d 96 03 cb bd
       -0.31631744 0.12092177 0.11200128 -0.09912793
000020 22 ff 48 3d 2e a8 25 be e9 91 40 3e 80 8b b3 bd
       0.04907144 -0.16177437 0.1880566 -0.08766842
000030 c3 ff bb bd 4a 8c bd 3d 95 55 b2 3d 6b f9 b4 3e
       -0.09179642 0.09255274 0.0870773 0.3534654
000040 ff 35 4f 3e 25 35 11 be
       0.20235442 -0.1418043

res_depth.0.bias f4 [3]
000000 df d2 4b be c1 12 86 be 66 b6 a9 3e
       -0.1990466 -0.26186183 0.3314697

res_depth.2.weight f4 [3, 3, 3, 3]
000000 6b a3 2a 3e d2 0b d8 3d b0 77 9e 3d 07 3a 0e 3e
       0.16663902 0.105491295 0.07737672 0.13889323
000010 fd 93 15 3e 35 ba 16 be 7c 8d 2c 3d 51 5e be 3d
       0.14607234 -0.1471947 0.042127118 0.09295333
000020 88 88 4d 3d 86 78 bb 3c 71 e6 f7 bd 10 14 46 3d
       0.050179034 0.022884618 -0.121045 0.048358977
000030 4d 24 80 bc 3c f3 30 be dd 34 cb 3d fa 49 ab 3d
       -0.01564231 -0.17280287 0.09922192 0.08363719
000040 ab 6f 04 bc 5a bc de 3d f1 aa 78 bd a5 25 24 be
       -0.008083264 0.10875769 -0.060709897 -0.16029985
000050 73 72 5f 3d d9 c5 d4 bd 0d 51 d1 bd 3d 00 2e be
       0.054552507 -0.10389299 -0.10220537 -0.16992278
000060 b4 c2 dd 3d 43 1b c1 ba d6 11 18 3e 54 a3 e8 bd
       0.10828152 -0.0014732856 0.14850554 -0.11359277
000070 2c 5d fd 3d 84 b9 82 3d 1d d6 d6 3d ac 0a a6 3d
       0.12371287 0.063830405 0.104900576 0.08107504
000080 c0 68 1d be 3c bb 03 3e 0e 3b 30 be 4f 4a 2f bc
       -0.1537199 0.12864393 -0.17210028 -0.010698869
000090 fc 2f 22 be 0d e9 d3 bb 54 ce 21 be 68 3f ea 3d
       -0.15838617 -0.006466991 -0.15801364 0.11437875
0000a0 f0 96 88 bd 36 a9 19 3e 20 37 90 bb f5 ee 17 3c
       -0.06669414 0.15005955 -0.0044011027 0.00927328
0000b0 f0 b3 a1 bd e9 0f 79 bd 69 45 61 bd ba 62 1b be
       -0.078956485 -0.06080619 -0.054997835 -0.1517438
0000c0 cf 7b 90 bd d2 31 ee bd 69 62 21 be 8b 40 1c be
       -0.070548646 -0.11630596 -0.15760197 -0.15258996
0000d0 f0 68 90 bc 90 85 d3 3d 70 3a ca bd cc d7 e3 bd
       -0.017628163 0.103282094 -0.09874427 -0.11125144
0000e0 c5 55 2d be b1 b7 dc bb ac a5 df bd ea 59 33 bd
       -0.1692725 -0.006735765 -0.10920271 -0.04378692
0000f0 32 38 9c 3d 8f 4f 13 bc d2 e2 3f 3d d0 cb 2f be
       0.07627906 -0.008991136 0.046847172 -0.17167592
000100 0b c5 06 be eb 8e 1c be 58 45 97 bd 90 28 9c bd
       -0.13161103 -0.15288894 -0.07386273 -0.07624924
000110 c2 14 cb bd 51 a7 da ba dd 43 84 bd d9 53 a7 3d
       -0.099160686 -0.0016681944 -0.064582564 0.081702895
000120 e5 af bc bc 0f 57 2e 3e 6e 75 14 be b2 32 9e bc
       -0.023033092 0.17025398 -0.14497921 -0.019311283
000130 3c 6b 02 3d 9c 24 21 3e b2 e0 24 be ee 94 a7 3d
       0.031840548 0.15736622 -0.1610134 0.08182703
000140 da f8 3f 3d
       0.046868183

res_depth.2.bias f4 [3]
000000 0b f7 28 3e 74 32 2d be 26 32 1a be
       0.1650049 -0.16913778 -0.15058193

res_depth.4.weight f4 [6, 3, 1, 1]
000000 94 10 85 be fc 34 1f be 03 f6 33 be 17 d1 dd bd
       -0.2598921 -0.15547556 -0.17574315 -0.10830896
000010 54 23 c7 3e 43 5d cb 3e 6c cb 1c 3e d8 ce 52 be
       0.3889414 0.3971959 0.15311974 -0.20586717
000020 b7 d4 43 3e 25 81 c2 3e 2b 65 00 3e 80 c6 03 3f
       0.19124113 0.37989154 0.12538593 0.5147476
000030 e4 79 18 3e f8 85 db be bd 62 37 3d 38 8e 82 be
       0.14890248 -0.42875648 0.0447719 -0.2549913
000040 20 bf c3 3e e7 b9 f2 be
       0.38231754 -0.47407457

res_depth.4.bias f4 [6]
000000 20 ae 34 3c eb c8 1d be eb c1 83 be da c4 23 3f
       0.011027843 -0.15408675 -0.25733885 0.63972247
000010 91 95 a7 3e 4a f6 e4 3e
       0.32731298 0.44719154

pool1.weight f4 [8, 6, 7, 7, 7]
000000 78 d1 58 bc a3 ad d7 ba 2e 34 64 3b 0c 25 94 bc
       -0.013233535 -0.0016454946 0.003482114 -0.018084072
000010 19 16 c0 bc dd 9e bb bc 03 ea ba 3c 6e 56 5d 3c
       -0.023448037 -0.0229029 0.022816664 0.013509376
000020 08 45 dd 3a 06 36 db bc 45 94 df bc 99 1b bc bc
       0.0016881535 -0.026759159 -0.02729238 -0.022962378
000030 1d 89 5c 3b c3 ff e2 3c be 3a 3b bc 6f 1e 4c 3c
       0.0033651062 0.027709847 -0.011427579 0.012458428
000040 bc 73 96 3c 42 21 ca 3c 82 51 ae 3a 75 44 0c 3d
       0.018365733 0.024674062 0.0013299438 0.034244973
000050 bc d4 a1 bc ab 85 f1 bc b7 fe e4 3c 6f c2 cb 3b
       -0.01975476 -0.029482683 0.027953489 0.0062182466
000060 21 08 4c bc 46 83 58 3c 6e 60 73 3b fb 65 85 bc
       -0.01245311 0.013214892 0.0037136334 -0.01628398
000070 60 a2 cf 3c ed d6 6b 3c 1f 8d cf bc dd 99 ed bc
       0.025345981 0.014394504 -0.025335846 -0.029004032
000080 d3 b4 39 bc 6e 8d 2a bc 8b 99 40 bb 1c 01 b0 3c
       -0.011334616 -0.010409696 -0.0029388394 0.021484904
000090 ed f1 9b bc 8c cd 81 3c 2d 10 a8 3c 26 cb 00 3c
       -0.019036258 0.015845083 0.020515526 0.007860934
0000a0 74 02 9b 3b 1b 98 be bc 9d d1 cb 3c 7a b3 06 bc
       0.004730517 -0.023265889 0.024880225 -0.0082215015
0000b0 ba a2 b2 3c de 73 ec 3c 17 9b 43 3b b3 0d 13 3d
       0.02180611 0.028863844 0.002984708 0.035901736
0000c0 67 eb 3c bb 01 50 61 3c 71 ac 91 3c be 8c 59 3c
       -0.0028826834 0.013751985 0.017782422 0.013278184
0000d0 ae 17 a4 bc 18 2d 8d 3c ba 56 a4 bc 81 aa 75 bc
       -0.020030823 0.017233416 -0.020060886 -0.014994265
0000e0 ed 36 28 3c 57 8e 9c 3c 39 d1 d2 3c f5 f9 c5 bb
       0.010267002 0.019110842 0.02573453 -0.00604176
0000f0 36 7a c5 bc 3e d7 36 3c 47 77 df 3c a5 cf 51 3c
       -0.024106126 0.011159716 0.027278556 0.012805854
000100 de 28 11 bc 98 bc c8 bb dd ec 55 3b bd a6 04 3c
       -0.008859841 -0.0061259978 0.0032642402 0.008096394
000110 2c ac 0d 3d d0 19 96 3c 7c c6 8f 3c a6 57 4f bb
       0.034588024 0.018322855 0.0175507 -0.0031637936
000120 3c 55 03 bb 33 8b c2 bb 8c ea 4a 3c 9d 56 0c bb
       -0.0020039817 -0.005937004 0.012385022 -0.002141393
000130 94 50 f1 3c cd 27 59 bc 74 20 90 3b 3c 8d 09 3c
       0.029457368 -0.013254118 0.0043984 0.008395489
000140 2b f4 ff 3c 3d d1 fc 3a b1 a9 4c bb 8e 32 76 3a
       0.031244358 0.0019288432 -0.0031229074 0.00093916885
000150 4a 64 38 bb 9e b7 02 bc 5a c8 cc 3c 88 60 92 3a
       -0.0028135949 -0.007978348 0.024997879 0.0011167685
000160 54 03 f6 3c b7 5e cd 3c 5e d3 85 bb c4 5a d6 3b
       0.030030884 0.025069578 -0.004084035 0.006541582
000170 d1 60 76 bb 84 da 01 3d 7f dd 0b 3d c9 a9 d1 3c
       -0.0037594328 0.031702533 0.034146782 0.025593655
000180 d3 ff 07 3d 4f d9 a0 bc 10 ae 33 bc 3c b5 c2 3c
       0.033202957 -0.01963487 -0.010966793 0.02376806
000190 5f 32 f9 38 62 f6 0a bd 3b f8 9a 3c 17 3d 92 bb
       0.000118826276 -0.033926375 0.018917194 -0.004462849
0001a0 33 0d 97 3c 91 b8 5e 3c 81 2d ab 3c 30 f0 19 bd
       0.018438911 0.013593809 0.020895721 -0.037582576
0001b0 e9 48 58 3b b1 cf 11 3c ae 20 c8 bc 17 9e 98 bc
       0.0033002442 0.008899615 -0.024429645 -0.01863007
0001c0 a4 f4 e5 bc 9b c6 d3 bc c8 2d fa bc e1 b4 01 bd
       -0.028070755 -0.025851538 -0.030539408 -0.03166664
0001d0 ab d7 c2 3c e5 4e a9 bc 77 87 e2 3c 21 3e b5 3b
       0.02378448 -0.020667503 0.027652485 0.005531088
0001e0 c9 80 cd bc 45 6e 68 3c c2 33 9f bc d8 85 e2 3c
       -0.025085824 0.014186447 -0.01943386 0.027651712
0001f0 4b 3e a5 3c ce 7e 2b bc 18 9d 55 bc 2a 5d 58 bc
       0.020171305 -0.010467244 -0.013037942 -0.013205806
000200 10 1f ed bc 86 f3 b6 3c 34 15 80 bc 83 80 00 3d
       -0.028945476 0.022332918 -0.01563511 0.03137256
000210 60 04 4b 3a 36 85 9b bc c1 c7 87 3c 75 58 b2 b9
       0.00077444874 -0.018984418 0.016574742 -0.0003401671
000220 c2 7e 34 bc f1 6b 02 bd 51 dd 7c ba 1a 2e b4 3c
       -0.01101655 -0.031841222 -0.0009646016 0.02199464
000230 e9 4c 0e bc 0d b6 14 3d 2b 0f f5 3c 09 91 ca 3c
       -0.008685329 0.03630643 0.02991446 0.024727361
000240 5e 0d dc 3c 8f a4 e9 3c f6 a4 88 3c 33 92 7c 3c
       0.026861843 0.02852085 0.016680222 0.015415716
000250 32 ad ce bc 27 8c 8b bc 74 bb 31 3c 29 38 38 bc
       -0.02522907 -0.017034603 0.010847915 -0.011243858
000260 1a 10 b9 bc 2f 66 cb 3c f0 d9 d0 bb d2 31 fc bc
       -0.022590686 0.024828998 -0.0063736364 -0.030785475
000270 e3 03 17 bd 1e a3 cc bc df 50 39 3c b2 a3 51 3c
       -0.03686894 -0.024980124 0.011310785 0.012795376
000280 f6 37 82 3c 66 d7 c3 3c 21 1c d4 3c 16 c5 5b 3c
       0.015895825 0.02390642 0.02589232 0.013413688
000290 93 57 00 bd a1 e0 ad bc 55 40 8f 3b 5e a9 e9 bc
       -0.031333517 -0.021225275 0.0043716826 -0.028523143
0002a0 d1 c8 aa bc 06 32 fe 3c 9f 39 36 bc 6b 8c e1 3c
       -0.02084771 0.031029712 -0.011122136 0.027532777
0002b0 40 70 b0 bb ba 8c 14 ba 38 b6 b6 3c e1 0d 6f bc
       -0.005384475 -0.0005666722 0.022303686 -0.014590711
0002c0 cf af e8 bc 21 50 03 bd 98 e7 c9 3b 38 f6 03 bb
       -0.028404145 -0.03205884 0.0061616413 -0.0020135771
0002d0 b1 d1 bd 3b 88 f8 d4 bc 2f 0b af 3c a2 d2 cd 3c
       0.0057928194 -0.025997415 0.021367637 0.025124852
0002e0 95 9e d5 bb f8 1c 7b 3b 6f a2 b0 bb 64 d3 fe 3b
       -0.0065191486 0.0038316827 -0.0053904573 0.0077766646
0002f0 e4 9b 62 bc f2 3a 96 bc 33 11 e5 3b 0f 35 e6 bc
       -0.0138311125 -0.018338654 0.0069905757 -0.028101472
000300 cd 73 46 3c 6f fa c5 3c ca 4c e9 bb ba e3 0a bc
       0.01211257 0.024167268 -0.0071197497 -0.008477146
000310 fe 4b e5 3c a1 03 c7 3c 09 ef 0c bd 9e ca 06 bc
       0.027990337 0.024293723 -0.03440765 -0.008227019
000320 f4 2c 37 bb b6 2b ad 3b 73 d0 8c 3c 45 6d ff bc
       -0.0027950378 0.0052847518 0.01718924 -0.031180033
000330 63 40 59 bc 80 8d 02 bd 00 e5 07 3c 9c b1 9e 3c
       -0.01325998 -0.031873226 0.008294344 0.0193718
000340 65 6d db 3c 6c f2 9d bb 5b 17 4c 3c 26 16 43 b8
       0.026785562 -0.0048201587 0.01245674 -4.651225e-05
000350 c1 a8 a3 3c ba e0 35 3c 1c ec 64 bc b5 06 09 3c
       0.01997793 0.011100942 -0.0139723085 0.0083634155
000360 e2 c8 ee bc f5 61 8d 3c c5 88 f4 3c 13 9c b4 bb
       -0.029148523 0.017258624 0.029850373 -0.0055117696
000370 84 86 42 bc b9 4b e0 bc 1a 10 bc bc 60 00 ae 3c
       -0.011872891 -0.027379857 -0.022956897 0.021240413
000380 d6 1d c1 3c 6b 28 c6 bc ef fc 6b 3c 59 fe 7c 3c
       0.023573797 -0.024189195 0.014403566 0.015441501
000390 26 ef c9 3c b0 8b 1f bc 44 9f f6 bb b5 83 ae 3c
       0.024650168 -0.009737894 -0.00752631 0.021303037
0003a0 c2 f0 90 ba 6a 5e ae bb 00 ae e7 bc ba ab ba bc
       -0.001105808 -0.0053213136 -0.028281212 -0.022786964
0003b0 d2 41 57 ba 89 7b ac 3c 5a cd e4 bc ab cc 89 bb
       -0.0008211407 0.021055 -0.02792995 -0.0042053065
0003c0 b0 88 98 bb 7a 76 5e 3b 8e 06 e1 bc 48 27 94 3c
       -0.0046549663 0.003394513 -0.027468946 0.018085137
0003d0 9a d6 f2 bb 28 73 d4 3c f6 07 0b 3c a4 a4 68 bc
       -0.0074108364 0.025933817 0.008485785 -0.01419941
0003e0 2a c7 a3 3c 7f 7e 2c bc aa a0 7d 3b 5d 29 cd bc
       0.01999243 -0.010528206 0.00387005 -0.025044138
0003f0 b7 74 8d 3b 6a dd f4 bb 35 75 8c bc ac be 81 3b
       0.004316892 -0.0074726837 -0.017145732 0.0039594974

pool1.bias f4 [8]
000000 27 da 23 ba 63 6a fa 3c 41 92 df bb 2d 59 88 bd
       -0.0006250464 0.030568307 -0.0068228547 -0.06657634
000010 ac 9c e1 3d 3e c7 fd bc cc 29 ad bc 6c 28 58 3e
       0.11016211 -0.030978795 -0.021138094 0.2110917

reduction2_1.weight f4 [16, 8, 1, 1, 1]
000000 61 0d 6f be b4 a4 06 bd 5b d6 1b 3e 04 af 32 3e
       -0.23344947 -0.032871917 0.15218489 0.17449576
000010 e1 7b 1a be 71 b4 3d be e7 31 50 3e dd 91 65 be
       -0.15086319 -0.18525864 0.20331536 -0.22418924
000020 9b 42 f4 bd e4 fc 57 be f3 41 8c be 75 66 45 3e
       -0.119267665 -0.21092564 -0.27394065 0.19277366
000030 04 1f 00 3f 1e 98 86 3c b8 29 13 3e ba aa ec be
       0.50047326 0.016429957 0.14371383 -0.46224004
000040 f1 d8 df be 67 7e d5 be 00 d8 cd be 95 6d 97 3e
       -0.437202 -0.41698 -0.40203857 0.29575792
000050 2b 6d 15 be 29 b5 d3 be a6 62 10 3e 33 5f 6e be
       -0.14592426 -0.41349152 0.14100131 -0.23278503
000060 8e 7b 14 be b2 18 e2 3e e4 b8 ca 3d 98 c9 2d be
       -0.14500257 0.44159466 0.09898546 -0.16971433
000070 d4 35 a9 be 6b cd 7e 3e b0 32 e5 3e 17 6a 8f 3e
       -0.3304888 0.24883048 0.44765234 0.28010628
000080 ab 3d 44 bc c6 91 9c be e9 8b 68 3e 60 e8 7e bd
       -0.011977593 -0.30579966 0.22709621 -0.06223333
000090 ef a3 17 be a1 15 41 3e be 25 df 3e 8a 61 b3 bd
       -0.1480863 0.18855907 0.43583483 -0.087588385
0000a0 2d f5 a5 be 02 07 8b 3e f2 ba e0 3d f1 2c 89 3e
       -0.32413617 0.27153784 0.10973157 0.267921
0000b0 7c e1 4c 3d 14 1d 90 be 7a 89 f2 3d aa 18 ab 3e
       0.050019726 -0.28147185 0.11842628 0.33417255
0000c0 35 18 e2 be 5a e6 98 3e eb 87 ca 3e a1 7b de 3e
       -0.44159093 0.29863244 0.39556822 0.43453696
0000d0 ef 6c 3d 3e 11 f9 9d 3d 8d 2b 8f 3e 2d de cc be
       0.18498586 0.07713521 0.27962914 -0.40013257
0000e0 78 73 45 3e 4f 02 d6 3e ea 9b cb be 26 95 9a be
       0.19282329 0.41798636 -0.3976739 -0.30191916
0000f0 31 d2 af 3e c7 f9 c1 bd dd bf 8e 3e f6 9d d4 be
       0.3434005 -0.09471469 0.27880755 -0.41526765
000100 8c bb a9 3d ca c0 a1 bd a9 70 a5 3e e2 8b 53 3d
       0.08287725 -0.078981 0.32312515 0.051647075
000110 d9 12 cc bd 30 25 0c 3e ce a2 c4 3e 86 d5 84 bd
       -0.099645324 0.13686061 0.3840546 -0.06486039
000120 98 68 2b bd 86 f9 3d 3e e1 5e 7c bd e2 24 54 be
       -0.041847795 0.18552217 -0.06161392 -0.20717195
000130 8a a8 ae be 3b 64 ab be e0 ef d1 3e e6 6c 8b be
       -0.3411296 -0.33474907 0.41003323 -0.2723152
000140 c1 36 97 3e ba 50 92 be 98 65 8d be b7 47 e4 bd
       0.2953396 -0.28577214 -0.27616572 -0.11146491
000150 bc 66 eb be ab 02 5e 3d 3b 92 ce 3e 69 7c 48 be
       -0.45976818 0.054201763 0.4034594 -0.19578709
000160 80 6b e4 3d 54 1c c6 be a7 7d ee 3d de 46 a6 bd
       0.111533165 -0.38693488 0.1164506 -0.081189856
000170 38 03 a6 3e 57 49 98 be 54 d9 a8 be 69 4b 12 3e
       0.3242433 -0.29743454 -0.32978308 0.14286579
000180 eb d8 9e 3e 0a 9a 80 3d 7b 70 93 be 2f 45 2d be
       0.3102487 0.062793806 -0.28796753 -0.16920923
000190 91 0d 80 be ff ce c4 3e c7 30 8d be 5f 8e 94 3e
       -0.2501035 0.38439175 -0.27576277 0.2901487
0001a0 f0 a7 52 3d 15 d3 b3 3e 52 b9 d5 be c4 5a 54 be
       0.05142969 0.3512198 -0.4174295 -0.2073775
0001b0 2e f7 d6 be 29 dc a5 3e 71 e9 b8 3e 9c cf d0 3e
       -0.41985458 0.3239453 0.36115602 0.40783393
0001c0 30 00 8e 3e 6c 2f b2 be c9 d1 5c 3b 76 9b 07 be
       0.27734518 -0.34801805 0.0033694378 -0.13242897
0001d0 bb 84 c8 be 8b 4e c8 be 60 34 82 3d 42 43 c2 3d
       -0.39163765 -0.39122424 0.06357646 0.09485485
0001e0 d7 c1 22 be bf 00 84 3e ff a7 99 bd 22 12 32 be
       -0.15894257 0.2578182 -0.07502746 -0.1738973
0001f0 8d 2a cd 3e 37 95 c8 be e4 c5 9b 3e 08 0d ba be
       0.40071526 -0.39176342 0.30424416 -0.36338067

conv2_1.0.weight f4 [8, 8, 1, 1, 1]
000000 f8 4b f8 3e 97 a2 a8 3e f7 74 6e 3e 83 47 35 3e
       0.4849546 0.32936546 0.23286806 0.17703061
000010 5d c1 68 be e4 71 95 3e 76 53 0b ba 3e c7 e3 be
       -0.22730012 0.29188454 -0.0005314866 -0.44487947
000020 d5 cf 81 bd 77 8a bf bd 41 02 d4 3e 31 86 d6 be
       -0.06338469 -0.09352582 0.4140797 -0.41899255
000030 e6 4c 18 3f 15 f1 30 3e 77 64 0a 3f 09 10 86 3e
       0.5949234 0.17279465 0.5405955 0.2618411
000040 e6 b9 c8 3e 89 f4 9b bd 7e d7 97 bd 2a 7d 54 3e
       0.3920433 -0.07615001 -0.07414149 0.20750871
000050 fc af c0 3e cd 68 ff be 52 00 0b 3f c6 4c ef be
       0.37634265 -0.49884644 0.54297364 -0.4673826
000060 cd b4 08 bf 22 1f bb 3e ff 0c 8c 3d 22 10 0d 3e
       -0.5340088 0.3654719 0.06838416 0.13775685
000070 03 5a 4c be 81 0e 7e 3e 18 f7 66 be f5 dd 15 be
       -0.19956212 0.2481022 -0.22555196 -0.14635451
000080 43 d4 14 3f c5 f1 ad bd d9 39 b4 3e 58 22 01 be
       0.58136386 -0.084933795 0.35200384 -0.12610757
000090 69 37 81 3e 3b 9f df 3d 03 2c 98 be 0e fe a7 be
       0.25237587 0.10919043 -0.29721078 -0.32811016
0000a0 4c 01 df 3e c5 0e 0b 3f b1 1c ed bd 68 be 77 3c
       0.43555677 0.5431941 -0.11577738 0.01512108
0000b0 77 bb 05 3f 87 ca cd 3d ef 93 c2 3e 1c e6 02 bf
       0.52239174 0.10048395 0.3800349 -0.5113237
0000c0 3c a4 b2 be 70 55 0d 3e b2 7e 15 3e 80 19 ef be
       -0.34890926 0.13802123 0.14599112 -0.46699142
0000d0 9a a6 0b 3f 4e 82 41 3e b0 38 8f be 2b 2d 85 be
       0.5455109 0.18897364 -0.27972937 -0.26011023
0000e0 3d 03 95 be 78 57 0d 3f af c4 99 bd 3f ba 82 3d
       -0.29104033 0.5521159 -0.075082175 0.0638318
0000f0 09 c4 01 bc af a0 5c be 04 da 1a bd df b6 9e 3d
       -0.007920274 -0.21545671 -0.037805572 0.07749724

conv2_1.0.bias f4 [8]
000000 7c 71 57 be 4a 4e a7 3c b5 e8 66 3d 4a ba 3d be
       -0.21039385 0.020423073 0.05637427 -0.18528095
000010 2d ca 1f 3d d9 14 a3 be 67 99 d9 3c 89 32 aa bd
       0.03901117 -0.31851843 0.026562406 -0.0831042

conv2_1.2.weight f4 [8, 8, 3, 3, 3]
000000 79 75 c6 bd da 4a 24 bd 44 5f a1 bd 83 70 93 bd
       -0.09690375 -0.040110447 -0.078794986 -0.07199194
000010 17 ce cc 3d e8 64 8c bd 6e 15 43 bc 6f 21 a6 bd
       0.10000246 -0.06855184 -0.011906965 -0.08111846
000020 44 d4 a5 3d 70 53 1a 3c 96 41 05 3d 40 8c 98 bd
       0.08097127 0.009419307 0.03253325 -0.074486256
000030 4a 21 9c 3d 38 25 94 3d 39 c2 9f bd bf 58 e9 bb
       0.07623537 0.072336614 -0.07800717 -0.007121175
000040 ef 00 75 3c 3e ac 0b 3d fe 13 22 3c b4 34 c5 bd
       0.014953836 0.03409981 0.009892462 -0.09629193
000050 9b 34 89 3c 61 1f 52 3d 7e 27 81 3c 64 80 cc bd
       0.016748717 0.051299457 0.015765902 -0.09985426
000060 d1 92 89 3d 68 c4 18 bc 2f 36 78 3d 3f 26 b0 3c
       0.06717456 -0.009324171 0.06059855 0.021502612
000070 72 ac 24 3c 70 7a 13 3d b5 9d f7 3c 8c 85 2b bd
       0.01005088 0.036005437 0.030226568 -0.041875407
000080 92 1a ba 3d 03 1b 52 3d 4b 00 84 bd d6 f2 b6 bd
       0.09087099 0.05129529 -0.064453684 -0.08933036
000090 8d fa 52 bd 45 d5 8f 3d d5 88 f5 3d 35 f5 38 3d
       -0.051508475 0.070231 0.11988989 0.045155723
0000a0 1e 64 43 bd 9f 6b 88 3d 39 43 cd 3d 85 ec 49 bc
       -0.0477029 0.06661152 0.10022587 -0.012324457
0000b0 4c f3 74 3d 66 c3 3b 3d 43 66 d3 3d 5d 60 c1 bd
       0.05980234 0.045840643 0.10322239 -0.09442208
0000c0 7b 37 7f bd ee 6f e8 bc 9a 98 89 3c 6a 9f 46 3d
       -0.06230877 -0.028373685 0.016796399 0.048491873
0000d0 04 11 c0 3d 8b 13 ea 3c bb 6b 8b bc 8f 61 4f 3b
       0.093782455 0.028573772 -0.017019143 0.0031643843
0000e0 1b 8f 21 bc f4 40 1c bd e8 cf 13 bc d4 05 9c bd
       -0.009860779 -0.03814788 -0.009021737 -0.07618299
0000f0 fa 22 80 3d e4 61 d9 bd 14 81 76 bd d7 5e 3b bd
       0.06256671 -0.10614374 -0.060181692 -0.045744743
000100 4c 81 63 bc 93 2d a8 3c bd 72 44 bc 5a ed fa 39
       -0.013885807 0.020529544 -0.011990246 0.00047860557
000110 30 cc a1 bd 14 b6 02 bd 94 24 e4 3c 31 86 64 3d
       -0.07900274 -0.031911924 0.027849473 0.055792037
000120 1c 28 96 bd ee e3 d6 bd 00 f0 ed bc 2d 4b 9d 3d
       -0.07331869 -0.10492693 -0.029045105 0.07680354
000130 f1 e2 e6 ba fb 8b 92 3d 49 89 3e bd 63 8b ac 3d
       -0.0017615241 0.071556054 -0.046517644 0.084250234
000140 c8 13 bc bd b3 67 4f 3b 96 38 5e 3d 12 e7 3a bd
       -0.091834605 0.0031647503 0.054253183 -0.045630522
000150 ba 66 c4 3d f9 38 0e 3d a3 28 b8 bd b7 e5 55 3c
       0.09589906 0.034722302 -0.08992126 0.013055257
000160 c3 8b 23 bd 28 6f 90 bd 56 ac a2 bd 40 23 82 bd
       -0.03992821 -0.07052451 -0.07943027 -0.0635438
000170 01 a4 83 bc 4f 3f a9 bc 6c 8d 95 bd 54 09 ca 3d
       -0.016069414 -0.02066007 -0.07302365 0.098650604
000180 4c 66 51 bd f2 6f b0 3d 21 2e 88 3d 5d da e4 3c
       -0.05112295 0.08615102 0.066494234 0.027936155
000190 a4 a0 ba 3d 16 1d 8a bd 9f 63 00 bd 41 68 88 bd
       0.09112671 -0.06743829 -0.031345006 -0.0666051
0001a0 f2 4b cd 3d d4 a6 b2 3c 60 a1 b7 bd 05 46 5b bd
       0.10024251 0.021808065 -0.08966327 -0.053533573
0001b0 60 a4 51 3b 8a 73 7a bd 09 f0 7d 3c 00 b8 94 bd
       0.0031988844 -0.061145343 0.015499123 -0.07261658
0001c0 10 81 04 3d c7 05 b1 3d 25 04 39 3d 54 9a 1f 3d
       0.032349646 0.0864368 0.04516997 0.03896554
0001d0 ce 23 89 bd d0 46 d3 ba e7 04 0e bd 4a 62 d0 3d
       -0.06696282 -0.0016119126 -0.034672644 0.10174997
0001e0 04 b4 1a 3d f7 db c0 3d b1 79 d1 3d 52 8a a0 bc
       0.037769333 0.09416955 0.10228289 -0.019597206
0001f0 90 8c e2 3d 48 20 41 bc b4 80 6a bd 68 8c df bc
       0.110619664 -0.011787482 -0.057251647 -0.02728863
000200 55 6c 6e bd fa 79 ad 3d a0 63 62 bc 02 d9 eb bc
       -0.058208782 0.08470531 -0.013817698 -0.02879
000210 d4 b9 df bd b5 4d 8e bd 32 a4 90 bc 0a c2 8a 3d
       -0.10924116 -0.06948415 -0.01765642 0.06775291
000220 58 6e a5 bd 24 73 bc bd 75 50 4c bd 3a f2 cd bd
       -0.08077687 -0.09201649 -0.049881417 -0.10055967
000230 6b c3 15 bd 9e d6 b8 3c af 79 2b 3d 37 8d d4 bb
       -0.03656332 0.022563275 0.041864093 -0.0064865607
000240 f9 57 85 bd 37 44 bb ba 31 44 02 bd 95 7b 53 3d
       -0.0651092 -0.0014287297 -0.031803314 0.05163153
000250 6d 84 87 3d 3a 24 7a 3c 49 42 ab bd 9a ac 81 bd
       0.06617055 0.015267426 -0.08362252 -0.06331749
000260 f9 9c a2 bd 82 62 f7 bd 09 9d d3 bd c7 fc 2f 3d
       -0.079400964 -0.12079336 -0.103326865 0.042965677
000270 53 e7 f8 bc 6e a7 86 3c 71 eb 80 3b e1 7f 23 3d
       -0.030383741 0.016437259 0.003934317 0.039916877
000280 77 c5 a8 bd 27 9c 91 3d 62 e4 bd 3d 90 6a 79 3c
       -0.082407884 0.07109862 0.09272076 0.01522316
000290 88 58 12 bd 23 3a 13 3d 2b 30 9c bb 90 de e4 3c
       -0.03572896 0.035944115 -0.0047664843 0.027938157
0002a0 be e2 51 bd ed 4d ba bd a8 d1 99 bc 13 a6 3f bd
       -0.05124163 -0.090968944 -0.01877673 -0.04678924
0002b0 ff 8c c4 3c ba be bc 3d f5 35 a8 3d de 28 c6 3d
       0.023993013 0.09216066 0.082134165 0.096757635
0002c0 d9 21 dd bb b1 35 c9 3d 5e 5b 8c bd 07 62 af 3d
       -0.0067484197 0.09824694 -0.068533644 0.08563619
0002d0 25 22 bb bd 03 bc 15 3d 64 9a 55 3d 6a 8a d2 bd
       -0.09137372 0.036556255 0.05214919 -0.10280307
0002e0 ac 63 57 bd e2 10 bb 3c eb b7 e8 3c 02 63 36 3c
       -0.05258529 0.022835199 0.028408011 0.011132004
0002f0 33 ce 89 bd f5 39 56 bd da 3d 65 bd 0d 2c 4c bc
       -0.067287825 -0.052301366 -0.05596719 -0.012461674
000300 46 f0 8a bd 56 53 ef bc 94 47 20 bc 0a c6 35 bd
       -0.0678411 -0.029214542 -0.009782691 -0.044378318
000310 12 cb ce 3d 21 5d 8e 3d 62 63 f8 3c 00 3f c6 3d
       0.10097326 0.06951357 0.030320827 0.09679985
000320 1f fb 24 3d d4 2b d8 bd 5b f2 fa 3b 2b e0 a6 bd
       0.04027855 -0.105552346 0.0076582856 -0.081482254
000330 69 bb 97 bd bb 98 5f bc d2 4b 9a 3c 4a be cf bd
       -0.074087925 -0.013647254 0.018834982 -0.10143717
000340 f3 2c c0 3d 2a 8b 50 3d 71 fe 82 3d ec f8 03 bd
       0.093835734 0.050913967 0.06396187 -0.032219812
000350 a5 13 cd bc 12 c9 81 bd 5b 10 a9 3d 8d e2 6b bb
       -0.025033781 -0.06337179 0.08255073 -0.003599319
000360 b7 83 98 bd 0b 20 23 3d 7d 5c 81 bd dc c9 c5 3d
       -0.074469976 0.03982548 -0.06316469 0.09657642
000370 72 1a 69 bd ac 10 4a 3d d4 9b 8c 3d 7e f4 8f 3d
       -0.056909986 0.049332306 0.06865659 0.07029055
000380 85 7c af bd 56 3b 5c bd 79 28 68 3d e7 7a ad 3d
       -0.08568672 -0.053767525 0.056679223 0.084707074
000390 15 3f 8a bd a6 74 9d bd e9 60 c7 3d fb 83 0c bb
       -0.06750313 -0.076882645 0.09735281 -0.0021440971
0003a0 d0 a3 23 3d dd c0 ae 3c 19 6d d3 bd 20 ba a2 bd
       0.039951146 0.021332199 -0.10323543 -0.07945657
0003b0 ce 27 bd bb 85 89 5a bd f9 41 94 3d d1 8f 85 bc
       -0.0057725674 -0.053353805 0.07239146 -0.016303929
0003c0 a3 70 a8 bd b0 84 85 bd 9c 5c 10 3c 7c e0 ef 3d
       -0.08224609 -0.06519449 0.008811142 0.11712739
0003d0 df 10 09 3e c6 61 3b 3d e3 f2 32 3d d2 ce 9a 3c
       0.13385342 0.04574754 0.043688666 0.018897448
0003e0 12 27 05 3c a6 ac bd bc 0c 28 bc 3d a2 63 9d 3d
       0.008126991 -0.023153614 0.09187326 0.07685019
0003f0 1e 43 cf 3d 2b 8c b4 3b 32 0a aa 3c c8 4e a6 bd
       0.101202235 0.0055098734 0.020756815 -0.08120495

conv2_1.2.bias f4 [8]
000000 9e 1b bf 3d a9 44 08 bd 7c c4 ee 3c 7f f4 42 bd
       0.093314394 -0.033268604 0.029146425 -0.04759645
000010 fb d5 62 bc 99 57 5c bd 5a 5b 51 bd dd 1f 23 bd
       -0.013844962 -0.053794477 -0.05111251 -0.03982531

conv2_1.4.weight f4 [16, 8, 1, 1, 1]
000000 54 fc 73 3e e4 37 f3 3d d1 59 e0 be 91 c5 9a 3e
       0.23826724 0.11875895 -0.43818524 0.30228856
000010 39 2f 80 bd 6b e7 f2 bd 9f 21 a5 be 81 e6 8f be
       -0.06259007 -0.11860546 -0.32252213 -0.28105548
000020 ab 34 4e 3e 58 2b 3e 3e ec 67 9b 3e ba 9e d6 3e
       0.20137279 0.18571222 0.30352724 0.41917974
000030 57 2f 29 be 1f 15 84 3e 18 28 f0 3e b6 d2 0b 3f
       -0.16521965 0.25797364 0.4690559 0.54618394
000040 89 ad b1 3e a1 e5 f8 bd c0 8c 04 3e 3a c6 a9 3e
       0.3470271 -0.12153173 0.12944317 0.33159047
000050 21 45 98 3e 3c 3c 7c be 8e 75 87 3d 01 ff 95 3e
       0.2974024 -0.24632353 0.06614219 0.29296115
000060 2d 1a 90 3e 60 a2 bc 3e ac a8 24 3d de 97 30 3e
       0.2814497 0.36842632 0.04019992 0.17245433
000070 16 23 65 bd f5 db e6 3e 74 38 bc bd 83 f9 a6 be
       -0.055941664 0.4508969 -0.09190455 -0.32612237
000080 2c f1 da 3d 0a 13 c9 bd 28 7a a2 be 67 3d b9 3e
       0.10690531 -0.098180845 -0.31733823 0.3617966
000090 40 1a ca bd ae 8f b2 3d aa e9 0e 3d c1 c1 ae be
       -0.09868288 0.08718811 0.03489081 -0.34132197
0000a0 d9 5c 81 3e 68 a7 14 3e 78 66 a4 bc 6b 53 b1 3d
       0.2526615 0.14516985 -0.020068392 0.08658489
0000b0 08 e3 a6 3e 28 20 da 3d f3 51 00 3d 6a 00 a7 3e
       0.32595086 0.106506646 0.031328153 0.32617503
0000c0 10 8c ce 3e c0 2d af 3e fd 6c 34 3e 36 a4 87 3e
       0.40341234 0.34214592 0.176197 0.2649247
0000d0 a1 c5 82 3e 84 62 09 3d 4a 98 b7 3d 67 4d 52 be
       0.25541404 0.033541217 0.08964594 -0.20537339
0000e0 cf 2c ba 3e 78 fe ab 3e 71 80 3d bd 42 61 14 be
       0.3636231 0.33592582 -0.04626507 -0.14490226
0000f0 f7 b5 b7 3e 61 13 d0 be b7 54 cd be d5 5b 64 3d
       0.35881016 -0.40639785 -0.40103695 0.05575164
000100 6f 16 d9 bd 89 e3 d2 3d 22 77 ab be 01 50 be 3e
       -0.10599982 0.10297305 -0.3348933 0.37170413
000110 6f 30 dd be fb 60 2a bd e4 8c d3 be a6 7a 1d 3e
       -0.43201014 -0.041596394 -0.4131843 0.15378818
000120 00 58 b4 3e 7d 32 9f be 4f ff 02 bd 04 c1 07 3e
       0.3522339 -0.31093207 -0.031981762 0.13257223
000130 c2 e3 c4 be c6 ec 8f 3e 57 48 85 3c 40 5f b5 be
       -0.38455015 0.2811033 0.016269846 -0.35424232
000140 b7 33 25 bd 06 26 dd 3e 1a 3d 6a be 00 b8 29 be
       -0.040332522 0.43193072 -0.22874871 -0.16574097
000150 0d fb 98 be a9 1b fe bb fb 28 7a be 9b bc ce 3e
       -0.29879037 -0.007754762 -0.24429695 0.4037827
000160 22 34 1e 3e 82 bb f2 3d 80 94 ad be 52 03 71 be
       0.15449575 0.118521705 -0.3390236 -0.23536423
000170 a2 be 28 3e 70 75 1a 3e 64 81 c6 3e 95 c8 30 3e
       0.1647897 0.15083861 0.38770592 0.17264016
000180 de 33 2d 3e 38 c0 7a be 60 0a 46 3e f0 bb c5 bd
       0.16914317 -0.24487388 0.19339895 -0.09654987
000190 09 74 98 be 92 f0 cd 3e 79 df 7a be 54 c3 40 bd
       -0.29776028 0.40222603 -0.2449931 -0.04706128
0001a0 23 8c 86 bd c4 f1 36 3e 19 fd c3 be 9a 8a a4 be
       -0.06569698 0.17865664 -0.38279036 -0.32136995
0001b0 35 2f a2 3e 07 ef de 3e 31 2e 8c 3e 99 36 ca be
       0.3167664 0.43541738 0.2737899 -0.3949478
0001c0 a3 e9 5c be aa 0b d3 3e 96 ab 6c be f8 da d1 bd
       -0.215735 0.41219836 -0.2311233 -0.10246843
0001d0 01 cb 93 3e 49 84 5e 3d 49 35 59 be 99 d6 e2 be
       0.28865817 0.054325376 -0.21211733 -0.4430435
0001e0 b1 c1 4d 3e ad 2b 68 3e 05 03 b2 be 0c 9f 7a bd
       0.20093419 0.22672911 -0.3476793 -0.061186835
0001f0 d9 9f f2 bc c2 ba d8 bc 2d b5 0b 3e f6 1d 9c 3e
       -0.029617237 -0.02645624 0.13643332 0.30491608

conv2_1.4.bias f4 [16]
000000 bc 58 a2 be cd 7b e6 3b 4c e2 82 3e aa b9 6f be
       -0.31708324 0.007033801 0.25563276 -0.23410669
000010 dd a8 d2 3d c0 97 e5 be 1b ee 0d 3e d3 1a 54 be
       0.10286114 -0.4484234 0.13860361 -0.20713358
000020 1c d2 1d 3e e3 e6 6d 3e 2e 5e a1 3e 88 00 8d bc
       0.15412182 0.23232608 0.31517166 -0.017212167
000030 12 4e d3 3e de 10 cf 3d 98 6a b2 bc 07 4e 80 be
       0.412705 0.10110639 -0.021779343 -0.2505953

pool2.weight f4 [8, 1, 7, 7, 7]
000000 d2 41 e7 38 b1 e4 0c bd ed 74 f6 bc d0 4c c3 3b
       0.00011027198 -0.034397785 -0.030085051 0.0059600845
000010 ca 67 42 bd 55 39 b3 bc 81 eb fa bc 10 9a c2 bb
       -0.047462262 -0.021877924 -0.030629875 -0.005938776
000020 26 09 f7 3b 56 c3 5c 3c 0d 5c 55 3c 7b 06 2e 3c
       0.0075389324 0.013474306 0.013022435 0.010621662
000030 e0 8b 3c bd aa 97 7f 3c cb 71 ab 3b d7 d8 1f bd
       -0.046031833 0.015600124 0.005232071 -0.039025154
000040 64 ac 59 3c f1 ef ce bc b9 93 c5 b9 ac 83 45 bd
       0.01328573 -0.025260897 -0.0003768483 -0.048221275
000050 04 5b 19 bd eb b9 ca 3b da d5 02 3c 5c 90 9d 3c
       -0.037440315 0.006186714 0.0079855565 0.019233875
000060 46 f3 9c bc b9 f9 30 bd 07 eb e0 3c 92 01 0b bd
       -0.01915897 -0.043206904 0.02745582 -0.033937044
000070 7a 99 7e bb e0 bf c0 3b 78 c0 11 bd 71 98 84 bb
       -0.0038848803 0.0058822483 -0.035583943 -0.0040464927
000080 2a 4d 88 bc f3 d8 6d 38 dc 49 2f bd 1c f9 ee bc
       -0.016638357 5.6707253e-05 -0.042795047 -0.029171519
000090 30 7d ba bc 5b 3d 0b bd b1 af c9 3c 5e 0d 0c 3d
       -0.022764772 -0.03399406 0.024619909 0.034192435
0000a0 86 1b d0 ba 6f 6a ac 3c c2 90 ae 3c 23 77 fb bc
       -0.0015877343 0.021046845 0.02130926 -0.030696457
0000b0 fb 92 a1 bc 9e 19 23 bb 80 63 75 3b f4 f2 53 3c
       -0.019723406 -0.0024887095 0.003744334 0.0129363425
0000c0 06 6b 18 bd 36 b6 29 bd 35 8c e4 39 f0 a8 6f bc
       -0.03721144 -0.041433536 0.0004359201 -0.01462768
0000d0 e4 f6 12 bb c5 e4 97 bb 2a 00 d2 bc dd 75 46 bd
       -0.002242499 -0.0046354258 -0.025634844 -0.048452247
0000e0 21 f0 23 bd c5 e6 29 bd f9 86 51 bd e5 27 ae bb
       -0.040023927 -0.041479845 -0.05115411 -0.0053148144
0000f0 2d b4 35 bc f7 5c cf bc ac 87 2f bd 5a b8 ea bc
       -0.011090321 -0.025312884 -0.042853996 -0.028652359
000100 ad c4 87 bc da 11 9f bc a1 3b 05 3c 0d 6c 65 bd
       -0.016573275 -0.019417692 0.008131892 -0.05601125
000110 71 d3 14 bd 30 4e 4d bd 96 c6 2b bd 72 02 19 bd
       -0.03633446 -0.050123394 -0.041937433 -0.037355848
000120 8b 14 13 3b 55 65 23 bc c2 5f a2 39 a9 fa bd 3c
       0.0022442664 -0.00997289 0.00030970393 0.023190813
000130 78 0b ac bb 18 c0 4d bc 6a 64 bd bc 88 4a 89 bc
       -0.0052503906 -0.012558006 -0.02311917 -0.016759172
000140 63 33 0b 3d 71 d9 06 bd 68 39 fa bc 5f c5 85 bc
       0.033984553 -0.032922212 -0.030544952 -0.016329465
000150 84 57 ea 3c 93 a8 3e bc ba c3 b6 3b c5 23 55 39
       0.028606184 -0.011636871 0.0055775316 0.00020326588
000160 fb 61 50 3c b0 fc 8b ba d7 87 31 bb 36 f2 3f 3c
       0.012718673 -0.0010680165 -0.0027089023 0.011715462
000170 db ac b9 3a 4a 49 b2 bb da 4e 44 bc 7a 57 e0 bb
       0.0014165895 -0.0054408656 -0.01198169 -0.0068463655
000180 9a 89 58 3b d3 ee fe bb 0d 65 82 3c 3d 5c fd bc
       0.0033041001 -0.007779935 0.015917325 -0.030927772
000190 64 a4 96 3c 2a d9 63 3a 45 a2 c6 bc 60 65 bb 3c
       0.018388934 0.0008691723 -0.024247298 0.022875488
0001a0 c8 53 55 bd 0b 9b 55 bd 3e b0 24 bc 71 d0 3b b9
       -0.052081853 -0.052149814 -0.010051785 -0.0001791136
0001b0 25 a3 12 bd 39 1c 06 bd af 87 c7 bc 32 84 20 bd
       -0.035800118 -0.03274176 -0.024356691 -0.03918857
0001c0 b0 62 51 bd 70 58 b6 bb ce e3 d5 bc 59 e6 ac bc
       -0.051119506 -0.005564742 -0.026109602 -0.021105932
0001d0 df 3b 57 bd a3 67 8e bb 2b dd 18 bc 25 5d 12 3c
       -0.052547332 -0.0043458506 -0.009330074 0.00893334
0001e0 94 c2 d6 3b d7 29 c4 3c 06 3d 33 3c 75 7a 3a bc
       0.0065539572 0.023945732 0.010939842 -0.011381735
0001f0 f6 71 b9 bc 1a 59 48 bd e8 fb c2 3b 80 f0 8c bc
       -0.022637349 -0.0489131 0.0059504397 -0.017204523
000200 40 79 bf bc f2 b6 cb bc a1 ad 60 3b 28 d8 cf ba
       -0.023373246 -0.024867509 0.0034283178 -0.0015857266
000210 f3 6d 01 3c 56 50 24 3c 44 bc 07 bd 81 12 0e 3d
       0.007899749 0.010028919 -0.03313853 0.034685615
000220 a0 04 43 3c 3f 03 98 ba a7 f7 c4 bc 0d 4a 8e 3c
       0.011902958 -0.0011597647 -0.024043871 0.017369295
000230 b8 cf 55 3c 9a d1 e8 3c be ff a2 bb 71 7f c3 bc
       0.013050012 0.028420258 -0.0049743345 -0.02386448
000240 b9 c7 83 3c 1e a4 03 3d 49 ce bc bc e6 38 4c 3c
       0.016086446 0.032138936 -0.023047583 0.0124647375
000250 11 af e9 bb 50 fd 17 3b 72 fb 86 3c 49 36 3d bd
       -0.0071314652 0.0023191758 0.01647732 -0.04619435
000260 b0 f6 31 bd 05 25 20 bd 92 17 3d bd d6 e9 71 3a
       -0.04344815 -0.039097805 -0.046165057 0.00092282647
000270 36 5c 4c 3c 35 b1 ba bb 2f 3f 0a bd b4 4a 40 bb
       0.012473157 -0.0056973943 -0.033751663 -0.0029341402
000280 c8 c3 cc bc 11 24 4c bd 90 80 69 3b c1 66 5a bd
       -0.0249957 -0.049839083 0.0035629608 -0.05332065
000290 aa bc 9a bc 23 18 2f bd 17 b6 0a bd ba e9 52 3c
       -0.01888879 -0.042747628 -0.03386506 0.012873108
0002a0 45 90 1c bd 34 47 31 3c 96 4c ab bc ad 5e 08 bd
       -0.038223524 0.010820199 -0.020910542 -0.033293415
0002b0 c3 22 a9 3c d3 aa 31 3c 67 fa 32 bd f3 9b ed bc
       0.020646458 0.01084395 -0.043695834 -0.029005026
0002c0 0b a6 e7 3c 79 c7 c3 3b 8a 9a d5 3c 26 0f 27 37
       0.028277418 0.0059747067 0.026074667 9.957503e-06
0002d0 6e ac 9e bc 15 1a 59 3c 61 a2 6c 3c 89 25 85 3c
       -0.01936933 0.013250847 0.014443011 0.01625325
0002e0 22 9d a3 3c 4c 0c df bc 2d 41 d5 3b 54 d8 d3 3c
       0.019972388 -0.027227543 0.0065080137 0.02585999
0002f0 c8 b7 a6 bc d2 3d 77 3c b1 75 03 3d 60 dd fa 3c
       -0.020351306 0.015090423 0.03209466 0.030623138
000300 12 e3 0e 3c 93 78 a7 39 65 ea 07 bc 4f 53 06 3d
       0.00872113 0.00031942557 -0.00829563 0.032794293
000310 a9 1d 71 bb de ed fd 3a a9 9d b4 bc bb d7 26 bd
       -0.003679136 0.0019373258 -0.022047834 -0.04073308
000320 63 4d 29 3c 44 b9 72 3c 09 8c ab 3c 8a 2b fc bb
       0.010333392 0.014814679 0.020940797 -0.00769562
000330 ee 7e d5 bc e4 20 24 bd 65 07 2a 3b d5 9d 07 bd
       -0.026061501 -0.04007043 0.002594435 -0.033109505
000340 2c c1 2f bc c7 06 c8 bb 5e 6f ef bb a0 7a 14 3c
       -0.010727208 -0.0061043235 -0.007306977 0.009062439
000350 22 04 38 bb 05 3b 4e bd 5c 4e c8 bc de 18 4d bd
       -0.0028078635 -0.050349254 -0.024451427 -0.050072543
000360 9c 92 67 bd a0 68 d5 bc 49 aa 7a 3c 58 a3 ff ba
       -0.056536302 -0.026050866 0.015299388 -0.0019503636
000370 eb bd 9f 3c 0a 90 b0 bb 96 b9 48 3c a1 39 3f bb
       0.01949974 -0.0053882645 0.012251278 -0.0029178637
000380 d2 2b bd bc 3a 8f af 3b b9 ee a5 bc f7 0a 16 bc
       -0.023092184 0.00535765 -0.020255433 -0.009157888
000390 32 03 9a 3c b8 65 73 bc 82 c7 16 3c 43 43 b3 bc
       0.018800352 -0.014855795 0.00920284 -0.021882659
0003a0 0d 0f e6 bc 3a 76 e7 3c c3 55 bf 3c 33 73 84 bc
       -0.028083349 0.028254617 0.023356324 -0.016168213
0003b0 6c 2d d3 3c 8d 17 05 bb 52 eb 0b 3d a0 3f 8e bc
       0.025778495 -0.0020308227 0.034159966 -0.017364323
0003c0 5f e4 ff bc ee 1c c3 bc 9b 86 f2 bc a5 62 8a 3c
       -0.031236826 -0.023817506 -0.0296052 0.01689274
0003d0 92 97 75 3c 9a cc c6 bc a7 06 35 bc 6d 69 56 bd
       0.01498975 -0.024267484 -0.011048949 -0.052346636
0003e0 a0 73 59 bd b8 de d7 bb 83 d8 0e 3b 2c c2 3b bd
       -0.053088784 -0.0065878294 0.0021796532 -0.045839474
0003f0 28 8f a2 bb 67 49 ad 3c fd 47 48 3c fa 7e 12 bc
       -0.004960913 0.021153165 0.012224195 -0.008941406

pool2.bias f4 [8]
000000 47 f2 b7 3b 78 d3 ee 3d dc fe 95 3c 13 fb 99 bc
       0.0056135985 0.11661428 0.018310003 -0.01879648
000010 b4 00 09 3d 93 94 29 bd 14 45 44 bd 78 62 6f bb
       0.033447936 -0.041401457 -0.04791744 -0.0036527198

reduction2_2.weight f4 [16, 8, 1, 1, 1]
000000 71 02 23 be b6 74 a5 be 4c c2 5d be fa bb 37 bd
       -0.159189 -0.32315606 -0.2165615 -0.044857003
000010 a7 e6 77 be 14 20 ae 3e fb a2 1b 3e 98 92 63 3d
       -0.2420908 0.3400885 0.15198891 0.055559725
000020 66 6c a8 3e 39 cf d6 3e 38 2d 7f 3e f6 da dc 3d
       0.328952 0.41954973 0.24919593 0.10783951
000030 a0 d6 91 3e 68 b4 26 be bb 96 be be 88 25 4d 3e
       0.28484058 -0.16279757 -0.37224373 0.20033848
000040 13 10 e6 bc de 4e c5 be 17 b9 1c 3d 69 83 a9 be
       -0.028083837 -0.38536733 0.038262453 -0.3310807
000050 ed 32 10 be fe 27 73 3e 74 f8 4e 3e 94 a3 43 3e
       -0.14081927 0.23745725 0.20211965 0.19105369
000060 11 95 82 ba e4 38 5a 3d c6 78 b0 3d 16 8c a8 be
       -0.0009962638 0.05327691 0.08616786 -0.32919377
000070 7d 01 b7 3e 9f e0 35 be 0d f5 a7 be 65 34 c0 3e
       0.35743323 -0.17761467 -0.32804146 0.37539974
000080 8a e3 d5 be 09 c0 18 be b2 80 a0 bc 1a 14 98 3e
       -0.4177516 -0.14917006 -0.019592617 0.29702836
000090 2f a4 c4 bb 41 25 d4 be eb 39 c3 be 0a 24 a5 be
       -0.0060010175 -0.41434672 -0.38130125 -0.32254058
0000a0 1e 11 e8 be fc 16 96 be c4 4a e3 be 39 19 23 3e
       -0.4532556 -0.2931441 -0.4439298 0.1592759
0000b0 34 c2 16 be 8f 5e d6 3e 4a 02 1f 3e 25 7c 48 bd
       -0.1472252 0.41869017 0.15528217 -0.04894652
0000c0 c3 33 e5 3d 0c f1 02 3d 33 7f 84 3e 46 6c b3 be
       0.111915134 0.03196816 0.25878295 -0.35043544
0000d0 62 74 82 be d7 82 e3 3e 7a b0 c0 3e 45 a2 e0 be
       -0.25479418 0.4443576 0.3763464 -0.43873802
0000e0 4c a5 de bd a0 0e ab 3e 6e 17 bd 3e 81 8b e0 be
       -0.108713716 0.33409595 0.36931938 -0.43856433
0000f0 03 04 c8 be d3 2e f2 3d 5b 93 9d 3e d1 fe 27 be
       -0.3906556 0.11825337 0.30776486 -0.16405798
000100 33 81 9e be 13 ae 85 3e 0e ce 09 3e e1 40 8c be
       -0.30957946 0.2610937 0.1345751 -0.2739325
000110 70 a1 63 be b1 33 9a 3d 88 67 ad 3e d3 d0 96 bd
       -0.22229552 0.075293906 0.3386805 -0.07364049
000120 cf 8d db 3e a8 21 db 3e 67 1e be 3e 5f 4d c8 3e
       0.4288163 0.42799115 0.3713257 0.3912153
000130 85 7b d2 3e b6 29 b4 be 43 4e 80 3e 9b 79 c9 3b
       0.41109863 -0.35188073 0.2505971 0.0061485297
000140 c8 d9 85 3e d6 2e 86 be 61 d2 29 3c 27 be c9 3e
       0.26142716 -0.26207608 0.0103651 0.39402887
000150 09 b2 0d 3e cc f7 bb bc b5 43 c4 be b8 af d3 be
       0.13837446 -0.022945307 -0.38332906 -0.41345
000160 09 fa 3a be 27 99 cb 3c 50 b7 1e 3e 06 20 0b 3d
       -0.18259443 0.024853302 0.15499616 0.033966087
000170 9f cc 46 3e 1c 99 e8 bd 35 83 7d 3e c1 ee 9a 3e
       0.19413994 -0.11357328 0.24757083 0.3026028
000180 26 57 cf bd f6 e6 ff 3d 1e 8c d2 3c d5 7f 4b bc
       -0.10124044 0.12495224 0.025701579 -0.012420614
000190 a6 a7 d3 bd 64 d6 ab be ad 15 c7 3e d3 01 bb 3e
       -0.10334711 -0.33562005 0.38883725 0.3652483
0001a0 3c 9e 9f 3e ff 93 8e 3e 6c b0 41 3e 13 18 ac 3c
       0.3117541 0.27847287 0.18914956 0.021007573
0001b0 5f e4 96 bd 34 17 1f be f4 bc 8c 3c 3a cc 5f 3e
       -0.07367777 -0.15536195 0.017179944 0.2185525
0001c0 e5 48 44 3e 74 bf df be a5 18 2c 3c b4 5c ab 3e
       0.19168432 -0.43700755 0.010503923 0.33469164
0001d0 ad 0f 4d be eb 39 6a be 48 f3 df be 5b 4a b4 be
       -0.20025511 -0.22873656 -0.43740296 -0.3521298
0001e0 18 91 ba be 37 1c a7 3e ce 87 56 3e 19 85 d3 bc
       -0.36438823 0.32638714 0.20950243 -0.025820302
0001f0 f7 73 93 3d 1b 19 06 3d a3 c4 1a 3e d2 f7 86 be
       0.07199853 0.032738786 0.15114073 -0.26360947

conv2_2.0.weight f4 [8, 8, 1, 1, 1]
000000 35 8c d7 3e ab b5 0f be 90 0c db bd 13 a6 6e be
       0.42099157 -0.14034145 -0.106957555 -0.2330554
000010 e0 a2 52 be de cd 2a 3d 88 96 c2 be 27 e9 d4 be
       -0.20569944 0.041700236 -0.3800547 -0.4158413
000020 37 8d 17 3e f5 df b6 be 8d 79 81 bc d9 18 01 be
       0.14799963 -0.3571774 -0.01580503 -0.12607135
000030 1b 50 90 3d 06 c8 86 be 3d 76 e6 be 02 67 ec be
       0.07046529 -0.2632448 -0.45012084 -0.4617234
000040 83 0e 37 3d 0d e1 94 3e ce 84 aa be 4a 0c fe 3e
       0.044691574 0.2907795 -0.33304447 0.4961875
000050 ba f3 57 3d 78 8c b9 3e f1 2a d0 be 71 f6 e5 be
       0.05272267 0.36239982 -0.40657762 -0.44914582
000060 92 8a 09 3e 47 8b 87 3e 51 6e 05 3f db 2b 96 bd
       0.13431767 0.26473448 0.52121454 -0.073325835
000070 4e 8e e2 be d8 19 c5 be aa 83 7d 3e d2 0b 68 be
       -0.44249195 -0.3849628 0.24757257 -0.22660759
000080 f6 00 fa 3e e5 e2 f8 be b5 87 e4 be 52 de 8f bd
       0.48828858 -0.48610607 -0.44634786 -0.07024826
000090 53 21 e9 3e 48 73 ec 3d b5 6f ff be f8 c0 e8 be
       0.45533237 0.11545426 -0.49889913 -0.45459723
0000a0 2a dd 53 be a5 74 2e 3e 49 41 30 3e 7b d0 d6 be
       -0.20689836 0.17036684 0.17212404 -0.41955933
0000b0 ed 90 a1 3e 78 67 5f 3e d4 fb 10 3e 98 33 8c 3d
       0.31555882 0.21816814 0.14158565 0.06845778
0000c0 84 02 8f 3e 1b 91 ed 3e 8f cc 7f be 3b 32 ca be
       0.27931607 0.4639977 -0.24980377 -0.39491448
0000d0 bf b8 bc bd d8 fa 04 bf 7a 3c d4 3e c2 c0 41 3e
       -0.09214925 -0.5194526 0.4145239 0.18921188
0000e0 74 c9 b2 3e 1a fe ac be a4 8b 48 3e a0 fc d4 3e
       0.34919322 -0.33787614 0.19584519 0.41598988
0000f0 62 c6 a0 3e 8d 37 4f bd d9 86 89 be e0 94 73 be
       0.31401354 -0.050590087 -0.26860693 -0.2378726

conv2_2.0.bias f4 [8]
000000 76 01 71 3e c7 38 7f be 47 a9 7c 3e 36 3c 5b be
       0.23535714 -0.24924003 0.24673949 -0.21409687
000010 89 ca b6 3e 92 30 4b be 8b e9 1b 3e 73 d4 80 bd
       0.35701397 -0.19842747 0.15225808 -0.062905215

conv2_2.2.weight f4 [8, 8, 3, 3, 3]
000000 cd 21 db 3d 6d 92 bc bc 55 99 67 bd eb d4 c0 3d
       0.10699806 -0.02301904 -0.056542713 0.09415611
000010 bc ae 80 bd eb 83 8a bd 98 23 97 3d 12 76 9d 3c
       -0.06283328 -0.067634426 0.07379836 0.01922134
000020 f8 65 86 bd fa c1 37 3d 20 7a 9d bd 43 58 ab 3c
       -0.06562418 0.044862725 -0.07689309 0.02091611
000030 15 62 97 3d 5d 4c 39 bc 3d 2d be bd 17 ce 23 bd
       0.073917545 -0.01130971 -0.09285972 -0.039991464
000040 9e eb 7b bc fe be 31 bd 2c 0c 4a 3d e3 74 27 bd
       -0.015376 -0.043395035 0.049328014 -0.040882956
000050 18 14 e0 3d b9 53 c1 bd 46 be 4f 3d c5 bc 67 3c
       0.109413326 -0.09439797 0.05071857 0.014144127
000060 5e f7 28 3d e4 6e 86 bd cb 86 ce bc 59 f2 05 3c
       0.041251533 -0.065641195 -0.025210759 0.008175456
000070 2a af 40 3c f5 e0 96 3d e4 22 93 bd f2 59 86 bd
       0.011760512 0.07367126 -0.07184389 -0.065601245
000080 58 82 83 3d 20 7f b9 bd d1 7b d6 3d 31 14 31 3d
       0.064213455 -0.0905745 0.10472835 0.043232147
000090 50 c0 95 3d f3 12 3e bd 80 07 a7 3d c3 28 d8 3d
       0.07312071 -0.04640479 0.081557274 0.1055465
0000a0 86 49 b1 3d b8 af 25 3d 7f de 23 3d b8 86 a9 bd
       0.086566016 0.04045078 0.04000711 -0.08277649
0000b0 47 d8 93 bc cb 90 ae 3b 7f a0 21 3d 06 19 07 3d
       -0.018047465 0.0053273193 0.0394597 0.03298285
0000c0 30 de 65 bd 5c 69 b0 bd 5a 85 a3 bd 84 23 92 3d
       -0.056120098 -0.08613846 -0.07984419 0.0713568
0000d0 a8 09 ad 3d d1 3d c9 3d 6d e8 9c 3d f1 25 c1 bd
       0.084491074 0.09826244 0.07661519 -0.09431065
0000e0 29 d6 20 bd e4 54 74 3d a6 00 89 bd 94 9d 81 3d
       -0.03926674 0.05965127 -0.06689577 0.06328884
0000f0 44 a7 9d 3d b5 fb a7 3d 8e 7a c4 3c 4c 20 c7 bd
       0.07697919 0.08202306 0.02398422 -0.09722957
000100 9e 0f 9b 3c e1 8b 1c 3d 42 c9 cc bd 7d 94 49 3d
       0.018928345 0.038219336 -0.099993244 0.049213875
000110 5f a1 e5 bc 27 ad 1a 3d ed bf 4f bc 44 62 07 bd
       -0.02803105 0.037762787 -0.012680036 -0.033052698
000120 4a c4 d5 3d 1d ff 77 bd f7 cc 48 3c 2e 15 85 bd
       0.1043783 -0.06054603 0.012255899 -0.0649818
000130 44 e0 17 bd 75 ce fe bc 5b 42 24 3d f0 0a c0 3b
       -0.03707911 -0.031104306 0.040102344 0.005860679
000140 75 13 a2 3d d7 d4 ef 3b 92 94 bc bb ed 7f 2c bb
       0.079138674 0.0073190737 -0.0057550156 -0.0026321367
000150 6a 0f a4 3d 14 95 88 3d 5c 34 ac bc 44 06 cf bd
       0.080107525 0.066690594 -0.02102106 -0.10108617
000160 c5 0d 78 3d 48 54 87 bd c3 61 2e 3b a8 57 03 bd
       0.060560007 -0.06607872 0.0026608563 -0.032066017
000170 5b 7c c3 3d 61 78 87 3c a6 5f e5 3c 50 b0 4e 3d
       0.09545203 0.016536893 0.02799971 0.050461113
000180 69 2e c8 3d 2d 96 06 3c d6 49 06 3d fe d1 83 3d
       0.09774477 0.008214516 0.03278526 0.06436537
000190 4e 9b 6c 3d ed b0 97 bd 6f 83 66 3d b9 5f c6 bd
       0.057765298 -0.07406793 0.05627769 -0.096862264
0001a0 26 0a af 3d 7c 3d f7 bc 15 ad 8a 3d 32 94 0a bd
       0.085468575 -0.030180685 0.06771294 -0.033832736
0001b0 e0 02 91 3d 94 9b 84 3d 70 61 ab 3d 59 7e b0 bd
       0.070806265 0.06474987 0.08368194 -0.08617849
0001c0 2b 97 88 bc 35 31 00 3d 52 95 dd bd 33 be c7 bd
       -0.016673645 0.031296927 -0.10819496 -0.097530745
0001d0 33 3e f5 3c 02 80 e5 3d e6 f9 03 3d 83 86 81 3c
       0.029936885 0.11206056 0.032220744 0.01581121
0001e0 8b 7a e1 bc 09 fa 8f bd 39 1a ea 3c a1 a4 ec ba
       -0.027524253 -0.07030112 0.028576957 -0.0018054434
0001f0 18 80 b6 bd b9 d8 d6 bd 14 ae d7 bc 8e be 99 3d
       -0.08911151 -0.10490555 -0.026328124 0.075070485
000200 49 92 d7 3c 7d 06 cc bd 81 5a ae bc 26 99 c7 3d
       0.026314871 -0.09962175 -0.02128339 0.097460076
000210 9a df 09 bd b8 da be 3d 18 cd b1 3c ce 4e bb bd
       -0.03366051 0.09319061 0.021704242 -0.0914589
000220 04 d8 4e 3d b7 50 6a 3d 5b 6f b1 bd 93 9e 49 3d
       0.050498977 0.057205882 -0.086638175 0.049223494
000230 f9 30 64 3c 53 5a f6 3b a0 bd 12 bd 42 51 d0 3d
       0.013927692 0.0075180917 -0.03582537 0.10171749
000240 7b 31 70 bd 36 04 b5 bb 92 7c b7 bc a2 4b 62 3d
       -0.05864094 -0.0055241836 -0.022398267 0.05524791
000250 8c 1c b1 bd 57 86 cb bd cb b5 a1 3d 1b a7 46 3c
       -0.08648023 -0.09937733 0.078960024 0.012124802
000260 7b 03 ca bd d8 0b 75 bd 8b 70 c0 bd cb 97 88 3d
       -0.09863945 -0.05982575 -0.09396466 0.06669577
000270 26 c2 5e bd 92 29 c5 bd 5d 75 31 bc 51 ac d1 bd
       -0.054384373 -0.096270695 -0.010831204 -0.10237945
000280 ae ff a5 3d 08 5a a6 bd 28 f3 04 bd 8e 31 f5 bc
       0.08105408 -0.08122641 -0.032458454 -0.029930856
000290 0d 7e 4a bd 4e 96 a9 3d fc f5 de 3d 29 3c 67 3d
       -0.049436618 0.082806215 0.108867615 0.056453858
0002a0 a9 6c 41 3d 63 ac 80 ba 82 05 d3 bd 95 84 2b bd
       0.047222767 -0.0009817 -0.10303785 -0.041874487
0002b0 b8 a0 c7 bd 88 6f 2d bd f0 fa 21 3c db 7f a2 bd
       -0.097474515 -0.042342693 0.009886488 -0.07934543
0002c0 6f f3 a0 3d 15 19 83 3d 2a 4f c0 3c 7e 87 a1 bc
       0.07858931 0.064012684 0.023475248 -0.019717928
0002d0 3d 4c bc bd 23 ae b6 3d 15 a3 55 3d 1c 8c 63 3d
       -0.09194229 0.08919933 0.05215748 0.05555354
0002e0 b9 98 0b bd da 51 f8 3c e4 aa 28 3b ea b2 9e bd
       -0.034081195 0.030312467 0.0025736624 -0.07748969
0002f0 ae 09 c5 3b 27 7a 6d bd a3 03 c8 3d 01 b2 cf bd
       0.006013117 -0.05797782 0.09766319 -0.101413734
000300 e0 9e 8b bd 21 88 ce bc bd 71 fb bb c8 7f 47 bd
       -0.068174124 -0.025211396 -0.007673471 -0.048705846
000310 2f b1 ae bd 8a f7 b4 bc f5 6a ab bd 53 3f 15 bc
       -0.08529889 -0.022090692 -0.0837001 -0.009109336
000320 e9 cd a7 3d 1e 00 14 3d 16 cb 9b 3d a6 7f 74 3d
       0.08193571 0.036132924 0.07607095 0.059692048
000330 18 a3 6c bd c4 8c cc 3d b8 3d a3 3c e9 2c 63 3d
       -0.057772726 0.099877864 0.01992689 0.05546275
000340 7f 9e c9 bc b6 52 f9 bc 38 15 c8 3d d6 25 58 3d
       -0.02461171 -0.030434947 0.09769672 0.05277046
000350 3b 61 81 3c b2 a0 ad 3d c3 3a 3e bd dc 6f 71 bd
       0.015793433 0.08477916 -0.04644276 -0.058944568
000360 60 8d 67 3d f3 96 a7 3d 36 d9 b0 bd 5e ad cc 3c
       0.05653131 0.08183088 -0.0863518 0.024985012
000370 70 b9 08 3d b2 06 92 3d 79 0e a5 3d 9b bb 86 3d
       0.033379972 0.07130183 0.08059401 0.06578752
000380 5b 06 cd bd ef 76 55 3d a3 75 8c bd 43 ac 13 3d
       -0.10010978 0.052115377 -0.06858375 0.036052953
000390 91 6b 0a bd b2 a2 c7 3d f1 6d 87 3d 1e ff a8 3d
       -0.03379399 0.097478285 0.066127665 0.08251785
0003a0 7e 37 a3 bd be 35 72 bd a4 48 be 3d 88 d4 ad bb
       -0.07969569 -0.059133284 0.09291199 -0.0053048767
0003b0 f2 59 44 3d be bd ce bd 04 dc ca 3d 8d 82 39 3d
       0.04793734 -0.10094784 0.09905246 0.04529052
0003c0 02 08 52 3d 36 76 44 3d a0 5a 08 3d 43 ec 32 3c
       0.051277168 0.047964297 0.03328955 0.010920587
0003d0 9b 9b 71 3d 66 52 97 3b d4 58 5b bc a3 77 82 bc
       0.058986288 0.004617977 -0.0133878775 -0.015926188
0003e0 b7 99 45 bc 0c 3d 82 3a fa d2 b9 bc 26 8b 9d 3d
       -0.012060574 0.0009936406 -0.02268361 0.07692556
0003f0 c9 e6 ab 3d 60 8b 83 3d 7f 7e 28 3c 29 c7 24 bc
       0.08393628 0.06423068 0.010284065 -0.010057249

conv2_2.2.bias f4 [8]
000000 ee 3a 41 bd b7 6c 34 3d be 42 9e 3d 0c 07 80 bd
       -0.04717534 0.04404899 0.07727574 -0.06251344
000010 fc d8 43 3c ea 96 12 3d 6e a5 bf bc f5 10 4f 3d
       0.011953589 0.035788454 -0.023394313 0.05055328
