weights/003/cpBest_SSC_DDRNet.pth.tar (torch_old, 811508 bytes, 144 tensors)

dep_feature2d.0.weight f4 [8, 1, 1, 1]
000000 0f 9c 8e bd 93 90 87 bc df f3 87 3d 9d 3d 47 bd
       -0.069633596 -0.01654843 0.066383116 -0.048642743
000010 92 30 93 3e 5c 78 9d bd f6 86 06 bd 7e 5f f9 bc
       0.28747994 -0.07688972 -0.032843553 -0.030441042

dep_feature2d.0.bias f4 [8]
000000 a5 f2 1a be 95 87 97 bc 69 1f 05 3f 3a 27 b1 bd
       -0.15131624 -0.018497268 0.52001053 -0.0865006
000010 bf ed b2 3f 23 b5 33 bf e3 87 ea be 2a 89 2b be
       1.3978804 -0.7019827 -0.45806798 -0.16751543

dep_feature2d.1.conv_in.weight f4 [4, 8, 1, 1]
000000 eb a1 f0 3c 3d 6b 25 bd ba 29 6c bc d0 72 6f 3d
       0.029374084 -0.040385474 -0.014414245 0.058459103
000010 69 0c 90 bd 2d 8d dd bc 83 1f 28 be 6a c3 3d 3c
       -0.07033617 -0.027044857 -0.16418271 0.011582235
000020 c9 57 f3 3d 5b df 9a bc 4f ab 9a bc f2 fd 1c 3d
       0.11881978 -0.018905332 -0.018880514 0.03832812
000030 de 32 9c bc e8 4f fd bc 7e 68 55 3d aa 64 62 3d
       -0.019067224 -0.030921891 0.052101605 0.055271782
000040 12 f3 8c 3c 82 3b 12 be e7 37 28 ba 5a 1b e7 bd
       0.017205749 -0.14280513 -0.00064170215 -0.11284514
000050 d8 79 33 3d 92 19 45 bc 14 2d 83 bd 02 61 5e be
       0.04381737 -0.012030022 -0.06405082 -0.21716693
000060 48 04 20 3d bc 2b 04 3e 24 92 f4 bd d7 ff 36 bd
       0.039066583 0.12907308 -0.119419366 -0.04467758
000070 e0 c3 25 3d 1b 03 c3 bd 84 76 56 3d 03 bd e3 bd
       0.040470004 -0.09522077 0.05235912 -0.111200355

dep_feature2d.1.conv_1xk.weight f4 [4, 4, 1, 3]
000000 55 cd d5 3b a8 29 70 3d d2 cb 29 3e 68 b1 b1 bd
       0.0065247216 0.058633476 0.16581658 -0.08676416
000010 0e 70 13 3d e0 3e cb 3d 1b 58 f6 3d bf 1b b8 bc
       0.035995536 0.09924102 0.120285235 -0.022474168
000020 0d 0e 8b 3c 39 19 19 3c 46 a1 04 3d 13 e7 97 3d
       0.016974473 0.009344392 0.032380365 0.07417121
000030 51 7a 5e 3d 9a 18 0e 3d 45 5a 17 bd b4 76 09 bd
       0.05431587 0.03469143 -0.036951322 -0.03356047
000040 08 83 9a 3d f9 7b a1 bd 09 60 8b bd 35 2f 63 bc
       0.075445235 -0.07884974 -0.068054266 -0.0138662355
000050 4a 88 ac bc 47 07 b5 3d 1f 15 89 bd f3 e9 9d bc
       -0.021061081 0.08839279 -0.06693482 -0.019276595
000060 66 9c db 3d f8 b9 45 3c e1 4d 54 3d 0f 1a 67 3c
       0.1072319 0.012068264 0.051832084 0.014105334
000070 12 50 6d 3e a0 b9 d2 3d 27 af 3c be 53 5f 9d bc
       0.23175076 0.102893114 -0.1842619 -0.019210493
000080 c0 17 34 3d cc 24 b0 3d 53 94 e1 3d de d9 37 3d
       0.043967962 0.086007684 0.11014619 0.04488551
000090 4c 34 b0 39 0d b4 43 3c 22 57 84 3d 89 d3 9b bc
       0.000336083 0.011944783 0.06461932 -0.019021766
0000a0 e7 0e 15 bd d3 99 2e 3c c4 37 4f bd a8 bc db bd
       -0.036391165 0.010656792 -0.05059029 -0.10729343
0000b0 3b 41 e4 3d 69 c6 ea 3d 16 2f 5a bd 42 62 df bd
       0.11145254 0.11463625 -0.05326756 -0.10907413

dep_feature2d.1.conv_1xk.bias f4 [4]
000000 e9 f7 ea 3d 7d b6 33 bc 34 b7 18 3e 53 6c a7 bd
       0.11473066 -0.010968802 0.14913636 -0.08174958

dep_feature2d.1.conv_kx1.weight f4 [4, 4, 3, 1]
000000 1f 5b 88 3d a8 0e f6 3c ae 5e ff bd 1d 54 9e 3d
       0.06658005 0.030036286 -0.124692306 0.07730887
000010 19 ce a3 3d ee 5b f5 3d 0e d5 39 3b c2 08 e6 bd
       0.079982944 0.11980425 0.002835575 -0.11232139
000020 6e cf 06 3e cb 1d f7 3c 23 e1 0d be d3 d5 5a bd
       0.13165066 0.030165574 -0.13855414 -0.053426575
000030 fb e3 b4 3c 2e bd f3 3d 17 09 ba 3d d0 a1 8c bc
       0.022081366 0.119013175 0.09083765 -0.017167002
000040 97 2d 8a 3d 1e 2c 75 bd e8 20 de bd e7 16 54 be
       0.06746977 -0.059856527 -0.1084612 -0.20711862
000050 a0 d0 0a be a9 f6 52 3d 24 80 98 bc 80 3c 84 3d
       -0.13556147 0.051504765 -0.01861579 0.06456852
000060 2b 86 a3 bc 7d 08 b5 bc 3a 10 fa bd 00 6e 35 bd
       -0.019961437 -0.022098774 -0.12210126 -0.044294357
000070 c0 0b 7f 3d 50 d5 f2 3d a4 c7 31 bd c4 74 ff 3c
       0.062267065 0.118570924 -0.043403283 0.031183608
000080 d6 dc d3 3c a5 db 1e 3e f0 13 3a 3d cf f6 1d 3e
       0.025862139 0.15513475 0.04542917 0.15426181
000090 09 0d f0 bd e4 2d 29 bc 4b 7f 65 bd 27 d1 96 3c
       -0.11721236 -0.010325883 -0.0560296 0.018410278
0000a0 74 22 6c 3d 23 f5 9d 3c f2 f3 fd 3d fc 85 43 3c
       0.057650045 0.01928193 0.124000445 0.0119338
0000b0 6f 94 ce 3d 90 5c 3b bd e8 18 0a be f2 00 ed 3c
       0.10086905 -0.04574257 -0.13486063 0.028931115

dep_feature2d.1.conv_kx1.bias f4 [4]
000000 a5 0d d6 bd 16 31 0b be 34 dd 15 bb 9a 4e b5 bd
       -0.10451821 -0.13592944 -0.0022867443 -0.08852883

dep_feature2d.1.conv_out.weight f4 [8, 4, 1, 1]
000000 da 7b a9 3c 3c cb 05 bd 38 e1 9f bd 7a 3a b7 bd
       0.02068894 -0.032664523 -0.07806629 -0.089467004
000010 1b 75 36 be 1d 13 62 bc 9c d2 c8 3d ff 0d 8b 3c
       -0.1781811 -0.013798502 0.098057956 0.016974447
000020 8f 9d 97 bd 22 9b c1 3c 99 61 d4 ba 9a a3 18 3d
       -0.07403099 0.023633543 -0.0016203403 0.037265398
000030 75 39 a6 3d 0f 0c bb bb 15 61 40 3d 62 e0 0a 3d
       0.08116428 -0.0057082246 0.046967585 0.033905394
000040 04 ec 4f bd d1 20 9e ba 39 65 84 bc 60 21 b6 bd
       -0.05076219 -0.0012064223 -0.016161548 -0.088930845
000050 bc 97 43 3e 69 40 3a 3d bd b4 5c 3c 2c f0 13 3e
       0.19100851 0.045471583 0.013470826 0.14447087
000060 ad 2e f7 bc 42 b7 01 3e 91 dc e0 bc db 20 0f 3e
       -0.030173624 0.12667564 -0.027448924 0.13977377
000070 91 8d f5 bd d3 c4 26 bd 38 ae ab 3d a5 bb a2 bd
       -0.11989892 -0.04071505 0.08382839 -0.079459466

dep_feature2d.2.conv_in.weight f4 [4, 8, 1, 1]
000000 e6 be 8b bd e2 14 36 bd 4e 2d 70 bc c7 e3 86 bc
       -0.0682352 -0.04445351 -0.014659239 -0.016466035
000010 a2 32 a2 3d a1 30 82 3d 99 23 0d 3e 43 e7 9d 3c
       0.07919814 0.063569315 0.1378311 0.019275313
000020 f2 40 12 bd 9f e7 18 3d 5a bb 65 bd 1a a6 7d bd
       -0.035706468 0.037330266 -0.056086875 -0.061925985
000030 e1 9a e2 3d ca 48 a6 3c 84 93 c6 3b 11 c6 bc 3d
       0.11064697 0.02029838 0.0060600657 0.09217466
000040 a4 48 b5 bc 83 fe 5f bd 55 b4 72 3d fc c8 ab bd
       -0.022129364 -0.05468608 0.05925401 -0.08387944
000050 fa da ea bd 3f e7 46 3d 1a 6b 29 3d e7 f0 a3 3c
       -0.11467548 0.048560377 0.041361906 0.020012332
000060 ce 26 8a 3c 16 f8 1d bd 87 8a 81 3d 3d 84 df bd
       0.016864207 -0.03856667 0.0632525 -0.10913894
000070 08 92 1c bd 79 20 64 bd 1d ef 22 3e 96 1f 90 bc
       -0.038225204 -0.05569503 0.15911527 -0.017593186

dep_feature2d.2.conv_1xk.weight f4 [4, 4, 1, 3]
000000 3c 47 03 bd 45 24 9d 3d 65 c2 28 3e 4f 64 a9 bc
       -0.032050356 0.076729335 0.16480406 -0.020677714
000010 03 2a a6 3d a1 ec a7 3d e3 3d 90 3d a8 3e a4 bd
       0.08113482 0.0819943 0.07043054 -0.08019763
000020 44 c2 38 bc d4 97 5b 3d 05 df 15 bd e3 29 95 bd
       -0.011276785 0.05361159 -0.03658964 -0.0728338
000030 59 d8 b5 bd 5d 89 ba 3c 5b a2 c2 3c 9c 4e 1e bd
       -0.08879156 0.022770578 0.023759058 -0.038649186
000040 af f2 8a 3d 84 65 ac b9 6e b2 15 be fa 94 08 bd
       0.067845695 -0.00032882032 -0.14618847 -0.0333452
000050 2b e2 2d 3e ef d9 73 3d ca 40 9d 3d 2a cd 0a 3c
       0.16980807 0.05953401 0.07678373 0.0084717665
000060 83 59 4e bd 9b dd 7f bc 0a 05 c1 3d 3d 32 30 3d
       -0.050378334 -0.0156168 0.09424789 0.04301666
000070 e5 43 99 3d b6 6a 9c ba 31 6e 92 3c 62 d8 fc 3c
       0.07483653 -0.0011933658 0.017874809 0.030864898
000080 3d 25 48 ba 80 f3 24 be 53 3c ba 3d be 96 2c 3e
       -0.00076349435 -0.16108513 0.09093537 0.16854379
000090 38 82 0b 3e b1 f1 b1 3c 49 b0 65 bb 1d b1 6e bd
       0.13623893 0.021721693 -0.00350477 -0.058274377
0000a0 bd 00 a1 3c 36 7b 9d 3d 66 d1 de 3d 99 93 a0 bd
       0.019653672 0.07689516 0.10879783 -0.07840652
0000b0 98 f5 10 3e c7 7a 12 3d d9 35 a8 3d e5 30 bf bc
       0.14156187 0.03576162 0.082133956 -0.023338744

dep_feature2d.2.conv_1xk.bias f4 [4]
000000 29 09 44 3e 7f 9d 88 3d d2 bb a3 bc 0a 6f 4c be
       0.1914412 0.06670665 -0.01998702 -0.19964233

dep_feature2d.2.conv_kx1.weight f4 [4, 4, 3, 1]
000000 6e da 96 bd 2a 2b bb bd 3d 02 b8 bc e9 10 e2 bc
       -0.07365881 -0.09139092 -0.022462005 -0.027595954
000010 a6 15 14 3e 31 05 0c be 6d 11 ec bd 61 3a 00 bd
       0.14461383 -0.13673855 -0.11526761 -0.031305674
000020 f1 98 b2 bd db 23 86 bd 17 78 0f bd f5 28 b7 bb
       -0.087205775 -0.06549808 -0.035026636 -0.0055895993
000030 c8 19 bf 3d ea d5 03 3e fd c1 1e 3c 80 6e ae bd
       0.09331089 0.1287457 0.009689805 -0.0851717
000040 4f 45 b1 bc 09 65 f3 bb c1 84 f9 bd 14 c5 93 bc
       -0.021639494 -0.007427816 -0.12183524 -0.01803831
000050 c1 04 7f be 16 90 fb 3b a4 35 4f 3d 24 fb 23 bd
       -0.24904157 0.0076770885 0.050588265 -0.04003443
000060 12 12 c5 3d 56 ed 61 bd 69 f5 18 3e 77 33 8c bc
       0.09622587 -0.05515798 0.14937367 -0.017114384
000070 8b 3e 64 bc 96 68 18 3e 25 2d d4 3d a5 b0 86 3c
       -0.013930927 0.14883646 0.10360173 0.016441653
000080 0b 9f f6 bd e8 4c d1 3d 54 83 09 3e 3a 2d 92 bb
       -0.12042054 0.10219747 0.13429004 -0.004460958
000090 e9 cb 6f 3d d9 93 d0 bd a4 67 a5 3d b3 10 66 3d
       0.058544073 -0.1018445 0.080764085 0.05616827
0000a0 4e 3c 31 3d 0e aa 30 bd e9 d1 33 3c a8 a8 ba 3d
       0.0432704 -0.043130927 0.010975339 0.091142
0000b0 2c a4 88 3d ef ea 6f bd 8a 73 c9 3b 95 bc 0a 3e
       0.06671938 -0.05857366 0.0061478065 0.13548501

dep_feature2d.2.conv_kx1.bias f4 [4]
000000 69 ea ab bd b7 d8 16 3e 31 52 05 be 00 50 0d be
       -0.083943196 0.14731108 -0.13019635 -0.13800049

dep_feature2d.2.conv_out.weight f4 [8, 4, 1, 1]
000000 2f 04 0f 3e 07 97 4a bc e4 5f d9 3d c5 3e dc 3d
       0.1396644 -0.012365109 0.10613993 0.1075416
000010 af c9 43 be 51 51 b8 3d 63 84 80 3d 44 be 77 3d
       -0.19119905 0.08999885 0.06275251 0.060484186
000020 53 3f 8c bd 3a 2e 80 3d c3 05 ae bd ce ce 16 3e
       -0.06848016 0.06258817 -0.08497193 0.14727327
000030 a8 ef f2 bd 8f 05 6b bb da f1 dd bd 5d 32 94 bd
       -0.11862117 -0.0035861467 -0.10837145 -0.072361685
000040 98 ad 68 bd 78 be 06 3e c0 93 80 3d e2 af fd bc
       -0.056806177 0.13158596 0.06278181 -0.030967657
000050 c5 00 8e 3d 7b 5f 14 3e cf 77 9b 3c 68 3b 98 3d
       0.069337405 0.14489548 0.018978028 0.07433206
000060 9e cb e5 3d f5 4f c3 bc f6 a7 5a 3c ca 38 b9 3c
       0.112204775 -0.023841837 0.013345709 0.022610087
000070 bb 0f 11 3e 9d 5e cb bd 7b c9 a9 3c ff 1e 04 bc
       0.14166157 -0.099301554 0.020725956 -0.008064031

dep_feature3d.0.conv.weight f4 [8, 8, 3, 3, 3]
000000 8f 9e c4 3b 45 81 8c 3d 4d 39 39 3d bb 31 c3 bc
       0.006000347 0.06860594 0.045220662 -0.023827424
000010 77 b3 be 3d 62 39 b8 3d 9c 82 82 bd fd 9b ab bd
       0.09311574 0.0899532 -0.06372568 -0.08379362
000020 b9 a1 54 3c 63 88 59 3c 55 7d 99 bd 1e 95 18 bd
       0.012978011 0.013277146 -0.07494608 -0.037251584
000030 00 a6 8f 3d 7e 1d 98 3c 6b 12 db bb 9d b2 bb bd
       0.07014084 0.01856875 -0.006685545 -0.09164927
000040 49 1a 9e bd a2 46 63 3d 2e 5e 28 3c e2 7a 18 bc
       -0.07719857 0.055487283 0.01027636 -0.009306641
000050 ca 6e 6f 3c 9e 1d 70 3d 4c 3a 53 3d c9 06 b5 3d
       0.0146138165 0.058621995 0.051569268 0.08839185
000060 5b 98 f5 3c d8 01 1f bd 5b e0 59 3d 1c 3d 01 3b
       0.029979875 -0.038820118 0.053192478 0.0019720262
000070 3c cc 79 3d 29 19 9f 3d 76 74 87 3d 4b b9 49 3d
       0.06098579 0.07768471 0.0661401 0.049248975
000080 18 80 45 bd a6 13 39 3d e3 3a 44 bc 98 cc 35 3c
       -0.048217863 0.045184754 -0.01197693 0.011096142
000090 70 f2 6f bd e3 71 a9 bc 04 b5 8d bd 20 b6 b2 3d
       -0.058580816 -0.020684188 -0.069192916 0.08726144
0000a0 8d 58 b3 3d 51 a9 03 3d ea da 89 3d cb 8d 7b bd
       0.08757124 0.032143895 0.06731208 -0.06141452
0000b0 9e 4f a3 bd be 77 33 bd 9b c7 3b bc 45 33 80 bd
       -0.0797417 -0.043815367 -0.011461164 -0.06259779
0000c0 56 1c a8 bd 88 36 8a bc a0 11 99 3c 3d f7 53 bc
       -0.0820853 -0.016871706 0.018685162 -0.012937364
0000d0 07 86 a6 bd c3 7e ec bb 8b c2 77 bd 3f 56 aa 3c
       -0.081310324 -0.0072172596 -0.060488265 0.020793078
0000e0 47 24 a9 39 34 d3 d2 bc 55 a6 b7 bd 2b 31 3e 39
       0.0003226122 -0.025735475 -0.08967272 0.00018138129
0000f0 b2 81 5e 3d b8 ec d8 bc 9f 93 98 3c 94 71 68 bd
       0.054322906 -0.026480064 0.018625079 -0.05674894
000100 46 96 88 3d 47 db d6 bb 67 91 0c be b1 75 35 bd
       0.066692874 -0.0065569016 -0.13727342 -0.044301692
000110 7f 3f 8e 3d f2 a8 49 3c 60 23 12 bc df 03 b2 bd
       0.06945705 0.012308346 -0.008919567 -0.086921446
000120 48 61 82 bd 97 70 e8 3d 30 e1 81 bd 9a 5e 84 3d
       -0.06366211 0.113496 -0.06341779 0.06463356
000130 d5 50 14 3d 3f c0 5b 3d fc 2f cc bd b2 3f 94 3d
       0.0362099 0.053650137 -0.0997009 0.072387114
000140 ce 37 a0 ba f6 95 9c bd b4 8c 33 3d f8 e8 27 bc
       -0.0012223662 -0.0764579 0.043835357 -0.010248415
000150 9d 37 8c bd 23 db 83 bd 0c 50 09 bd c0 67 6d 3d
       -0.06846545 -0.064382814 -0.033523604 0.05796027
000160 df 1a ba bd f9 01 98 3d 9e 8b 8b 3c a1 96 eb bc
       -0.090871565 0.07422251 0.017034348 -0.028758349
000170 97 f2 c2 3d e3 7b b0 3d 83 db d5 3b 15 ce 81 3d
       0.095189266 0.086173795 0.006526412 0.06338135
000180 1a e9 15 bd 8b 1b a9 3d c0 8b 4b 3b c8 e7 01 3b
       -0.036599256 0.082572065 0.003105864 0.001982199
000190 cd 0e 5d 3b ff 98 87 3d 9b 39 7a bd 3d e2 ce ba
       0.0033730746 0.066209786 -0.061090093 -0.0015783977
0001a0 72 d9 99 3d ce 6f c5 3d de 7a 44 3d 69 2c a9 bd
       0.075121775 0.09640466 0.047968738 -0.08260424
0001b0 2a 77 88 3b 9d f2 78 3b 19 0d 2e bd e6 5a 2a 3c
       0.004164596 0.0037986406 -0.04249296 0.010397648
0001c0 2b b4 70 3d ff 7c 82 bd 3a 60 b6 3b 37 e8 22 3d
       0.05876557 -0.06371497 0.0055656703 0.03977224
0001d0 15 83 eb bc 1e bd 7f bd 76 a1 a0 3d e0 04 b5 bd
       -0.028749028 -0.062436216 0.07843296 -0.088388205
0001e0 de 60 7b bc 45 b9 2b bd e7 45 d9 bd db 6e f1 bd
       -0.015342919 -0.041924734 -0.10609036 -0.11788722
0001f0 6b 73 79 bc ad 92 b4 bd 1a 81 14 bc ee 6c f5 3d
       -0.015225272 -0.08817039 -0.009063983 0.11983667
000200 19 16 81 3a 82 75 a2 bd ed 47 83 3d d5 d0 20 3d
       0.0009848505 -0.07932569 0.06410203 0.039261658
000210 f2 9f 5a 3d 6b c8 c7 3d fb ce 6f bd 42 5d b9 3d
       0.053375192 0.097550236 -0.058547 0.09050991
000220 36 e5 62 bd bc 4c 39 3d 79 d5 95 bd 4b df c5 bb
       -0.055394374 0.045239195 -0.07316107 -0.0060385815
000230 a0 b4 ba bd bc 57 81 bd 90 92 76 3d 33 ce de bc
       -0.09116483 -0.06315562 0.060198367 -0.027197933
000240 5b 07 28 3a 7d 38 33 3d 03 68 04 3d a2 e8 9c bc
       0.00064097875 0.043755043 0.032325756 -0.019153897
000250 6d 51 0b bb f5 b9 cd bc 2a c0 b4 bd 5c 44 b1 bd
       -0.002125825 -0.025113085 -0.08825715 -0.08655617
000260 6a 08 99 3c 8e 96 7a bb f8 59 f8 3c 39 e2 99 bc
       0.01868077 -0.003823671 0.030316338 -0.01878463
000270 12 f6 fc bc 0d 0f fc bb bc 25 84 3d 15 6c 22 3d
       -0.030879054 -0.007692224 0.0645251 0.039653856
000280 87 3d bb 3d 19 58 bc 3d c8 3c c1 bc e7 1c 7a bd
       0.09142595 0.09196491 -0.023588553 -0.06106272
000290 ba d5 ad 3d 5f f5 99 3d 62 4d 3e bd 47 cc 91 3d
       0.08488031 0.07517504 -0.046460517 0.07119041
0002a0 e2 d2 b8 bd 55 26 86 b9 65 d7 e2 bc 98 f7 c8 bc
       -0.09024598 -0.0002558703 -0.027690599 -0.024532124
0002b0 65 9b 4f 3c 47 b4 16 bd ed 3a 59 3c 93 cc b7 bd
       0.012671326 -0.03679302 0.013258678 -0.08974566
0002c0 cd 3c 98 bd 48 1d 8a bd 30 92 30 3d 23 e2 2c bd
       -0.07433472 -0.06743866 0.043108165 -0.04220785
0002d0 3e fc 2a bc bc 33 52 bd e7 54 17 bb aa d9 81 bc
       -0.010436116 -0.05131887 -0.0023091377 -0.01585086
0002e0 1d af 35 bd af a9 ff bc df aa ba bb 86 fb 51 bd
       -0.044356454 -0.031208841 -0.005696639 -0.051265262
0002f0 63 42 2c bc 2f 1d 22 bd c6 da f4 bc 09 b6 bd bd
       -0.010513875 -0.039578613 -0.029889476 -0.09263236
000300 df 7e 26 3d 67 25 18 bd df e5 ee bc 07 db 7b 3d
       0.040648337 -0.037145045 -0.029162345 0.061488178
000310 9f 8a 83 3d fb dc b4 bd 89 ce 35 bd e8 e3 a8 3d
       0.06422924 -0.08831211 -0.04438642 0.08246595
000320 1a fc b0 bd 1d a4 b1 bd 8b 39 32 bd c6 89 73 bc
       -0.086418346 -0.0867388 -0.04351191 -0.014864391
000330 53 8e 55 bd 7f ab 0b bd f2 ac 87 3d 76 fe 06 bd
       -0.052137684 -0.0340991 0.066247836 -0.032957517
000340 07 70 95 bd dc 93 31 3c 1b 82 25 bd 75 58 36 bd
       -0.07296758 0.010838475 -0.04040728 -0.044517953
000350 5e ab 9b bd 7f 7f 8b bd 78 29 bd bd 77 8b c3 3d
       -0.07601045 -0.06811427 -0.09236425 0.09548085
000360 ce b6 43 3d d1 92 57 bc 09 25 92 bd c2 24 c3 bd
       0.047781758 -0.013157562 -0.0713597 -0.09528495
000370 66 78 82 bd 6e 44 72 bd ad 71 91 3d 2f a9 34 bd
       -0.063706204 -0.05914729 0.0710176 -0.04410666
000380 20 94 8b bc 1c be e8 ba 73 e8 04 bc 36 44 98 bd
       -0.017038405 -0.0017756852 -0.008112061 -0.07434885
000390 13 9b 02 bc 8e 6e 95 bd 86 4f 7f 3d de 48 52 3d
       -0.007971543 -0.07296477 0.0623317 0.051339023
0003a0 49 9a ae bd 6c cf 20 bc 57 a1 45 3d f9 a1 c3 bd
       -0.08525521 -0.009815078 0.04824957 -0.09552378
0003b0 fc e8 fb bc bb 2e 9e bc 6d b1 3a bd 0e 91 77 bd
       -0.030750744 -0.019309392 -0.045579363 -0.06044107
0003c0 45 ee 9f ba 2d cb 89 3d 0b 9f a0 bc ca 27 53 bd
       -0.0012201747 0.06728206 -0.019607088 -0.051551618
0003d0 75 c7 aa 3d 13 66 16 bd 32 7e 80 3d 29 0b a9 bd
       0.08338825 -0.03671844 0.0627407 -0.08254082
0003e0 29 76 12 3d 30 a1 0c 3d 7f a2 a2 3d 24 23 9a 3d
       0.035757218 0.034333408 0.0794115 0.07526234
0003f0 3c fe cc bc 3d d8 bd 3d cb 67 ed 3c f9 83 95 3d
       -0.025023572 0.0926976 0.028980156 0.073005624

dep_feature3d.1.conv_in.weight f4 [4, 16, 1, 1, 1]
000000 00 c2 4e 3e a3 e3 b2 bd 0f d0 e0 be ab 55 8f bd
       0.20191193 -0.087348245 -0.43908736 -0.06998762
000010 46 06 b1 3e 5a 2c 95 bd d2 06 85 be ee 36 9c be
       0.345751 -0.0728385 -0.25981766 -0.30510658
000020 80 3d b8 be 67 22 00 3c 43 a4 e0 3d 8b 3e f5 bc
       -0.3598442 0.007820702 0.109688304 -0.02993705
000030 47 28 14 be ba 48 bd 3d 0e bf 9a be 30 53 c4 3e
       -0.1446849 0.09242387 -0.30223888 0.38344717
000040 8e f4 c9 be c9 42 57 be 2c 1a 58 be 09 2c e7 be
       -0.39444393 -0.2102157 -0.21103734 -0.45150784
000050 5e 1a 60 be 1f 31 32 be b6 f7 6b be c2 19 b0 3e
       -0.21885058 -0.1740155 -0.23043713 0.34394652
000060 33 a1 14 3e 5f 30 b5 be 98 d9 92 be bf fb 24 3e
       0.14514618 -0.35388467 -0.28681636 0.16111659
000070 8d f4 63 3d be 7b 3f be 97 b5 97 3e ce f5 80 3e
       0.055653144 -0.18699548 0.2963073 0.25187534
000080 7d 79 18 be 7b 23 51 3e 88 b2 e8 3b 6e a2 a0 3b
       -0.14890094 0.20423691 0.0071013607 0.0049021756
000090 4d 10 a4 be 5d 95 e7 3d e0 7b 72 3e 41 50 54 3c
       -0.32043687 0.11307786 0.23680067 0.012958587
0000a0 3f bd 5e be 8c 12 3f 3e 31 38 7b 3e c9 ae 95 bd
       -0.21751879 0.18659419 0.24533154 -0.07308728
0000b0 49 f3 ce bc 7d 31 72 3e e2 03 79 be 07 84 1b 3d
       -0.025262492 0.23651691 -0.24317887 0.037967708
0000c0 c7 2c 24 3e d3 4f 55 3c c2 5f d9 be bb 11 e2 3d
       0.16032706 0.01301952 -0.4245587 0.11038538
0000d0 36 01 a8 3e 59 53 db 3d 76 f0 e1 bd 27 bb 2c 3e
       0.32813424 0.10709257 -0.110321924 0.16868268
0000e0 08 b2 0e bd ab 92 ae bd 18 50 ab be d8 f2 ab 3e
       -0.034837753 -0.085240684 -0.33459544 0.33583713
0000f0 fd ef 99 be c4 64 6d 3e 2d a3 29 3e 95 63 ad be
       -0.3006591 0.2318297 0.16566153 -0.33865038

dep_feature3d.1.conv1x1x3.weight f4 [4, 4, 1, 1, 3]
000000 a0 13 83 be 30 99 53 be 5f 85 f3 bc cf 31 6b be
       -0.2560091 -0.20663905 -0.029726682 -0.22968219
000010 5b 87 23 be ac 78 16 3d 8d 02 01 be 45 86 a0 3e
       -0.15969603 0.036736175 -0.1259863 0.3135244
000020 8a 35 9e 3e 00 4d 2e bd cc 26 0b 3e e5 ff 6c be
       0.30900222 -0.0425539 0.13589019 -0.23144491
000030 54 aa 3d 3e 46 4c 6f 3c 87 79 9e be ca ce c9 bd
       0.18522006 0.014605587 -0.30952093 -0.09853895
000040 41 3c 85 3e 67 6f bc 3e 36 92 5b be 99 69 40 be
       0.26022533 0.36803743 -0.21442494 -0.18790282
000050 ea db 7c 3d c3 af bd bd 6e dc 1b 3d fc f4 a4 bc
       0.061733164 -0.092620395 0.038052015 -0.020136349
000060 de a8 46 be 1e e9 ba 3e 27 0b 1c 3d c5 7b b1 bd
       -0.19400355 0.3650598 0.038096573 -0.08666185
000070 a7 30 c8 be 17 42 89 3d 1d 4d 6b be e8 57 ad be
       -0.3909962 0.06702059 -0.22978635 -0.3385613
000080 82 88 3c 3e 9f 3e 15 be 99 57 4a be f5 4a a8 3e
       0.18411449 -0.1457467 -0.19759978 0.32869688
000090 9c 7c 98 3e 57 0c 6f be 6a 8e 3b 3e f9 e8 b6 3e
       0.2978257 -0.23344551 0.18316045 0.3572462
0000a0 2a fa a2 be 13 2b 83 be 4f 1c 23 3e 11 d4 94 be
       -0.31831485 -0.256188 0.15928768 -0.29068044
0000b0 cd d1 3f be 82 7c 2e be 8f 1f 9d 3e 49 0a 53 be
       -0.18732376 -0.17039683 0.3068814 -0.20609392

dep_feature3d.1.conv1x1x3.bias f4 [4]
000000 54 74 c4 bd e7 c1 01 be b6 51 69 3c 86 56 19 bd
       -0.095925 -0.12671624 0.014240673 -0.03743603

dep_feature3d.1.conv1x3x1.weight f4 [4, 4, 1, 3, 1]
000000 0b 79 b0 be a1 c8 47 be a6 7d 06 be 82 c5 c5 3d
       -0.34467348 -0.19510128 -0.13133869 0.09656812
000010 15 54 ae be 53 fd cf be ca 8f 80 3d 27 b1 9e bd
       -0.34048524 -0.4062296 0.062774256 -0.07748633
000020 64 89 e6 3d c5 80 6f be c3 67 a8 3e c4 95 1c 3e
       0.11256674 -0.23388965 0.32891664 0.15291506
000030 fb d7 cb be d1 de 96 3e 91 3d a9 3e dd 33 54 3e
       -0.39813218 0.2946687 0.33054784 0.2072291
000040 51 1f a6 3d a1 f6 ab 3b 5b 32 1b 3d 25 96 07 be
       0.08111442 0.0052479063 0.03788982 -0.1324087
000050 f1 68 16 3e d0 31 c1 3e 5a 2d b4 be 9d 4d 2a 3d
       0.1468847 0.37733316 -0.3519085 0.041577924
000060 0f e2 ae be ec b7 4a be a2 c6 20 bd 8d 07 91 3c
       -0.34156844 -0.19796723 -0.03925193 0.017703796
000070 d3 16 23 be 19 0d c2 3e d4 4a 45 be d8 d6 97 be
       -0.15926675 0.37900618 -0.19266826 -0.296561
000080 f6 38 1d 3e 0b ed 8c 3e dd 6d 9b bd e9 6d 42 3e
       0.1535376 0.275246 -0.07589314 0.1898724
000090 58 28 b5 3e 6e 9a 31 3e 26 67 a6 bd 3b 34 48 3e
       0.35382342 0.17344067 -0.08125143 0.19551174
0000a0 a4 e2 03 3e 19 82 16 3e aa af e7 3c 1a 99 bd be
       0.12879425 0.14698066 0.028282005 -0.3703087
0000b0 ad a4 5f 3c 76 4a 97 3e be 43 bf 3e db 42 0b be
       0.013650102 0.29548997 0.3735637 -0.13599722

dep_feature3d.1.conv1x3x1.bias f4 [4]
000000 e7 5b 09 be 08 84 0f be 53 cf ee bd a8 cb 48 bd
       -0.13413964 -0.1401521 -0.11660638 -0.049022347

dep_feature3d.1.conv3x1x1.weight f4 [4, 4, 3, 1, 1]
000000 78 15 65 be f3 17 6a 3e 92 50 43 be c2 f2 e2 3d
       -0.22371471 0.22860698 -0.19073704 0.11081459
000010 0a 60 ed 3b 11 59 11 be b5 e7 8d be b0 d4 d0 3c
       0.0072441148 -0.14194132 -0.2771584 0.025492042
000020 63 84 61 bd f8 e7 8f 3e 66 34 9b be 35 8d 86 3e
       -0.055057894 0.28106666 -0.30313414 0.26279607
000030 97 bd b4 3e 3e 97 8a 3e 71 92 90 3d 9d af 3e 3e
       0.35300896 0.27068514 0.070591815 0.18621679
000040 77 78 9a be 13 12 cd 3e 25 31 87 bc ad b3 c6 be
       -0.30170032 0.40052852 -0.016502926 -0.38808957
000050 a8 72 68 3e c7 67 66 3e cf da 65 3e 02 37 f3 3d
       0.22699988 0.22500525 0.2244675 0.11875726
000060 3e 89 64 be 80 65 9e 3e c6 da 39 3d 09 00 09 be
       -0.22317979 0.30936813 0.045374654 -0.1337892
000070 89 3f a2 be ab bc a2 bd ee 2a 9a 3e 97 f9 0b 3e
       -0.31689098 -0.07946142 0.30110878 0.1366943
000080 c9 b4 b0 3d 4c dd 9e 3d d1 36 f2 bd c8 d1 88 be
       0.08628232 0.07757053 -0.11826862 -0.2672255
000090 e5 7d 68 3e 25 13 a2 be b0 6e 98 3e bf 3d 98 3e
       0.22704275 -0.3165523 0.29771948 0.2973461
0000a0 01 87 be be 26 28 99 be 18 06 1e be bd 7c 50 be
       -0.37212375 -0.29913443 -0.15432012 -0.20360084
0000b0 34 e7 2c 3e 47 61 33 3e 5d c6 25 bd 0b 65 a1 3e
       0.16885072 0.17517577 -0.040472377 0.31522402

dep_feature3d.1.conv3x1x1.bias f4 [4]
000000 00 1a 06 bc d5 9f aa bd 8b c4 00 be 79 97 ea bd
       -0.00818491 -0.08331267 -0.12574975 -0.11454672

dep_feature3d.1.conv_out.weight f4 [16, 4, 1, 1, 1]
000000 6f 8a 5d 3e 83 ef 33 3e 98 8c c7 be 1e ff d9 3e
       0.2163484 0.17571835 -0.38974452 0.4257745
000010 71 37 c4 3e db 6e e3 bd 55 37 35 be a4 db f0 3d
       0.38323548 -0.111051284 -0.17696889 0.11760643
000020 cb 3e 60 be 01 c9 e5 bd e2 53 59 bb 6f 9d f9 3d
       -0.21898954 -0.11219979 -0.003316157 0.12188231
000030 6c 43 b5 3d b2 89 fa bd 7b 5e a5 be f1 a1 d9 3e
       0.0885075 -0.122332945 -0.32298645 0.42506364
000040 2b 0b 67 3e 8c 1d da 3e 3b 1f 5f 3e 47 c8 cc 3e
       0.22562854 0.42600667 0.21789257 0.3999655
000050 cf 18 b1 be 5a 5e ae be 37 e2 8b be 11 3b 53 3e
       -0.3458924 -0.3405636 -0.27321026 0.20628001
000060 b6 26 b5 be 12 0c ac 3e 2c d5 85 bd db 31 dd 3d
       -0.35381097 0.3360296 -0.065348 0.10800525
000070 1d 6d a4 3e 5a bf 61 3e e7 90 be 3e e3 3e 4d 3e
       0.32114497 0.22045651 0.37219927 0.2004352
000080 b6 a6 91 3d 68 52 9e 3e 30 75 9f be 85 d5 e4 3e
       0.07111876 0.30922246 -0.31144094 0.44694152
000090 e6 b2 d5 be 9a 22 bb bd 6e 4c 95 3e 13 92 21 3e
       -0.4173805 -0.09137459 0.29159874 0.15778379
0000a0 4b 3b 56 3e 16 62 6a be f9 75 32 3e 11 d0 94 3d
       0.20921056 -0.2288898 0.17427815 0.07266248
0000b0 a1 69 b9 3e a5 68 6a 3e 53 bb 18 3e dd 40 c8 be
       0.362134 0.22891481 0.14915209 -0.39111987
0000c0 c9 20 59 be 43 ed f8 bd cd 2b 3a 3d 89 b1 e9 bd
       -0.21203913 -0.12154629 0.045451928 -0.11410815
0000d0 73 6e 34 3e 26 89 d5 3d 0e f7 1c bd f4 4f 3f 3e
       0.17620258 0.104265496 -0.038321547 0.18682843
0000e0 a9 19 76 3e 9d 67 3f 3d 38 3f 6e 3e 21 8a da bd
       0.24033226 0.046729673 0.23266304 -0.10670877
0000f0 fd a2 4d 3e 3c 8d 80 bd e6 b5 3b 3e 51 94 82 be
       0.20081706 -0.06276938 0.18331107 -0.2550378

dep_feature3d.2.conv.weight f4 [48, 16, 3, 3, 3]
000000 7e f9 30 bd 02 23 1e 3d 00 4e 2b bc db bb 11 3d
       -0.043206684 0.038607605 -0.010455608 0.035579544
000010 0e e7 3e 3d f3 82 96 3c 45 3a ed 3b c1 ac 97 ba
       0.04660707 0.018372988 0.0072396123 -0.001157187
000020 b9 c2 61 bb 63 71 29 bc 4b 47 bb 3b 75 a6 f2 3c
       -0.003444834 -0.010341975 0.005715286 0.029620389
000030 9d d7 e7 bc 00 73 08 3c a6 8a 5e bd f8 7b 00 bd
       -0.028301055 0.008328199 -0.054331444 -0.031368226
000040 95 f8 08 3c 12 56 c8 3b 74 18 90 3c 46 ba 6b ba
       0.008360048 0.006113776 0.017589785 -0.00089922955
000050 8e ad 1d bd 65 67 e9 bc 5a 0b d5 3c db 0b 04 3d
       -0.038495593 -0.028491685 0.02600639 0.03223787
000060 aa aa 1b 3d b9 c5 d4 3c d3 a7 7d 3c 62 5f 0f bb
       0.038004555 0.025973188 0.015481907 -0.002187692
000070 70 46 72 3c 26 50 71 bb 6f 21 97 3c 14 39 15 3d
       0.014787301 -0.0036821454 0.01844856 0.036431387
000080 2f 2c d3 bc 30 05 d7 bc 65 66 81 3d e9 c1 06 bd
       -0.025777904 -0.02624759 0.06318358 -0.03289977
000090 68 05 bb 3c a2 b0 84 bb 62 4f 94 3c 2f fc 0b bc
       0.022829726 -0.0040493766 0.018104259 -0.008544012
0000a0 db b3 04 3d 37 10 97 bc 8c e1 41 3c db df e0 bc
       0.032398086 -0.018440349 0.01183356 -0.027450493
0000b0 d1 16 fc 3c ec 10 85 3c 76 87 0b bd fc 0b bd bc
       0.030772598 0.01624342 -0.034064732 -0.023077004
0000c0 68 7f 44 3c a4 b1 ad bc 66 da 2d 3d 0d 3d fc 3b
       0.011993267 -0.02120287 0.04244461 0.0076977075
0000d0 e0 d6 12 3b 96 80 79 3c 5f 34 38 3d a9 2b 8e bb
       0.0022405908 0.015228411 0.04497182 -0.004338701
0000e0 33 5f d5 3c 84 ed bf b8 72 4d 0e 3d 92 20 67 3d
       0.026046371 -9.1518305e-05 0.034741826 0.056427546
0000f0 96 0d f6 bb bd 66 48 3d 4d 0d 32 3c 6c db 13 bc
       -0.007508944 0.048926104 0.010867429 -0.009024482
000100 fe 21 0f 3d 89 d5 29 bd 5f d8 00 3d c8 2a 06 bd
       0.034944527 -0.04146341 0.031456348 -0.032755643
000110 bb bf 93 3c 5d 54 d5 bc da 69 0d 3b fa e5 cc 3c
       0.01803576 -0.026041204 0.0021577985 0.025012005
000120 58 88 c9 3c 75 86 30 bd 40 d8 b9 3b 5b 4a cf bc
       0.024601147 -0.04309698 0.005671531 -0.02530401
000130 04 be 1a 3d 5b 37 38 bd 14 33 21 3d 39 27 0c bd
       0.03777887 -0.044974666 0.039355353 -0.034217093
000140 c6 15 32 bd 68 ff bd bc a8 16 27 3d cb cf 34 3c
       -0.043477796 -0.023193076 0.04079309 0.01103587
000150 8e fb 5c 3d 3b 04 4e 3c 3a 47 f5 bc 16 38 ef 3c
       0.05395084 0.012574251 -0.02994119 0.029201549
000160 1d 20 06 3d 83 e9 a2 3c fc a7 39 bd 3c 05 1f bc
       0.03274547 0.019886738 -0.045326218 -0.009705838
000170 62 38 5d bd e7 69 0d 3d ed 1e 07 bc 70 7e 0b bd
       -0.05400885 0.034524824 -0.008247119 -0.034056127
000180 cd 59 c0 3b 1b 9d 0a bd 28 58 5b bd fd 80 33 bc
       0.00587008 -0.033841234 -0.05355087 -0.010956046
000190 54 99 6a 3b 32 c6 04 3d 62 e6 20 3d d9 bd 4d 3c
       0.0035796957 0.032415576 0.03928221 0.01255747
0001a0 31 a9 56 bd f0 30 f9 3b ea 9c c6 3b 6f ef a5 bc
       -0.052407447 0.0076047108 0.006061186 -0.020255772
0001b0 a2 21 1b bd 65 f6 4e 3c 68 12 09 bd c5 f5 14 3d
       -0.03787387 0.012631987 -0.03346482 0.036367197
0001c0 f6 f8 81 3c aa 47 4c 3d d5 ae a6 bb ed 9b 0c 3d
       0.015865784 0.04987303 -0.0050867596 0.03432839
0001d0 d9 bb b8 bc 5d 08 a6 3c 1b c1 8f 3c 76 79 80 bc
       -0.02255051 0.02026766 0.017548135 -0.015682917
0001e0 75 51 d1 3c 8b 94 32 bd a9 fc 70 bd e4 f7 ae 3c
       0.025551537 -0.043598693 -0.058834706 0.021358438
0001f0 07 23 96 bc 32 d8 d4 bc 44 18 d5 bc 3d b2 86 bc
       -0.01832725 -0.025981996 -0.026012547 -0.016442413
000200 80 6f a9 3c 06 a0 2e bd f5 dc 7c 3c a2 19 6d 3c
       0.02068305 -0.04263308 0.01543354 0.014471443
000210 a9 41 99 3c d3 9c 56 bd ea bf aa 3c 6f d1 40 3c
       0.018708067 -0.052395653 0.020843465 0.011768683
000220 8b 5a 44 b9 cd 5d ab bc 56 99 e5 bb 72 71 1b bd
       -0.00018725746 -0.020918751 -0.0070068045 -0.037949987
000230 e1 87 9b 3c 84 63 b7 3c 27 56 a4 bc 3b f7 db bb
       0.01898569 0.02238632 -0.020060612 -0.006712822
000240 ec ce ad 3b 53 30 1f ba 40 86 94 3a 15 0f aa 3c
       0.005304208 -0.00060725695 0.0011331514 0.020759145
000250 e4 c9 0c 3d fe 66 9a bc 0e 08 22 bd d8 54 1e bd
       0.034372225 -0.018847939 -0.039558463 -0.038655132
000260 20 05 0a 3d 9d a3 18 3c 42 af 17 bd 68 3f 55 bb
       0.033696294 0.009316352 -0.037032373 -0.0032539014
000270 e4 79 fb 3c 7a 1f af bb d8 8b 2b bd ae bd 2a bc
       0.03069777 -0.0053443285 -0.041881412 -0.0104212
000280 14 d9 2f bd a7 01 81 3c 52 89 e1 3b 37 0d 0b 3d
       -0.04293163 0.015747858 0.006882825 0.03394815
000290 a8 51 0d bd b7 71 1c 3d f2 ec de 3c 3d da 39 bd
       -0.0345017 0.038194384 0.027212594 -0.045374144
0002a0 e8 e5 46 3d 17 03 c7 3b 51 00 0a bd 8e 91 3b 3d
       0.0485591 0.0060733664 -0.033691708 0.04579311
0002b0 90 14 2f 3c e1 39 d8 bc e9 8a 3b 3c 8f 45 96 3b
       0.010686055 -0.026394786 0.011446693 0.0045859287
0002c0 37 74 8a 3c 10 18 8e 3b 9f 47 26 bc 4e d2 13 bd
       0.016901119 0.0043363646 -0.010148912 -0.036089234
0002d0 f7 96 0b bd 76 d4 ee 3c 73 8e 3f 3d d9 53 0f bc
       -0.03407952 0.029154044 0.04676671 -0.008748018
0002e0 9c 37 f0 bb 09 24 f5 bc 10 67 ec bb aa ed c0 bb
       -0.007330848 -0.02992441 -0.0072144344 -0.0058877068
0002f0 30 fc 39 3d 1c a8 7f 3c a4 2e 71 3d d8 ea 5c bc
       0.04540652 0.015604045 0.05888237 -0.0134837255
000300 33 a8 7e 3d 8e 6b 6d 3d 5f 6f 67 3d 9c 12 9b 3d
       0.062172126 0.0579639 0.056502696 0.07571909
000310 48 82 09 3d 69 51 98 3d ba f2 6d bd 1b 7d 24 bd
       0.03357151 0.07437403 -0.05809281 -0.040158372
000320 84 46 c2 bc 9a 90 b4 3a 00 44 46 bd 90 a6 95 bd
       -0.023715265 0.0013776005 -0.048404694 -0.0730716
000330 d4 95 e5 bc 73 35 8e bc 47 41 16 bd 8c a0 c5 bc
       -0.028025545 -0.017359471 -0.036683347 -0.024124406
000340 e7 7c 0d 3d d9 57 96 3c aa 9f e5 bc f2 04 88 3c
       0.034542944 0.018352436 -0.028030235 0.01660392
000350 a6 32 43 bd 1b 73 34 bd 62 e1 34 bd 79 0c 19 bd
       -0.047655724 -0.044055086 -0.044160254 -0.03736541
000360 25 01 d3 3c df 27 1f bd 6e ea 04 3c f1 15 87 3a
       0.025757382 -0.038856383 0.008112533 0.0010306222
000370 72 d0 3c bd 35 ef ee 3a 5c ff 03 3d 25 63 dc bb
       -0.046097226 0.0018229248 0.03222595 -0.006725686
000380 58 be bd ba 27 2a ea bc d0 bf 88 bc 00 ba 42 3c
       -0.0014476283 -0.028584553 -0.016693026 0.011885166
000390 63 31 dd 3b 4f ec 9c bc f8 fa 32 3c 3b 24 02 3d
       0.006750272 -0.01915565 0.010924093 0.031772833
0003a0 b6 73 05 3d 51 9f 70 ba 2d 86 0f 3d 59 1a 13 3c
       0.032581054 -0.00091790134 0.03504007 0.00897845
0003b0 c5 29 b6 bc 53 fc 0b bd b7 52 1d 3d 7f df d0 3b
       -0.022236714 -0.034176182 0.03840896 0.006374299
0003c0 46 5e 06 3d af 92 85 bc f4 a3 d8 bc 12 da 92 3c
       0.03280475 -0.016305296 -0.026445366 0.01792625
0003d0 13 ec ad 3c 7a 9b 29 bd 3e 74 70 bc 42 76 43 3c
       0.021230733 -0.04140804 -0.014676152 0.01193005
0003e0 e1 6d e8 3c f1 86 09 bc 97 3d 1c bd 96 e9 1a bd
       0.028372707 -0.008393989 -0.038144674 -0.03782042
0003f0 43 32 17 bc 4c 8f 1b bd ce c7 01 3d ca e5 1d 3d
       -0.009228292 -0.037978455 0.03168469 0.038549222

dep_feature3d.3.conv_in.weight f4 [16, 64, 1, 1, 1]
000000 79 61 65 3e 6a 6d 22 3e 55 f1 5d be 60 53 a2 3d
       0.22400464 0.1586205 -0.21674092 0.07926059
000010 9a 4b 11 be a8 05 4d be ac 2d 20 3e 8c b5 6c 3e
       -0.14188996 -0.20021689 0.15642422 0.2311613
000020 ea ed 1d be 09 32 2e 3e 3f 40 aa bc ce ce 30 3c
       -0.15422788 0.17011274 -0.020782588 0.010791494
000030 ab 06 0a 3e dc 2d be bd f2 40 b1 bc 2d 99 e0 3c
       0.13479106 -0.09286091 -0.021637414 0.02741679
000040 f3 a9 08 be 97 94 0a be 4d 88 a8 3d b2 47 3b 3e
       -0.1334608 -0.13533245 0.08229122 0.18289068
000050 06 b6 27 3e 39 0a e3 3d 4f 47 94 3d 86 36 62 bd
       0.1637803 0.11085934 0.072401635 -0.05522778
000060 ff 7a 0a 3e a3 40 dd 3d e3 98 48 3b 12 ab 2e 3e
       0.13523482 0.10803344 0.0030608706 0.17057446
000070 b6 2e 08 3e 00 de 33 3e 65 f1 b0 3b a4 0f 87 bd
       0.13299069 0.17565155 0.00539987 -0.0659478
000080 47 31 f8 3d 59 04 33 be 2d c4 6f 3b 39 33 8b 3d
       0.12118774 -0.17482127 0.0036585436 0.06796879
000090 16 37 17 be 9e 7b 1c be 19 1f 2f 3d 25 87 1b 3e
       -0.14767107 -0.15281531 0.042754266 0.15188272
0000a0 02 86 36 3e 9f 0b e0 bd 28 25 67 be 4c 37 92 3d
       0.17824557 -0.109397165 -0.22572768 0.07139453
0000b0 27 59 c7 bd 65 c6 28 bc e0 c3 07 be 4b d7 52 3e
       -0.09733801 -0.010301207 -0.13258314 0.2058994
0000c0 9b 2c 3d 3e eb eb 40 3d 52 c9 1b 3d 56 a3 df bd
       0.18474047 0.04709999 0.03803379 -0.10919826
0000d0 23 6f 2b 3e 16 b2 56 be 87 9a 44 be dc 36 4f be
       0.16741614 -0.20966372 -0.19199573 -0.20235771
0000e0 2c 04 d0 bc c4 c2 4e 3e 99 0d 80 3e d7 c5 cb 3c
       -0.025392614 0.20191485 0.25010374 0.02487461
0000f0 3d ba 9c 3e 5f 09 15 bd 31 36 01 3e 51 b8 51 be
       0.3061084 -0.03638589 0.12618329 -0.20480467
000100 b9 74 00 3e c8 89 49 3e fb fe a3 bd 47 1c 0c be
       0.12544526 0.19681466 -0.08007618 -0.13682662
000110 04 40 2a 3d 79 5b 9a 3d 99 92 3e 3d ee 71 50 3e
       0.041564956 0.07536978 0.046526525 0.2035596
000120 3b da 65 be f7 21 09 be 4f aa 28 be 5c fc db bd
       -0.2244653 -0.13391863 -0.16471218 -0.10741493
000130 10 5c 16 be 99 e8 0e 3e 6a c0 1a 3e 23 e3 51 3c
       -0.14683557 0.13955916 0.15112463 0.012810501
000140 00 04 ed 3d 8b 8e ba 3d fa de 3b 3e 94 fa 2c be
       0.115730286 0.09109219 0.18346778 -0.16892463
000150 33 5e 5f bd 75 9a eb 3d 51 b2 91 3c 4d 02 1d 3e
       -0.054533195 0.1150407 0.017785223 0.15332909
000160 c7 b6 50 3e d5 83 aa bd 8e b6 c6 bd aa f5 1c be
       0.20382224 -0.08325926 -0.09702788 -0.15328088
000170 3a 21 15 bd 5f 72 5e 3e e4 4b ca 3d ac b0 61 be
       -0.03640864 0.21723317 0.09877756 -0.22040051
000180 82 83 1a bc 3e 63 59 3e 59 b6 c5 3c ac 06 ae bd
       -0.009430768 0.21229264 0.024134802 -0.08497366
000190 55 93 62 be 50 0c 9e bd 49 e7 5e 3e 05 25 cb bd
       -0.22126515 -0.07717192 0.21767916 -0.0991917
0001a0 83 2b 2d be 27 2f 1c 3e 31 67 07 3e bc 68 12 be
       -0.1691113 0.15252362 0.13222958 -0.14297765
0001b0 7e 0c 14 bc cd 42 4c 3e 6b 80 23 3e fe 24 43 3e
       -0.0090361815 0.19947357 0.15966956 0.1905708
0001c0 78 45 cc 3d e7 5e 06 3e 0d a2 50 3e 7b 1d a8 bd
       0.099741876 0.1312214 0.20374317 -0.08208748
0001d0 87 53 a8 3d 64 75 68 3d 6a 4b 2c be 89 3f a4 3c
       0.082190566 0.056752577 -0.16825643 0.020049827
0001e0 6e d8 05 be 16 fd ee 3d 66 8d 75 bd 26 39 ec bd
       -0.13070843 0.11669366 -0.0599493 -0.11534338
0001f0 0a ad 26 be 81 89 33 3e 34 03 62 be 06 50 66 bd
       -0.16276947 0.17532922 -0.22071534 -0.05622866
000200 5b a7 c7 3d 42 82 0f be 54 c7 10 bd 92 49 03 3e
       0.097487174 -0.14014533 -0.035346344 0.12821034
000210 46 0a a8 3c ff 2e 08 3c 8d 44 36 3e 0f 16 25 bd
       0.020512711 0.008311986 0.17799588 -0.04030424
000220 c2 af a2 3d f6 07 4e be d4 2b 02 be 11 c0 15 3e
       0.079436794 -0.20120224 -0.12712032 0.14624049
000230 09 12 df bd 3b 8f 53 3e 8c f1 3c be 64 f0 dd 3d
       -0.10892112 0.20660107 -0.18451518 0.108368665
000240 82 85 f9 3c da f5 05 be 92 d3 6c be f8 ea 61 be
       0.03045917 -0.13082066 -0.23127583 -0.2206229
000250 27 78 19 3d 79 14 42 bd b9 60 0b 3d e8 10 15 3e
       0.0374681 -0.047382805 0.03402779 0.1455723
000260 50 e9 70 3d 38 2a 0e be 4f 13 db bd 82 59 21 3e
       0.058816254 -0.13883293 -0.10697042 0.15756801
000270 6f b8 d3 bd 9b 23 12 3e 8d 7b 34 3c 0f be 19 be
       -0.10337912 0.14271395 0.011015785 -0.15013908
000280 56 c3 70 bd f6 df 64 3e 00 96 bb bc ab 15 18 3e
       -0.058780037 0.2235106 -0.022898674 0.14852016
000290 ae 3a c4 3d d4 34 52 3d 7a 03 37 be 5d 16 61 3e
       0.09581505 0.051319912 -0.1787242 0.21981187
0002a0 93 fa d8 3d ca 6d 1f bd aa f1 3e be 17 af a9 3d
       0.10594668 -0.038923062 -0.18646875 0.08285349
0002b0 26 d9 2b 3e 68 0b 37 bd f6 19 2f be e0 57 45 3e
       0.16782054 -0.044688612 -0.17099747 0.19271803
0002c0 fa 96 28 be ca 88 4a bd 31 06 18 bd 8b 07 b6 3d
       -0.16463843 -0.04944686 -0.03711528 0.088881575
0002d0 78 1a 20 be 4b bb 80 3d 53 40 a6 bc 9b 8e 20 3e
       -0.15635097 0.06285723 -0.020294344 0.156794
0002e0 e7 c7 16 be 57 fa 0b be 12 da 03 3e ce 0a ac 3c
       -0.14724694 -0.13669716 0.12876156 0.021001246
0002f0 28 5e a3 3e f1 88 66 3d 07 5b f2 3c 09 1f 54 3d
       0.31907773 0.05628294 0.02958442 0.05178741
000300 0c 82 08 3e fe 5c 5d 3e 3a 34 65 3d 9c d9 67 3e
       0.13330859 0.21617505 0.05595801 0.22641605
000310 d0 c3 49 be b9 a0 2c be 27 d7 25 3e 51 cd 37 3d
       -0.19703603 -0.16858186 0.16195355 0.04487354
000320 47 96 ac bd 29 42 7a 3d 28 a1 5f 3d 5c 73 d5 3d
       -0.08427101 0.06109825 0.05459705 0.10422394
000330 47 81 fc 3d 8b e1 6b 3d d2 73 ef bd d9 9f 13 be
       0.12329345 0.05758814 -0.11692013 -0.14416446
000340 29 41 4b be 1e c9 29 3e 47 2d e8 bc bd e5 41 3e
       -0.19849075 0.16580626 -0.028341902 0.18935294
000350 70 6a 5c be 43 1a 33 bd 12 44 26 3e 3e b2 86 3e
       -0.21524978 -0.043726217 0.16236904 0.26307863
000360 69 32 47 be 8c 1d 51 3e 18 e4 b9 3d 2a 9d 55 3e
       -0.19452824 0.20421427 0.090767086 0.20860735
000370 4b 52 53 be e0 e6 6f 3d 6c b3 33 be 2c 53 12 bd
       -0.20636861 0.05856979 -0.17548913 -0.03572385
000380 7f d5 62 be 87 0e 22 be 21 09 50 be 62 ce 6f 3e
       -0.22151755 -0.15825854 -0.20315982 0.23418573
000390 88 3c db bc ae 4c a2 3c f4 ab c4 bd ae ea ae 3d
       -0.026762262 0.019811954 -0.0960311 0.08540855
0003a0 8b 75 30 3e 34 db 70 be 69 84 54 3e 46 cd b0 bb
       0.17232339 -0.2352112 0.20753635 -0.0053955643
0003b0 98 9f 9e bd 4c 58 4a bd 40 50 47 be c1 9f 5a be
       -0.07745284 -0.049400613 -0.19464207 -0.21350004
0003c0 37 52 4a be a5 85 62 3d d2 e4 25 be ff d8 c9 bd
       -0.19757925 0.055303235 -0.1620057 -0.09855842
0003d0 a1 12 5b be 01 70 64 3e af df a2 bd 70 19 13 3e
       -0.21393825 0.22308351 -0.079528205 0.14365172
0003e0 18 f7 02 be 31 5c c0 3d 15 b9 7b be e9 1e ee bd
       -0.12789571 0.09392584 -0.24582322 -0.116269894
0003f0 b3 7d 8d be 0e 4e 99 3d ce 96 ce bd 42 4a 60 be
       -0.27634963 0.07485591 -0.100873575 -0.21903327

dep_feature3d.3.conv1x1x3.weight f4 [16, 16, 1, 1, 3]
000000 28 f4 06 be c6 23 01 3d c4 5f f3 bd 27 97 e9 3d
       -0.13179076 0.031528257 -0.118835 0.11405783
000010 8b 4a e7 bb 49 3c 65 bd 3f f6 32 3d ae 9a 11 3e
       -0.0070584468 -0.055965696 0.04369187 0.14219162
000020 73 0b 74 3c 25 bf 9c bd 77 dc 44 3e 36 f5 bb 3c
       0.014895308 -0.076536454 0.19224726 0.022944074
000030 00 2d 71 3d 73 05 e7 3d 47 4b 0c be ee 17 8f bd
       0.058880806 0.11280336 -0.13700591 -0.06986986
000040 33 1b a8 3c de c7 3e 3e ee 92 ef bd ee 4e 3d be
       0.020520782 0.18630931 -0.116979465 -0.1848714
000050 c6 a1 b0 bc e6 ef 18 bd e2 ca 19 3b 52 c6 1a 3e
       -0.021561515 -0.03733816 0.0023466875 0.15114716
000060 3e 0a e1 bd eb 68 a8 3d c7 da f3 bc 21 be d8 bd
       -0.10988282 0.082231365 -0.029767407 -0.10583139
000070 fa 40 a3 bd e1 a6 79 bd 45 53 4f be a2 1c f7 bd
       -0.07971378 -0.060950164 -0.20246609 -0.12066008
000080 5f 3b aa bd 82 15 6e bc ef 23 3f bb 82 45 a9 3c
       -0.083121054 -0.014531495 -0.0029165705 0.020663027
000090 63 16 b2 3d ca 12 7d bd 44 d2 3f bd 00 d8 cc bb
       0.08695676 -0.061785497 -0.046831384 -0.006251335
0000a0 81 8e f7 bd 4f 7f 8a bd e9 43 15 be 84 d3 45 be
       -0.12087727 -0.067625634 -0.14576687 -0.19318968
0000b0 46 80 ba bc 9e 3a 91 bc 28 83 a4 bd ff b3 c2 3d
       -0.022766244 -0.017728146 -0.080328286 0.09506988
0000c0 b2 47 0b be 49 fd 22 3d 70 60 13 3e 7d a9 3b be
       -0.13601568 0.039792333 0.14392257 -0.18326373
0000d0 7f 5f 29 bd d0 46 5b bc d6 45 0d 3e fe ba 0e be
       -0.041350838 -0.013383582 0.13796172 -0.1393852
0000e0 c0 a2 90 bd bf be 6e 3e b7 93 56 3e 2b af 63 3e
       -0.07062292 0.23314951 0.20954786 0.2223479
0000f0 5c 09 7f 3d 20 d0 32 3e fa ba 11 3e dd 7c 23 3d
       0.062264785 0.17462206 0.14231482 0.039914
000100 96 40 b2 3d 96 d4 63 3e 3d ba 53 bc fa f2 c8 bd
       0.08703725 0.22249064 -0.012922821 -0.09811969
000110 f1 f3 0d 3e 89 24 07 be 25 63 54 3d 07 c3 12 be
       0.13862588 -0.13197531 0.051852364 -0.1433221
000120 68 58 1b be 1f c2 5b bd 9c 8d c6 bd 7f 47 d6 bd
       -0.15170443 -0.053651925 -0.096949786 -0.104628555
000130 f1 88 a5 3d e3 98 f9 3d f3 ea 12 ba af 14 1e 3e
       0.0808276 0.12187364 -0.0005604468 0.15437578
000140 11 2c e9 3d 0b bc dc 3d 71 44 c7 bd 8e 93 ea 3d
       0.11385358 0.10778054 -0.09729851 0.11453925
000150 98 3b a0 bd c6 0e 9b 3c 0d db b9 3d 5d 5b 0c bd
       -0.078238666 0.018927943 0.09074984 -0.03426682
000160 e9 f5 c9 bd 97 08 27 3e c4 6e 2d be 49 19 32 be
       -0.09861357 0.1631187 -0.16936785 -0.17392458
000170 1e e4 07 be 25 95 45 3e e1 c3 11 3e 13 41 2e be
       -0.13270614 0.19295175 0.14234878 -0.17017011
000180 f8 97 29 3c c2 62 4f 3e 4d 53 46 3d 0a 4f 0b 3e
       0.010351174 0.20252517 0.048419286 0.1360437
000190 82 8a a6 3d 3c 94 b0 3d fc 00 cf bd 77 41 ef bc
       0.08131887 0.086220235 -0.1010761 -0.02920602
0001a0 2d 3c 50 3b 0e 18 8d 3b fa 9b c3 bd a9 49 1d bd
       0.0031774149 0.004305846 -0.095512345 -0.038400326
0001b0 88 a1 29 be f8 26 8c 3c 0b f1 1a 3e bc 28 45 be
       -0.16565526 0.017108425 0.15131013 -0.1925382
0001c0 32 ef 0d be db 71 81 bd 7e 27 32 3e 68 a7 2b 3e
       -0.13860777 -0.06320544 0.17397878 0.16763079
0001d0 a5 79 4c 3e 5f 4e a1 bd 28 68 ec bd 1a 70 4e bd
       0.19968279 -0.07876276 -0.11543304 -0.050399877
0001e0 c4 10 f9 bd c9 8b 07 3e 63 59 e6 bd 27 e8 47 3e
       -0.12161401 0.13236918 -0.11247518 0.19522153
0001f0 ad f4 13 be ce 32 97 bd 78 ef 17 3d e8 4d 7c bd
       -0.14448805 -0.07382737 0.03709361 -0.061597735
000200 3c a2 53 3c 9f e5 19 be b0 ae 07 bd 36 bd 09 be
       0.012917098 -0.15029 -0.03312558 -0.13451084
000210 0a 2b 8b bd fc ff 2b 3d 0c 56 2b be 94 b5 0e 3e
       -0.067953184 0.041992173 -0.16732043 0.13936454
000220 2e 11 33 3e 78 70 60 be f2 36 1c 3e 76 14 48 be
       0.17487022 -0.21917903 0.15255335 -0.19539055
000230 e6 6e 20 3e 70 5c c8 bd db 7e 63 3d a0 96 70 3d
       0.15667304 -0.09783256 0.0555409 0.058737397
000240 97 f3 a5 3d 44 09 c0 bd 63 11 28 be 39 29 7b 3d
       0.08103102 -0.09376767 -0.16412883 0.06131861
000250 ec 32 2d be a5 a6 bf bb 0a 32 36 3e 82 67 b9 bd
       -0.16913956 -0.005848723 0.17792526 -0.09052946
000260 df 28 8d bd 90 46 07 be 46 77 da 3c b4 6f 3d 3e
       -0.06892561 -0.13210511 0.026668202 0.18499643
000270 3d 1c d2 3c 40 89 47 3e 59 53 26 3d 9c 7f 0e be
       0.02564823 0.1948595 0.04060683 -0.13915867
000280 a9 c8 35 3e e0 36 8a 3d e4 22 7f bd de af 0d be
       0.17752327 0.06748748 -0.062289134 -0.1383662
000290 bc 19 18 3e 18 de 40 3e 00 cb a2 3d f1 f6 28 3d
       0.14853567 0.18834722 0.079488754 0.041251127
0002a0 14 9c 19 be f5 3d 8f ba d7 e9 3f 3e 72 05 9d bd
       -0.15000945 -0.0010928499 0.18741547 -0.07667054
0002b0 6d d6 6a 3e 9b 97 e8 3d f4 72 02 3e 56 f5 12 bd
       0.2293336 0.113570414 0.12739164 -0.0358785
0002c0 36 97 82 bd 33 07 1a 3e a9 ba 1d be 7b 34 9f bd
       -0.063764974 0.15041809 -0.15403236 -0.07773682
0002d0 cf 69 c7 3d 2d b1 3d 3e e4 f0 44 be 1c 01 1f be
       0.09736978 0.18524618 -0.19232517 -0.15527767
0002e0 83 1d 6d 3e 4e f0 1c 3c 2c ca 77 bd 07 5b 24 be
       0.23155789 0.0095787775 -0.06049554 -0.16050349
0002f0 28 be 3b be e2 ae a9 3c cf 7e 01 be 20 77 64 3d
       -0.18334258 0.020713273 -0.1264603 0.05577767
000300 e4 f7 8e 3d 97 6e 68 bd 89 45 00 be 7e ff 8b bd
       0.06980875 -0.05674609 -0.12526526 -0.06835841
000310 be de 35 3e df 68 17 be 94 2a 74 bd 3e 30 08 3e
       0.1776075 -0.14786099 -0.05961092 0.13299653
000320 81 be ac bd a8 b8 cb bb 70 13 68 3d 40 36 34 3e
       -0.08434773 -0.006217081 0.056659162 0.1759882
000330 62 d3 07 3c a7 ec ca bd a6 40 20 be 81 b4 9e bd
       0.008290144 -0.09908419 -0.15649661 -0.07749272
000340 ad 24 cf bd 26 31 b4 bd e1 a0 01 3e 18 e5 03 bd
       -0.10114417 -0.08798437 0.12659027 -0.032200903
000350 23 6c 11 3e 22 99 9b bd d3 8c 7e 3d 48 9e 16 be
       0.14201407 -0.07597567 0.06214602 -0.14708817
000360 7d 01 b9 3d 23 6d ff bd b3 a6 fe 3b 98 40 96 bd
       0.09033487 -0.12471988 0.007771337 -0.07336539
000370 b6 4b 86 bd 99 e4 47 3e 3b 7a 74 bd b1 82 11 be
       -0.065574095 0.19520797 -0.05968688 -0.14210011
000380 d9 0e 4d 3e 75 1f 37 bd 75 c5 92 bd 8d 06 28 3e
       0.20025195 -0.044707734 -0.07166568 0.16408749
000390 9d b0 33 be 20 82 a4 bd 3e 85 aa bd fd 07 2b be
       -0.17547841 -0.08032632 -0.08326195 -0.16702266
0003a0 d5 9d 0d be e7 0c 8e 3b 79 36 05 3e 93 0c 48 be
       -0.1382974 0.004335034 0.13009061 -0.19536047
0003b0 e4 1b 40 3e 85 b6 c0 bd e7 92 24 be 55 07 4b be
       0.1876064 -0.09409813 -0.16071664 -0.19827016
0003c0 25 50 19 3e 7e 94 0c 3e 46 38 f5 3d 39 77 2e bd
       0.14971979 0.1372852 0.11973624 -0.04259417
0003d0 b4 08 92 bc 1d 2d ef bd 33 3e 61 3e 04 0f 20 3e
       -0.017826416 -0.116785266 0.21996383 0.15630728
0003e0 e7 99 45 3e bd d3 a8 bd d3 1c 4e be 44 f7 76 3d
       0.1929699 -0.08243511 -0.20128183 0.060294405
0003f0 09 71 38 be 1d c3 13 bd 2a d0 ed bd 08 ca b7 bd
       -0.1801187 -0.036074746 -0.1161197 -0.08974081

dep_feature3d.3.conv1x1x3.bias f4 [16]
000000 82 9f e0 bd c9 68 d4 bb 40 7e 45 bd ea 64 b4 bb
       -0.10967924 -0.006482218 -0.048216105 -0.005505194
000010 29 f9 de 3d 44 f1 ba 39 d0 bf a8 bb b4 52 1d 3d
       0.10887367 0.00035656441 -0.005149819 0.03840895
000020 54 60 b3 3a 21 5e d0 bb 30 a3 98 bc 35 e3 23 bd
       0.0013685324 -0.0063588773 -0.018632501 -0.040011603
000030 e5 f1 24 3d 76 45 c7 3d 69 1d aa bc 98 1a b4 bc
       0.04026975 0.097300455 -0.020765977 -0.021985337
